models/model_fold_5.pt (torch, 87693 bytes, 8 tensors)

net.0.weight f4 [64, 66]
0.1110046 -0.051790588 0.060731396 0.09389009 0.07947931 0.042440444 -0.0822389 -0.050173216
-0.011159821 0.07901107 0.0024207023 -0.041312296 -0.08553241 -0.09110719 0.008241174 -0.07058583
-0.056876868 0.016195858 0.037178364 0.10578927 -0.13344064 0.010185137 -0.035226867 -0.020253506
-0.036660355 0.008243302 0.09737006 0.05391829 -0.106419995 0.043064825 -0.11512325 0.09567514
0.013501212 0.09113549 0.033455644 -0.038187012 0.041316956 0.10623911 0.048563227 -0.059042975
0.019830504 -0.034232706 0.05855842 0.04934482 -0.083688796 -0.09684997 0.0032143146 -0.0925221
-0.03232251 0.12192454 -0.13202092 -0.043089487 -0.10777541 -0.03561569 -0.08112936 -0.08199995
0.08265607 0.09384056 0.01012263 -0.013964855 0.06858827 0.1071817 -0.018923141 0.037200436
-0.09707143 -0.105900556 -0.008218022 0.036168545 0.016263768 0.0420818 0.016646516 -0.07176195
-0.06401462 0.10847845 0.035205156 0.04215339 -0.06346436 0.079658 -0.0032811451 0.17027873
-0.016344445 0.04220169 -0.07801166 -0.11554286 -0.11596383 0.10806495 0.026825946 0.0891017
-0.06820871 -0.07567368 -0.04836029 -0.037670583 0.11770499 -0.041961573 -0.09993431 0.007393118
0.07657293 0.0015253841 0.06095126 0.09146092 0.10019286 0.09775251 -0.04329431 -0.11986772
-0.04574827 -0.075402334 -0.017035058 -0.009834058 -0.05364662 -0.020243593 0.028317288 0.092691764
0.08585797 -0.063769594 -0.05209972 -0.1050407 -0.11713676 -0.0411736 -0.10002052 0.09963785
-0.029746316 -0.049658157 0.016349345 -0.079748414 -0.028323986 0.041982803 0.016765714 0.053169012
0.055210784 0.036289897 -0.09713937 -0.050118886 0.04181934 0.035037115 -0.0026540384 0.0044675944
-0.13551952 0.04699028 -0.124479845 -0.089595936 0.028795289 -0.055422164 0.09471766 0.117031835
-0.083816454 -0.09440078 -0.03701507 -0.011327665 -0.12423543 0.18323839 -0.11071609 -0.08971509
-0.04835401 0.027029142 -0.12292465 0.06284526 -0.06115241 -0.026228325 0.12239094 0.008333316
0.101743765 -0.03046458 0.074777514 0.011728581 -0.16091737 -0.03805698 -0.066663675 0.036315814
-0.024321325 0.05360481 0.015340716 -0.0767503 -0.053728033 -0.13871114 0.11404455 0.082752265
-0.06694201 0.061346322 0.005466312 0.12247452 -0.02976239 -0.0017649205 0.036332622 0.04050935
-0.03955826 -0.07522847 0.095791966 -0.04571573 -0.037460893 0.08445307 0.0926391 -0.023634657
0.03270419 -0.086937614 -0.0993297 0.12368289 -0.023838889 0.041218743 0.0829233 0.06541602
-0.044213437 -0.0016960978 0.076007895 -0.08577759 0.016278772 0.09933502 -0.1675282 -0.073740095
0.020726645 -0.08865499 0.028033933 0.16159539 -0.060054515 -0.0884454 -0.03230982 -0.03577667
-0.11587512 0.114908464 -0.03226406 -0.10081096 -0.029950283 -0.052126847 0.11789942 -0.0034206423
-0.062483624 -0.012013999 -0.059131455 0.08422213 0.0031190447 0.02051763 -0.0634836 0.024920737
-0.09965765 0.11930552 0.098107606 0.09582737 0.015247092 -0.09526507 -0.103310674 0.05731132
0.030642409 0.07224713 -0.11318387 -0.04576707 -0.044664517 -0.10536324 -0.0351356 0.09797594
-0.057971522 0.08315663 0.038839087 -0.0016394407 0.08772677 -0.052526817 0.018777562 -0.038013138
00000000: 6156 e33d 5e22 54bd 7cc1 783d 7349 c03d
00000010: 0cc6 a23d 08d6 2d3d de6c a8bd 6e82 4dbd
00000020: afd7 36bc 8ed0 a13d a5a4 1e3b 1537 29bd
00000030: 9e2b afbd 6896 babd fd05 073c 4e8f 90bd
00000040: b8f7 68bd 2dad 843c 5748 183d 0ba8 d83d
00000050: aaa4 08be 90df 263c 0c4a 10bd aeea a5bc
00000060: 2b29 16bd ea0e 073c f469 c73d 6dd9 5c3d
00000070: baf2 d9bd be64 303d bdc5 ebbd 54f1 c33d
00000080: 3034 5d3c 3ea5 ba3d c908 093d fc69 1cbd
00000090: f83b 293d e493 d93d 3cea 463d 0cd7 71bd
000000a0: 9573 a23c 9837 0cbd f4da 6f3d cb1d 4a3d
000000b0: 0865 abbd 4759 c6bd 40a7 523b 3a7c bdbd
000000c0: 9c64 04bd 93b3 f93d 7e30 07be 9a7e 30bd
000000d0: 5bb9 dcbd c2e1 11bd 2627 a6bd 97ef a7bd
000000e0: 9647 a93d 7b2f c03d 63d9 253c d9cc 64bc
000000f0: 0278 8c3d 1482 db3d b404 9bbc 7c5f 183d
00000100: 63cd c6bd 64e2 d8bd e2a4 06bc 7825 143d
00000110: 983b 853c f75d 2c3d 465e 883c eef7 92bd
00000120: 191a 83bd f329 de3d 4833 103d 08a9 2c3d
00000130: 9af9 81bd bc23 a33d 7b08 57bb 8c5d 2e3e
00000140: c9e4 85bc aedb 2c3d 94c4 9fbd bca1 ecbd
00000150: 727e edbd 2851 dd3d 16c2 db3c f47a b63d
00000160: 02b1 8bbd cdfa 9abd 7015 46bd 784c 1abd
00000170: 500f f13d e6df 2bbd 5caa ccbd f841 f23b
00000180: 45d2 9c3d 66ef c73a 07a8 793d dd4f bb3d
00000190: ea31 cd3d 7832 c83d 6055 31bd 357d f5bd
000001a0: 8a62 3bbd 8a6c 9abd 1b8d 8bbc 071f 21bc
000001b0: 8fbc 5bbd e4d5 a5bc a8f9 e73c 2ed5 bd3d
000001c0: 4ed6 af3d a299 82bd 8466 55bd 941f d7bd
000001d0: 66e5 efbd a6a5 28bd 8fd7 ccbd ee0e cc3d
000001e0: 8cae f3bc 5a66 4bbd 10ef 853c 2353 a3bd
000001f0: b407 e8bc 29f6 2b3d 4058 893c c0c7 593d
00000200: b424 623d b7a4 143d 02f1 c6bd 7649 4dbd
00000210: c24a 2b3d 1483 0f3d 60ef 2dbb e664 923b
00000220: a1c5 0abe e178 403d 4aef febd 137e b7bd
00000230: 19e4 eb3c 5a02 63bd 55fb c13d 63ae ef3d
00000240: f6a7 abbd 3255 c1bd 1d9d 17bd ac97 39bc
00000250: 256f febd d8a2 3b3e 1ebf e2bd 8cbc b7bd
00000260: db0e 46bd 386c dd3c ebbf fbbd 04b5 803d
00000270: f37a 7abd c9dc d6bc 1aa8 fa3d 7688 083c
00000280: 095f d03d db90 f9bc f424 993d 3c29 403c
00000290: 86c7 24be a3e1 1bbd f786 88bd e4bf 143d
000002a0: 843d c7bc b890 5b3d a057 7b3c 432f 9dbd
000002b0: ed11 5cbd 4b0a 0ebe 3090 e93d 057a a93d
000002c0: e418 89bd 4846 7b3d c01e b33b ecd3 fa3d
000002d0: 41d0 f3bc e854 e7ba 84d1 143d 22ed 253d
000002e0: d807 22bd 6211 9abd 942e c43d 6b40 3bbd
000002f0: 9870 19bd bbf5 ac3d 92b9 bd3d 789d c1bc
00000300: d4f4 053d 590c b2bd 5f6d cbbd 744d fd3d
00000310: c649 c3bc fcd4 283d b1d3 a93d d6f8 853d
00000320: 2619 35bd 994f deba 07aa 9b3d 29ac afbd
00000330: 0f5b 853c 2970 cb3d 838c 2bbe 0c05 97bd
00000340: edca a93c bf90 b5bd 6ba7 e53c 4379 253e
00000350: b9fb 75bd dd22 b5bd 4d57 04bd 8f8a 12bd
00000360: ef4f edbd 2155 eb3d 5227 04bd fa75 cebd
00000370: 4c5a f5bc f682 55bd 4075 f13d db2c 60bb
00000380: d4ee 7fbd 5dd6 44bc d333 72bd a77c ac3d
00000390: e368 4c3b 9714 a83c b103 82bd 9326 cc3c
000003a0: 4f19 ccbd 7456 f43d a4ec c83d 2441 c43d
000003b0: f0ce 793c 551a c3bd 8c94 d3bd 46bf 6a3d
000003c0: ca05 fb3c 4ef6 933d f2cc e7bd 4076 3bbd
000003d0: 24f2 36bd afc8 d7bd 59ea 0fbd 9ca7 c83d
000003e0: 8c73 6dbd 064e aa3d bc15 1f3d 80e2 d6ba
000003f0: 18aa b33d 5c26 57bd 67d3 993c aab3 1bbd

net.0.bias f4 [64]
-0.0106836995 0.002760445 -0.04473901 -0.12724534 0.0059679146 -0.092612304 -0.12018798 0.04909137
0.13450655 0.054617494 -0.023862546 -0.067664206 -0.122380845 0.077316195 0.044237934 0.05326827
0.037657764 -0.029929738 -0.09488823 0.06949226 -0.0042913817 -0.067450605 0.017813446 0.10540863
0.07304786 -0.16295616 0.028986285 0.03402187 -0.11557118 0.033418864 0.010078739 0.08384074
-0.05225244 -0.052884273 -0.050274815 0.0806805 0.04549529 -0.12826405 0.036496546 0.044409253
0.06563017 0.082194164 0.04125071 -0.005746311 -0.031307504 -0.060311686 -0.08279994 -0.021021426
0.015568689 -0.05746841 -0.12962139 -0.05949207 -0.056277815 -0.0024352693 -0.10654777 0.074661404
0.13408025 0.042824715 -0.0009261283 -0.12993439 0.03805244 0.005380719 0.082617804 -0.08574293
00000000: af0a 2fbc 95e8 343b 4140 37bd 9a4c 02be
00000010: 7f8e c33b 85ab bdbd 1e25 f6bd 0814 493d
00000020: 16bc 093e 98b6 5f3d 637b c3bc 8893 8abd
00000030: cfa2 fabd f457 9e3d d632 353d d42f 5a3d
00000040: 073f 1a3d 362f f5bc c354 c2bd f551 8e3d
00000050: b89e 8cbb 8b23 8abd 81ed 913c 7be0 d73d
00000060: 1e9a 953d fbdd 26be a574 ed3c 845a 0b3d
00000070: 95b0 ecbd 38e2 083d 4c21 253c b2b4 ab3d
00000080: a806 56bd 2e9d 58bd f7ec 4dbd d13b a53d
00000090: 4559 3a3d a757 03be 677d 153d 7ae6 353d
000000a0: 1c69 863d 6a55 a83d 81f6 283d 8d4b bcbb
000000b0: 4c3c 00bd 6309 77bd 0493 a9bd 2035 acbc
000000c0: d113 7f3c ff63 6bbd 78bb 04be f5ad 73bd
000000d0: 9183 66bd 0a99 1fbb b835 dabd 14e8 983d
000000e0: 554c 093e f868 2f3d 6bc7 72ba 850d 05be
000000f0: e0dc 1b3d be50 b03b 8633 a93d fd99 afbd

net.3.weight f4 [128, 64]
-0.11694238 0.07886448 -0.15324745 -0.074520126 -0.0807519 0.01328338 0.018603725 0.023047134
-0.029056147 0.112065904 -0.08980883 0.023478886 -0.082814775 0.066866934 -0.04249062 0.084663495
-0.028033748 0.08608587 0.093199156 0.102237515 -0.10777048 -0.011138312 0.087201364 -0.07971105
-0.10568642 0.0829302 -0.093566366 0.031570937 0.021416983 -0.04739651 0.11231289 -0.11346009
0.10367163 0.044994548 -0.059142973 -0.1160009 0.0039873226 -0.1417079 -0.048853777 -0.0010383385
-0.028065333 0.064514495 0.07286597 0.12164029 -0.062217426 0.09506415 0.01814709 -0.14411281
-0.02268774 0.093645066 0.063207574 -0.05871551 0.03343636 -0.07576854 0.10902377 0.08771475
-0.07385981 0.027667142 -0.024306556 -0.12597992 0.025886992 -0.11921478 -0.03100711 0.0044343257
-0.11514907 0.03953565 0.0115692485 -0.05452012 0.077837296 0.061576426 0.057841115 0.057667803
-0.04190609 -0.033943623 -0.13670048 0.09049258 0.12472961 -0.09792883 0.11890583 0.054120053
0.015391089 0.030245837 -0.04479499 0.11144958 0.041211396 0.0043794904 0.051999174 -0.061110146
0.071209185 0.119581 -0.048068956 0.119053334 -0.109423295 0.09471299 -0.023287144 0.097591765
-0.07611733 0.0698415 0.06449953 -0.0777591 -0.021522691 -0.017997194 -0.050159916 0.09020129
0.021493182 0.092523195 -0.08010023 0.06958001 -0.02552855 0.036536623 -0.085460246 -0.02096691
0.019216478 0.095064245 -0.05159446 -0.023513453 -0.17514232 -0.1186037 -0.059236884 0.1181131
-0.060566753 -0.0035565882 0.08927977 -0.12413922 0.0023112274 0.02560231 0.06427946 0.03027768
0.11593473 0.09423647 -0.036836635 -0.0013278095 0.07382882 -0.015559113 0.09544355 -0.11090814
0.06158837 -0.00012232098 -0.036668967 -0.053503595 0.11263757 -0.07567811 0.0928143 -0.09164315
-0.039130155 0.08457259 -0.021466622 0.045875795 -0.053895302 0.016430661 -0.034454152 0.077659726
0.016526656 -0.056625128 -0.05135537 -0.039320495 0.008846456 -0.040247448 0.14420952 -0.08936003
0.072965585 0.065111205 -0.015722133 0.12198417 -0.033282712 -0.072012044 -0.00038823846 -0.085322
-0.047049027 0.016254352 -0.08911051 0.17932335 -0.065562144 0.031696837 0.010071994 0.05734376
-0.12799898 0.027105715 0.13969238 -0.0034249017 -0.093552046 -0.13372628 -0.12146378 0.10724233
0.04746948 0.013889819 0.015039872 0.064200595 0.039542656 -0.016158165 -0.088255525 -0.057193756
0.08449762 0.059052624 -0.02769345 -0.113535814 0.09801196 -0.0878224 0.06827565 -0.05763446
0.09582262 0.08703743 -0.087268144 0.13052595 0.008918714 0.060492538 -0.09524948 -0.023092164
-0.072802275 -0.07512067 -0.06164684 -0.08059202 0.029158423 0.057727408 0.04719653 -0.106228046
0.07173189 0.036877118 0.020006847 0.020913871 0.03242502 0.052388586 0.115450494 0.050664227
-0.12909798 -0.058276553 0.04095611 0.09868172 -0.02974626 -0.02663403 -0.08701709 0.059046127
-0.087252736 0.04044867 -0.036539458 0.019062039 0.10430419 -0.002254574 -0.05835793 0.0016835749
-0.024419647 0.018708093 -0.06798997 0.057626385 0.010817582 0.057575736 -0.038324032 0.11307126
0.05323745 -0.08922252 -0.0593052 0.13940528 -0.10481716 -0.010372005 0.055212118 0.09355439
00000000: 7d7f efbd b383 a13d e6ec 1cbe 029e 98bd
00000010: 4161 a5bd 89a2 593c d766 983c 58cd bc3c
00000020: 2807 eebc cf82 e53d b1ed b7bd cb56 c03c
00000030: cb9a a9bd 88f1 883d a50a 2ebd 0e64 ad3d
00000040: 08a7 e5bc ca4d b03d 33df be3d e761 d13d
00000050: c5b6 dcbd 777d 36bc a196 b23d 8c3f a3bd
00000060: 1f72 d8bd 4fd7 a93d b99f bfbd 8750 013d
00000070: ab72 af3c d822 42bd 4d04 e63d c35d e8bd
00000080: cb51 d43d 344c 383d e73f 72bd e191 edbd
00000090: 16a8 823b e01b 11be e61a 48bd dc18 88ba
000000a0: 45e9 e5bc 2d20 843d c13a 953d 8b1e f93d
000000b0: b3d7 7ebd feb0 c23d 35a9 943c 4f92 13be
000000c0: a4db b9bc fcc8 bf3d f972 813d ad7f 70bd
000000d0: 91f4 083d 892c 9bbd db47 df3d caa3 b33d
000000e0: d043 97bd 34a6 e23c 8b1e c7bc e100 01be
000000f0: f510 d43c e126 f4bd 9f02 febc d24d 913b
00000100: 47d3 ebbd 22f0 213d f28c 3d3c 7d50 5fbd
00000110: 2969 9f3d 9037 7c3d ceea 6c3d 1335 6c3d
00000120: b8a5 2bbd 7808 0bbd 36fb 0bbe 2c54 b93d
00000130: 3d72 ff3d e98e c8bd e684 f33d fdac 5d3d
00000140: e82a 7c3c 1ec6 f73c f47a 37bd ad3f e43d
00000150: 48cd 283d d481 8f3b 16fd 543d a24e 7abd
00000160: 1fd6 913d e2e6 f43d f4e3 44bd 3cd2 f33d
00000170: 5219 e0bd e2f8 c13d aec4 bebc 31de c73d
00000180: 67e3 9bbd 0f09 8f3d 5418 843d 2a40 9fbd
00000190: 5b50 b0bc da6e 93bc 7c74 4dbd 74bb b83d
000001a0: 7812 b03c cd7c bd3d 970b a4bd f77f 8e3d
000001b0: 4021 d1bc 6da7 153d c805 afbd ccc2 abbc
000001c0: e06b 9d3c 0bb1 c23d b654 53bd 499f c0bc
000001d0: 8258 33be 7fe6 f2bd 60a2 72bd 48e5 f13d
000001e0: d814 78bd a615 69bb 50d8 b63d b43c febd
000001f0: f677 173b f0bb d13c f3a4 833d e608 f83c
00000200: 306f ed3d 0dff c03d 03e2 16bd e509 aeba
00000210: 9033 973d a6eb 7ebc e877 c33d cf23 e3bd
00000220: 1644 7c3d 4a43 00b9 3332 16bd 9626 5bbd
00000230: 87ae e63d 20fd 9abd 6c15 be3d 67af bbbd
00000240: f146 20bd 6534 ad3d c5da afbc 42e8 3b3d
00000250: 52c1 5cbd 9899 863c cc1f 0dbd 100c 9f3d
00000260: e962 873c c0ef 67bd 025a 52bd 870e 21bd
00000270: baf0 103c 82da 24bd a9ab 133e 6402 b7bd
00000280: fb6e 953d 0659 853d b4cb 80bc d6d2 f93d
00000290: 7453 08bd 0d7b 93bd 7c8c cbb9 4dbd aebd
000002a0: 7bb6 40bd d927 853c 927f b6bd 8aa0 373e
000002b0: 7245 86bd 8bd4 013d 0105 253c 4ae1 6a3d
000002c0: 2a12 03be ce0c de3c 850b 0f3e 5174 60bb
000002d0: 3798 bfbd 8bef 08be 01c2 f8bd dea1 db3d
000002e0: 5c6f 423d 2092 633c cc69 763c 9a7b 833d
000002f0: 7bf7 213d 215e 84bc 50bf b4bd 0044 6abd
00000300: 170d ad3d 2ae1 713d 60dd e2bc 7785 e8bd
00000310: 7fba c83d 3bdc b3bd 1bd4 8b3d 1d12 6cbd
00000320: a63e c43d ae40 b23d a4b9 b2bd 98a8 053e
00000330: cc1f 123c 06c7 773d 2912 c3bd c72b bdbc
00000340: 5c19 95bd ded8 99bd 6681 7cbd 6e0d a5bd
00000350: a5dd ee3c 9373 6c3d 2651 413d 178e d9bd
00000360: 2be8 923d 760c 173d 66e5 a33c 9153 ab3c
00000370: 19d0 043d 6a95 563d 4f71 ec3d 4b85 4f3d
00000380: 4332 04be 65b3 6ebd 98c1 273d a419 ca3d
00000390: 6eae f3bc 9c2f dabc 0436 b2bd 5ada 713d
000003a0: 90b1 b2bd 81ad 253d 66aa 15bd fe27 9c3c
000003b0: 6f9d d53d 7ac1 13bb ba08 6fbd 66ab dc3a
000003c0: b60b c8bc b741 993c 533e 8bbd a509 6c3d
000003d0: 3a3c 313c 89d4 6b3d a9f9 1cbd e891 e73d
000003e0: 830f 5a3d 4cba b6bd 02ea 72bd 42c0 0e3e
000003f0: 61aa d6bd 58ef 29bc 1a26 623d 7299 bf3d

net.3.bias f4 [128]
0.012546209 -0.110008046 0.046258915 -0.11096458 0.04061332 0.009704793 0.029840577 -0.07206854
0.07105677 0.032469727 0.0820152 -0.037754808 0.12894881 0.09830374 -0.09696697 -0.007995563
-0.07475971 -0.07594771 0.012589581 -0.08931053 0.004513395 -0.09319506 0.09854333 0.0466523
-0.116633095 -0.1052832 -0.014407756 0.1013619 -0.0025139474 0.10945107 0.11484185 -0.020880852
0.06771657 -0.0542588 0.11237726 -0.07851379 0.08680894 -0.056849677 0.09117065 -0.10139875
0.09089344 0.050329287 0.036753252 -0.036123652 0.052826986 -0.13633238 -0.09061491 -0.070366144
-0.07272303 -0.04300226 -0.03386283 -0.003445859 -0.023432942 0.07629761 0.083350785 -0.09198787
0.047434427 0.13515092 0.09848429 -0.06596506 -0.0058426135 -0.10353233 0.088862814 0.104402006
0.04426254 -0.01435943 0.017576717 0.049149893 0.03299671 -0.014492327 -0.105911806 -0.022621833
-0.042798515 -0.0069068996 -0.10991033 0.038321957 -0.08261974 -0.06914271 -0.04808447 -0.05931936
0.057407923 0.049974393 -0.05323213 -0.005647829 0.070550546 0.09466969 0.118272774 0.03146522
-0.16382864 0.014714752 -0.09986284 -0.013897937 0.10576662 0.0780178 0.12398432 0.08626648
-0.038494673 0.08110742 0.1262826 0.08018315 -0.0098215705 0.050456807 0.036795445 0.009579232
-0.080726646 0.012698448 -0.04176194 0.06380719 0.114069335 0.062350057 -0.04941869 0.0653973
-0.04042785 -0.0033968796 -0.012051061 -0.006053319 0.09848591 -0.070451625 -0.076433934 0.048552737
-0.0787389 0.10063874 -0.0479063 -0.07294335 -0.104934886 -0.029823652 0.13941582 0.015720591
00000000: 9d8e 4d3c e64b e1bd fd79 3d3d 6641 e3bd
00000010: 275a 263d da00 1f3c 3a74 f43c ac98 93bd
00000020: 3686 913d fafe 043d 96f7 a73d c9a4 1abd
00000030: 280b 043e 7953 c93d 9e96 c6bd d2ff 02bc
00000040: 9e1b 99bd 798a 9bbd 8844 4e3c 70e8 b6bd
00000050: 1ae5 933b 0ddd bebd 16d1 c93d 7b16 3f3d
00000060: 55dd eebd b89e d7bd 820e 6cbc d496 cf3d
00000070: 0ac1 24bb e227 e03d 3432 eb3d 520e abbc
00000080: fcae 8a3d 7a3e 5ebd 0d26 e63d d7cb a0bd
00000090: e3c8 b13d 35db 68bd aeb7 ba3d 26aa cfbd
000000a0: 5726 ba3d 1526 4e3d 948a 163d 65f6 13bd
000000b0: 1c61 583d b79a 0bbe 4f94 b9bd 201c 90bd
000000c0: d0ef 94bd 2323 30bd c0b3 0abd ecd3 61bb
000000d0: 71f6 bfbc ec41 9c3d d1b3 aa3d 2364 bcbd
000000e0: 9a4a 423d 0165 0a3e 22b2 c93d b018 87bd
000000f0: 6573 bfbb c208 d4bd b5fd b53d b8d0 d53d
00000100: a34c 353d d143 6bbc 0cfd 8f3c 6651 493d
00000110: 8f27 073d 3a71 6dbc 4ae8 d8bd 6c51 b9bc
00000120: 7f4d 2fbd 4653 e2bb ab18 e1bd 7cf7 1c3d
00000130: 8a34 a9bd b19a 8dbd 39f4 44bd dbf8 72bd
00000140: 9224 6b3d f3b1 4c3d ef09 5abd 6c11 b9bb
00000150: ce7c 903d 2fe2 c13d ff38 f23d ade1 003d
00000160: b2c2 27be 2516 713c e384 ccbd 2cb4 63bc
00000170: 2b9c d83d ccc7 9f3d 7eeb fd3d 7bac b03d
00000180: 97ac 1dbd a61b a63d 3a50 013e 1037 a43d
00000190: a7ea 20bc ccab 4e3d d2b6 163d 36f2 1c3c
000001a0: 0354 a5bd 270d 503c 910e 2bbd 58ad 823d
000001b0: 2f9d e93d c662 7f3d 416b 4abd 05ef 853d
000001c0: ac97 25bd 2f9e 5ebb d071 45bc ec5a c6bb
000001d0: fbb2 c93d f148 90bd 6589 9cbd 3cdf 463d
000001e0: dc41 a1bd af1b ce3d 6539 44bd 5363 95bd
000001f0: 1ae8 d6bd bb50 f4bc 05c3 0e3e 78c8 803c

net.6.weight f4 [64, 128]
-0.08666101 -0.10324983 -0.011354062 -0.037139647 0.005081423 -0.001404217 -0.017864348 0.034278844
-0.002953771 -0.07748692 -0.060421415 -0.06755562 -0.010974464 0.07645819 0.06065077 -0.09477607
0.0241074 -0.041388433 0.021945601 0.0130259525 0.070233665 -0.07629753 -0.060529757 0.011873839
0.02626238 0.033314943 -0.04912831 0.027577417 0.010654694 -0.08854649 0.019393282 -0.0043846294
-0.039331526 -0.047883462 -0.0038616024 -0.05242126 -0.073359475 -0.09690381 -0.064588286 -0.077828206
-0.029951448 -0.05491747 -0.008379811 -0.057689264 0.0045080953 0.003048438 0.046062887 0.040449146
0.07615386 0.033182565 -0.0058235596 0.043401446 0.054541674 -0.09710452 0.037275013 0.035009153
-0.01002107 -0.08134281 0.022943432 0.020237733 -0.07282988 0.022833869 -0.037324827 -0.062390424
0.03339458 -0.019797096 0.017378923 -0.07170466 0.030232124 -0.06393311 -0.043816317 0.029303024
-0.064301826 -0.084011 -0.086273804 -0.06321007 -0.065063976 0.028909823 0.07311158 0.062110975
-0.014264456 0.0167325 0.046691705 -0.005853148 -0.070282124 0.06741569 -0.027320443 -0.047571436
-0.07427743 -0.080193214 0.012071598 -0.030709745 -0.051867347 -0.009656216 0.04132085 -0.017796533
0.032271028 0.06986376 0.022352975 -0.0311916 0.06773473 -0.02064808 -0.049819328 0.07381804
0.005053352 -0.07440055 -0.08898294 -0.007798636 -0.057382938 0.038138103 -0.02802173 0.06266806
-0.08790531 -0.011650237 -0.058140013 0.014470271 -0.06605304 -0.10054224 -0.0935204 0.04775782
0.022403358 -0.082262404 0.051691495 -0.043106847 -0.04845139 -0.007873342 -0.03663392 -0.066366196
-0.009042183 0.054668237 -0.030674694 -0.036149967 -0.066492274 0.032231327 0.11274049 0.043489516
-0.076076806 0.032753758 -0.011502444 0.061021086 -0.086390644 0.018464273 0.0072351457 0.006651223
-0.048751842 0.048256952 0.012884761 -0.0982442 0.057024736 -0.019016795 -0.042735875 0.036156002
-0.067322105 -0.08375996 0.10501526 0.024296246 0.023109844 0.01743212 -0.054569498 -0.038855776
-0.005195767 -0.04469522 -0.041098725 -0.01070512 0.033202473 0.073302776 -0.07549565 0.012453978
-0.046757996 0.017523682 0.051805988 0.023871232 -0.031863354 0.06144447 0.07482403 0.04694634
-0.036883835 -0.0886225 0.053030908 0.059806176 -0.062310953 0.008596812 0.06375583 -0.032138232
0.049575496 -0.05257035 -0.036068782 0.0681541 0.06551129 0.05068785 0.09002455 0.03814133
-0.08139495 0.032039415 0.02490685 0.022893822 -0.061364934 0.025527928 -0.029250594 0.08804141
-0.022850854 -0.084264316 0.03145408 -0.027922057 -0.062019825 0.12483195 -0.0016372098 0.05845425
-0.06351535 0.03020436 0.032042515 0.104107335 -0.015744112 0.02367712 -0.05013745 -0.08652992
0.0029513831 -0.02624846 -0.06590972 -0.0033393826 0.00036523296 0.08582208 -0.0942118 -0.06410411
0.032417934 0.021165712 -0.09884074 0.01702774 0.03304875 0.08851437 -0.08053404 0.0045562773
0.031313695 0.023614626 -0.03208431 0.016188245 0.09114253 0.10098078 0.050124902 -0.068725646
-0.022387903 0.05940135 -0.021075778 -0.044670757 0.10510934 -0.019252855 -0.049305025 -0.03817466
0.004805298 -0.009460713 0.08356519 -0.03302209 -0.091913015 -0.07290866 -0.01568767 -0.028138604
00000000: 547b b1bd a674 d3bd 6306 3abc be1f 18bd
00000010: 1182 a63b b40d b8ba 4158 92bc f967 0c3d
00000020: 0e94 41bb 76b1 9ebd 727c 77bd 9a5a 8abd
00000030: 3dce 33bc 1d96 9c3d f16c 783d f519 c2bd
00000040: e27c c53c eb86 29bd 43c7 b33c ce6a 553c
00000050: abd6 8f3d e141 9cbd 0dee 77bd 7e8a 423c
00000060: 3424 d73c 4075 083d c43a 49bd 09ea e13c
00000070: 0791 2e3c dd57 b5bd a9de 9e3c f0ac 8fbb
00000080: 181a 21bd 7321 44bd f012 7dbb adb7 56bd
00000090: 7e3d 96bd 8175 c6bd dd46 84bd 6564 9fbd
000000a0: bd5c f5bc 24f1 60bd 7a4b 09bc 944b 6cbd
000000b0: a5b8 933b 4ec8 473b 70ac 3c3d 01ae 253d
000000c0: 8ef6 9b3d 71ea 073d 8fd3 bebb b7c5 313d
000000d0: 1767 5f3d bcde c6bd afad 183d c265 0f3d
000000e0: 6a2f 24bc 0f97 a6bd ddf3 bb3c 9ac9 a53c
000000f0: d527 95bd 180e bb3c ebe1 18bd 1a8d 7fbd
00000100: c1c8 083d 852d a2bc 3e5e 8e3c e5d9 92bd
00000110: 5ca9 f73c 5def 82bd bd78 33bd e50c f03c
00000120: adb0 83bd f60d acbd 52b0 b0bd 4874 81bd
00000130: 4340 85bd 4bd4 ec3c 86bb 953d 1468 7e3d
00000140: 77b5 69bc 9912 893c cd3f 3f3d c4cb bfbb
00000150: 13f0 8fbd 3d11 8a3d 1fcf dfbc 44da 42bd
00000160: c41e 98bd 573c a4bd f4c7 453c 0193 fbbc
00000170: db72 54bd 1b35 1ebc 0d40 293d 09ca 91bc
00000180: a02e 043d bb14 8f3d 961d b73c 8785 ffbc
00000190: 82b8 8a3d 2a26 a9bc 5a0f 4cbd ea2d 973d
000001a0: 9796 a53b 515f 98bd b03c b6bd b38b ffbb
000001b0: 5f0a 6bbd b336 1c3d d48d e5bc 1d58 803d
000001c0: b307 b4bd a3e0 3ebc 3924 6ebd b714 6d3c
000001d0: d146 87bd 17e9 cdbd a087 bfbd b49d 433d
000001e0: 3f87 b73c 3179 a8bd 76ba 533d ce90 30bd
000001f0: f774 46bd 31ff 00bc 730d 16bd 00eb 87bd
00000200: aa25 14bc cdeb 5f3d 7f49 fbbc fd11 14bd
00000210: 1a2d 88bd ff04 043d 7ce4 e63d 1022 323d
00000220: 28ce 9bbd ce28 063d bf74 3cbc 3ff1 793d
00000230: 94ed b0bd 6342 973c cd14 ed3b 81f2 d93b
00000240: 03b0 47bd 15a9 453d 9b1a 533c 4134 c9bd
00000250: c592 693d 1cc9 9bbc d00b 2fbd 5118 143d
00000260: 2ce0 89bd 588a abbd 3e12 d73d ec08 c73c
00000270: db50 bd3c cecd 8e3c 4484 5fbd 3c27 1fbd
00000280: 4141 aabb 5612 37bd 2357 28bd 8764 2fbc
00000290: 51ff 073d c41f 963d 779d 9abd c50b 4c3c
000002a0: 5085 3fbd d38d 8f3c 8432 543d 9a8d c33c
000002b0: 2683 02bd 32ad 7b3d 573d 993d ce4a 403d
000002c0: 8113 17bd b77f b5bd f036 593d 52f7 743d
000002d0: c539 7fbd a5d9 0c3c 6b92 823d 61a3 03bd
000002e0: ad0f 4b3d 0254 57bd dcbc 13bd 6094 8b3d
000002f0: c92a 863d 109e 4f3d cb5e b83d 153a 1c3d
00000300: 65b2 a6bd c33b 033d 7309 cc3c d38b bb3c
00000310: cc59 7bbd f21f d13c f19e efbc 0e4f b43d
00000320: b731 bbbc c592 acbd fed5 003d ccbc e4bc
00000330: 8008 7ebd e5a7 ff3d a597 d6ba b96d 6f3d
00000340: 5614 82bd 226f f73c 033f 033d 3a36 d53d
00000350: ccf9 80bc 85f6 c13c ed5c 4dbd 9936 b1bd
00000360: fe6b 413b 0307 d7bc adfb 86bd 8bd9 5abb
00000370: bd7c bf39 7dc3 af3d 1ef2 c0bd 0449 83bd
00000380: abc8 043d b763 ad3c 046d cabd c27d 8b3c
00000390: 205e 073d 0647 b53d 08ef a4bd d34c 953b
000003a0: ca42 003d 7673 c13c d66a 03bd 369d 843c
000003b0: efa8 ba3d 03cf ce3d c54f 4d3d 08c0 8cbd
000003c0: d666 b7bc d44e 733d 1ca7 acbc aff8 36bd
000003d0: 9143 d73d 2ab8 9dbc 11f4 49bd 085d 1cbd
000003e0: c375 9d3b 1b01 1bbc 3a24 ab3d 2c42 07bd
000003f0: e43c bcbd 2351 95bd 6e83 80bc ee82 e6bc

net.6.bias f4 [64]
-0.05484458 0.029969694 -0.019511325 0.07918295 0.03516488 -0.032882582 0.08806092 0.052505806
0.07823788 -0.01806351 0.047589608 -0.096036725 -0.0015793176 0.015173874 -0.062215764 0.024773922
-0.036296558 0.08023665 -0.01617495 0.03834377 0.10275181 -0.026809782 0.07693439 -0.029816855
-0.05649386 -0.011871463 -0.032618552 0.028431186 -0.06701663 0.013476746 -0.016521761 0.004489342
0.047703125 -0.04006394 -0.013682435 0.1033333 -0.03181285 0.11724791 -0.046709117 -0.037275158
-0.07800033 0.03911988 0.051945716 -0.030450473 -0.06140731 -0.010212797 0.036073867 -0.05436449
0.08490818 0.0018696125 0.07078843 0.0145601 0.06654728 0.030943897 0.013905537 -0.024087591
-0.0011246658 0.09469254 0.071934365 -0.06698633 0.062432785 -0.028432755 -0.046036355 -0.07150949
00000000: b6a4 60bd 0183 f53c 37d6 9fbc ac2a a23d
00000010: 0d09 103d e3af 06bd 4959 b43d 5410 573d
00000020: 2e3b a03d edf9 93bc 52ed 423d e7ae c4bd
00000030: 1b01 cfba d79b 783c f5d5 7ebd aef2 ca3c
00000040: b3ab 14bd 1d53 a43d 5481 84bc 5b0e 1d3d
00000050: 8a6f d23d 30a0 dbbc c78f 9d3d 7a42 f4bc
00000060: 1b66 67bd 8680 42bc 089b 05bd 85e8 e83c
00000070: 0440 89bd 92cd 5c3c a558 87bc 551b 933b
00000080: 5a64 433d 161a 24bd 4b2c 60bc 69a0 d33d
00000090: 314e 02bd ac1f f03d 0f52 3fbd d6ad 18bd
000000a0: a3be 9fbd 2b3c 203d 08c5 543d 4573 f9bc
000000b0: 3b86 7bbd 9353 27bc 31c2 133d 4dad 5ebd
000000c0: 57e4 ad3d c90d f53a 86f9 903d 7c8d 6e3c
000000d0: f149 883d 0e7e fd3c 0dd4 633c 5753 c5bc
000000e0: 8669 93ba 2aee c13d 5352 933d 2130 89bd
000000f0: 85b9 7f3d cfeb e8bc 9e90 3cbd 9173 92bd

net.9.weight f4 [4, 64]
0.055556417 0.0992818 0.0574331 0.11110599 -0.04276627 -0.0485886 0.039565306 0.054405022
-0.11279157 -0.036366872 -0.015856126 -0.004990121 -0.043435723 -0.03687787 -0.07353949 0.06708777
-0.11363088 0.08352899 -0.07020967 -0.05917324 -0.094087005 0.09761139 0.07826853 0.06411416
-0.03862782 -0.042410806 0.107727595 -0.0785704 0.019543462 -0.0031039035 0.08123057 -0.040081058
-0.037050538 -0.055113133 0.0636342 -0.08273898 0.005228966 -0.1072373 0.092695504 -0.111664064
0.07560424 0.10119763 -0.011269036 0.022340208 0.113089874 0.020553604 -0.120545715 0.04002754
-0.13175023 -0.093798995 0.031605538 -0.07099103 -0.05224709 -0.009935947 -0.085930265 -0.01818265
-0.044263497 -0.028733937 0.11976107 -0.07657297 0.06658233 -0.031521987 0.053122308 -0.15932198
-0.09698018 0.028357992 -0.07261302 0.043845758 -0.05546595 -0.0055706296 0.06993137 0.10047352
0.056486387 0.04558732 0.012385814 -0.013998659 -0.08066571 0.05803222 -0.067348845 0.12824266
-0.08056199 0.097875096 -0.048654404 -0.03724103 -0.12026854 0.055980057 -0.101034634 0.043275155
-0.016108733 0.09061628 0.0388803 -0.051774528 -0.010902697 -0.01469963 0.121822044 0.10778014
0.10231894 -0.031899586 -0.054121867 -0.015957586 0.038234074 -0.089129806 0.01803737 0.054068226
0.045730963 0.09674409 0.03719225 -0.073220335 -0.057179432 -0.09919077 -0.058464523 0.09499902
-0.14008261 -0.068789355 0.10394973 0.047967184 -0.15093315 0.065127425 -0.093678124 -0.051767636
0.040769883 0.013911757 0.0898684 -0.08948182 0.12471529 0.11262844 -0.12116099 -0.122225076
0.049133673 -0.05427322 0.11608713 -0.08340011 -0.09085596 -0.10136073 0.0848083 -0.005683425
-0.009126926 -0.085902914 0.1389133 0.0639296 0.06845001 -0.15288861 -0.049475588 -0.06376069
-0.13615532 0.016295273 0.06900786 -0.14210926 0.033694774 -0.043017853 0.044000372 0.025519991
-0.079656854 -0.07648499 0.06371201 0.05180835 -0.006875151 0.12478743 -0.058353413 -0.11563561
-0.060177166 -0.038303193 -0.10197847 0.027939038 0.0069663264 0.084458545 0.017438319 0.031800102
-0.07030222 -0.028939959 -0.08880434 0.10665279 -0.10658797 0.12741242 0.07223742 -0.10843433
-0.061380252 0.04059188 -0.07734591 -0.10436244 -0.11906555 0.09635935 0.05603339 -0.08894584
0.00935702 -0.097385995 0.050887488 0.122415364 0.11573614 -0.11751149 -0.09879261 -0.14443684
-0.013838779 -0.035386674 0.056463674 0.12872742 -0.11572465 0.025920955 0.07367287 0.017749084
0.07775034 0.1329855 0.010464824 -0.027420469 0.08797812 0.008512969 -0.1306357 0.0039208895
-0.10641941 0.044076856 0.1179525 0.056638736 0.1051733 -0.033602268 -0.110039525 0.010668136
-0.09353621 -0.039882928 -0.0268421 0.078770146 -0.059669394 0.09695236 0.00059942843 0.074980915
-0.09557776 0.091180295 -0.09562318 -0.08520279 0.15123321 -0.027048651 -0.103033744 0.116354436
-0.07976801 -0.05235619 -0.06746764 0.14989406 -0.0946325 0.03508815 -0.0017139082 0.06755832
-0.029435426 0.085828744 -0.062457997 0.08681457 -0.11534443 -0.06289178 -0.08935604 -0.09663308
0.12375779 -0.11570916 -0.012527289 0.14724416 -0.09478039 -0.10363161 0.07609973 0.1028996
00000000: 208f 633d 4254 cb3d f83e 6b3d 8a8b e33d
00000010: af2b 2fbd d704 47bd 3b0f 223d cdd7 5e3d
00000020: 44ff e6bd 6ef5 14bd b5e4 81bc 2b84 a3bb
00000030: a8e9 31bd 400d 17bd df9b 96bd 5065 893d
00000040: 4fb7 e8bd 3f11 ab3d 16ca 8fbd a45f 72bd
00000050: b0b0 c0bd 7be8 c73d 404b a03d 494e 833d
00000060: 3438 1ebd f4b6 2dbd 49a0 dc3d 85e9 a0bd
00000070: 9c19 a03c dc6a 4bbb 375c a63d 092c 24bd
00000080: 4ec2 17bd 4fbe 61bd a652 823d 0e73 a9bd
00000090: bf57 ab3b 3b9f dbbd 24d7 bd3d 21b0 e4bd
000000a0: 65d6 9a3d b440 cf3d c3a1 38bc d002 b73c
000000b0: aa9b e73d 0860 a83c ace0 f6bd ebf3 233d
000000c0: 88e9 06be b019 c0bd cf74 013d bf63 91bd
000000d0: 0b01 56bd 62ca 22bc 35fc afbd c8f3 94bc
000000e0: a44d 35bd 6f63 ebbc 4b45 f53d 4ad2 9cbd
000000f0: 515c 883d 331d 01bd c796 593d 4d25 23be
00000100: 8b9d c6bd 054f e83c 23b6 94bd 9c97 333d
00000110: 4430 63bd d489 b6bb 2e38 8f3d 10c5 cd3d
00000120: 455e 673d c5b9 3a3d dfed 4a3c a25a 65bc
00000130: 1034 a5bd 31b3 6d3d 31ee 89bd 0b52 033e
00000140: affd a4bd bd72 c83d d749 47bd 0d8a 18bd
00000150: 5a4f f6bd 584b 653d 3feb cebd 4a41 313d
00000160: 76f6 83bc 0795 b93d f340 1f3d 8711 54bd
00000170: 3aa1 32bc b8d6 70bc d67d f93d d6bb dc3d
00000180: 988c d13d 24a9 02bd e4ae 5dbd 7cb9 82bc
00000190: 559b 1c3d b089 b6bd 1bc3 933c a576 5d3d
000001a0: 6450 3b3d c421 c63d e756 183d 8bf4 95bd
000001b0: fb34 6abd 8824 cbbd 7f78 6fbd d98e c23d
000001c0: d171 0fbe 6fe1 8cbd 99e3 d43d 3d79 443d
000001d0: 388e 1abe 8761 853d 51da bfbd 4d0a 54bd
000001e0: 52fe 263d 23ee 633c ec0c b83d 3f42 b7bd
000001f0: bb6a ff3d bda9 e63d 4123 f8bd 2451 fabd
00000200: 6440 493d 994d 5ebd 17bf ed3d adcd aabd
00000210: b112 babd 3796 cfbd f9af ad3d 063c babb
00000220: 1a89 15bc deed afbd 4a3f 0e3e 86ed 823d
00000230: 852f 8c3d d58e 1cbe eaa6 4abd f794 82bd
00000240: 4d6c 0bbe aa7d 853c fe53 8d3d 1785 11be
00000250: 8803 0a3d 7d33 30bd bc39 343d 4d0f d13c
00000260: 2223 a3bd 2aa4 9cbd 717b 823d fe34 543d
00000270: f248 e1bb 8d90 ff3d fd03 6fbd 5dd2 ecbd
00000280: 557c 76bd cfe3 1cbd 17da d0bd 69e0 e43c
00000290: c845 e43b 9af8 ac3d ceda 8e3c d340 023d
000002a0: 9cfa 8fbd 7e13 edbc 0ddf b5bd c76c da3d
000002b0: cb4a dabd 6778 023e 36f1 933d d112 debd
000002c0: dc69 7bbd ac43 263d 8867 9ebd fabb d5bd
000002d0: a4d8 f3bd 0d58 c53d 4583 653d 3d29 b6bd
000002e0: 304e 193c 4f72 c7bd 666f 503d e8b4 fa3d
000002f0: 1207 ed3d dda9 f0bd c853 cabd 40e7 13be
00000300: 0cbc 62bc 9ef1 10bd 7446 673d 1fd1 033e
00000310: 0c01 edbd 2f58 d43c cde1 963d 8766 913c
00000320: 923b 9f3d 5a2d 083e a774 2b3c e4a0 e0bc
00000330: df2d b43d fb79 0b3c 5dc5 05be ce7a 803b
00000340: 6bf2 d9bd ef89 343d 1591 f13d 05fe 673d
00000350: 1965 d73d 88a2 09bd 675c e1bd 68c9 2e3c
00000360: ea8f bfbd 485c 23bd f7e3 dbbc 3e52 a13d
00000370: e567 74bd f58e c63d f622 1d3a 988f 993d
00000380: 46be c3bd bcbc ba3d 16d6 c3bd cd7e aebd
00000390: e1dc 1a3e 2295 ddbc 5b03 d3bd 3c4b ee3d
000003a0: 695d a3bd 7273 56bd 792c 8abd d47d 193e
000003b0: afce c1bd 98b8 0f3d 37a5 e0ba 045c 8a3d
000003c0: 9022 f1bc fbc6 af3d f5d3 7fbd d6cb b13d
000003d0: b339 ecbd 68cd 80bd 4d00 b7bd 90e7 c5bd
000003e0: b974 fd3d edf8 ecbd 423f 4dbc 2cc7 163e
000003f0: 391c c2bd cf3c d4bd 2dda 9b3d 07bd d23d

net.9.bias f4 [4]
0.06594926 -0.073046565 -0.028811175 -0.08467726
00000000: 6810 873d 7099 95bd 6a05 ecbc 456b adbd
