models/model_fold_4.pt (torch, 87693 bytes, 8 tensors)

net.0.weight f4 [64, 66]
0.11911621 0.11699279 -0.033964448 0.04280823 0.101499505 0.03610336 -0.032845188 0.0024142629
-0.042639043 0.091732934 0.15804794 0.058273453 0.03806937 -0.0017393488 -0.18592165 -0.13394657
-0.02753306 0.089058354 -0.045782268 0.14603288 -0.13765961 0.110308066 0.11085525 0.14875734
0.028709672 -0.05979625 -0.009229414 -0.03055002 0.10223118 -0.14738669 -0.027484795 -0.010576503
0.103361174 -0.08807329 -0.124254 -0.10754149 0.10348715 0.04296732 0.04576917 -0.02634862
0.04667907 0.008537204 -0.0020597002 0.09138933 -0.027255818 0.08122648 -0.022132203 0.05344318
-0.12852141 -0.0798022 -0.1435077 0.022765229 -0.037599087 0.10989198 0.033296138 0.04151135
0.03244975 0.06862946 -0.06363359 -0.020957315 -0.06246461 0.048744112 -0.09793845 -0.0120925885
0.02603228 -0.045960546 -0.01952774 -0.1227725 0.0919683 0.12193674 0.094407715 -0.0126713505
-0.007866242 -0.03516799 0.0336597 0.09553832 0.1371479 0.072043076 0.003199204 0.09026179
-0.15580675 -0.0058637615 -0.014515466 0.044863924 -0.12409014 -0.0642096 -0.005685712 0.12275906
-0.016327694 0.077992715 0.0442628 -0.009158497 -0.009498693 -0.124197245 -0.06546909 0.0704613
-0.19847828 0.06543971 0.12172094 0.08555753 -0.028434427 0.01605755 0.08196494 -0.05235476
-0.004344709 -0.076034695 -0.04838959 -0.05800398 -0.034831468 0.09878561 -0.00041449815 0.109286636
-0.10002035 -0.02495417 0.069469035 -0.055542234 -0.1005926 0.13174105 0.042521626 -0.061346944
-0.06560769 -0.04638927 -0.057244778 0.049437728 -0.03506075 -0.022792205 -0.12196668 -0.03394998
-0.09720014 0.090783626 -0.1022549 -0.06373707 -0.1260385 -0.013510235 -0.032653607 0.09587296
0.055131763 -0.06784719 -0.08428664 -0.08433191 -0.09696865 0.11580168 0.060426075 -0.11750877
-0.09517172 0.0027428267 -0.17198296 -0.011305638 0.1041961 -0.0703893 -0.006901183 0.07967595
0.08869339 -0.03582918 0.07812968 -0.009310068 0.08661959 -0.00028777609 0.051806718 -0.042682864
-0.11809812 0.08533799 -0.1502067 0.03457614 -0.05573464 -0.0416305 0.12416272 0.09988667
0.11065075 0.070292816 0.119548306 -0.00047718734 0.088017985 -0.06621833 -0.0270181 0.050172612
0.0029136091 0.053890586 -0.04691331 0.064090535 -0.003479566 0.03026177 -0.06559415 0.08301531
-0.024454586 -0.1219759 0.05455631 -0.019020133 0.039374344 -0.067262255 0.100466184 -0.09728697
0.03127359 -0.049417622 0.09602781 -0.09689773 0.025348864 0.057650134 -0.02353664 0.11581001
0.04873401 0.072941795 -0.011566887 0.0072395066 -0.01661965 0.016439622 -0.02149602 -0.019729003
-0.02924609 -0.120082855 -0.069623314 -0.14599314 -0.027661014 -0.0557746 0.16944076 -0.1300223
-0.12125945 -0.076983854 -0.08064847 -0.10037765 -0.112393446 -0.0032635836 -0.022170993 -0.061604675
0.04180281 0.13440739 -0.10959191 -0.16122204 -0.044701587 0.07101055 -0.026483424 0.0045723454
0.077546775 0.045969218 0.07391675 0.055577442 0.07218115 0.05581905 0.075903244 0.10728649
0.093891814 -0.08928341 0.026230484 -0.10969429 0.082140625 0.0016658828 -0.14095744 0.082419574
0.074297465 -0.06281597 -0.12258086 -0.10067952 0.048064232 0.051685177 -0.07694408 -0.0967095
00000000: 33f3 f33d ea99 ef3d 4e1e 0bbd af57 2f3d
00000010: f9de cf3d 1ee1 133d ad88 06bd 9c38 1e3b
00000020: 47a6 2ebd 7ade bb3d 52d7 213e 25b0 6e3d
00000030: a1ee 1b3d dcfa e3ba 3f62 3ebe 4a29 09be
00000040: 038d e1bc 3a64 b63d 3086 3bbd a589 153e
00000050: a4f6 0cbe 32e9 e13d 1408 e33d d853 183e
00000060: 8c30 eb3c eaec 74bd f836 17bc 0944 fabc
00000070: 955e d13d 89ec 16be cb27 e1bc 1249 2dbc
00000080: 06af d33d c55f b4bd e278 febd b63e dcbd
00000090: 12f1 d33d 80fe 2f3d 7478 3b3d 10d9 d7bc
000000a0: 8d32 3f3d a1df 0b3c 09fc 06bb 542a bb3d
000000b0: 9847 dfbc 125a a63d 984e b5bc 3ce7 5a3d
000000c0: 1e9b 03be 566f a3bd aff3 12be 257e ba3c
000000d0: 8001 1abd 0c0f e13d 8861 083d ce07 2a3d
000000e0: 07ea 043d 9a8d 8c3d 5452 82bd adae abbc
000000f0: e4da 7fbd e8a7 473d f493 c8bd fe1f 46bc
00000100: a641 d53c 2041 3cbd a4f8 9fbc 2670 fbbd
00000110: e059 bc3d f8b9 f93d d558 c13d 7f9b 4fbc
00000120: 69e1 00bc 4f0c 10bd c1de 093d 98a9 c33d
00000130: 8070 0c3e 528b 933d bda9 513b 2cdb b83d
00000140: ce8b 1fbe cc24 c0bb 47d2 6dbc 3cc3 373d
00000150: f922 febd 5380 83bd 364f babb 1a69 fb3d
00000160: a8c1 85bc a5ba 9f3d e94c 353d 850d 16bc
00000170: 68a0 1bbc 205b febd a914 86bd 044e 903d
00000180: e43d 4bbe 4105 863d d448 f93d c938 af3d
00000190: 51ef e8bc 208b 833c 3cdd a73d f271 56bd
000001a0: 105e 8ebb 14b8 9bbd 2a34 46bd 9595 6dbd
000001b0: 71ab 0ebd 1c50 ca3d 0051 d9b9 acd1 df3d
000001c0: 78d7 ccbd b06c ccbc c845 8e3d 4180 63bd
000001d0: 7e03 cebd 20e7 063e 282b 2e3d ef46 7bbd
000001e0: 535d 86bd ad02 3ebd 8079 6abd 377f 4a3d
000001f0: dc9b 0fbd b8b6 babc abc9 f9bd 220f 0bbd
00000200: de10 c7bd c4ec b93d 046b d1bd 9588 82bd
00000210: 3d10 01be 085a 5dbc cabf 05bd 0b59 c43d
00000220: d8d1 613d 78f3 8abd 799e acbd 35b6 acbd
00000230: 8097 c6bd 6e29 ed3d 5581 773d 70a8 f0bd
00000240: 64e9 c2bd ffc0 333b 4d1c 30be 483b 39bc
00000250: c464 d53d 4428 90bd 5223 e2bb 252d a33d
00000260: e1a4 b53d 9ec1 12bd 7402 a03d 4189 18bc
00000270: 9d65 b13d a7e0 96b9 4833 543d 3ad4 2ebd
00000280: 6ddd f1bd afc5 ae3d c9cf 19be b69f 0d3d
00000290: 024a 64bd be84 2abd 0649 fe3d 6291 cc3d
000002a0: dc9c e23d aef5 8f3d bed5 f43d 002f fab9
000002b0: c642 b43d 7a9d 87bd 1055 ddbc cc81 4d3d
000002c0: 40f2 3e3b 60bc 5c3d 2c28 40bd e641 833d
000002d0: 6e09 64bb 88e7 f73c 3a56 86bd ee03 aa3d
000002e0: fc54 c8bc 80ce f9bd 7076 5f3d 1cd0 9bbc
000002f0: fe46 213d cbc0 89bd 37c1 cd3d 643e c7bd
00000300: bc18 003d 226a 4abd 3aaa c43d 5172 c6bd
00000310: 6ca8 cf3c 8c22 6c3d e9cf c0bc cc2d ed3d
00000320: 509d 473d 8262 953d 0a83 3dbc 6239 ed3b
00000330: ef25 88bc 63ac 863c 6c18 b0bc b89e a1bc
00000340: 7f95 efbc 00ee f5bd ab96 8ebd 3a7f 15be
00000350: 5a99 e2bc e873 64bd e181 2d3e 9124 05be
00000360: e056 f8bd b6a9 9dbd 062b a5bd cc92 cdbd
00000370: 892e e6bd d9e1 55bb f19f b5bc 2f55 7cbd
00000380: 6c39 2b3d 17a2 093e b971 e0bd 6417 25be
00000390: 0319 37bd fb6d 913d c4f3 d8bc 9dd3 953b
000003a0: d8d0 9e3d 384a 3c3d aa61 973d 2ca5 633d
000003b0: b6d3 933d 84a2 643d 2973 9b3d 05b9 db3d
000003c0: 5a4a c03d 38da b6bd 50e1 d63c 66a7 e0bd
000003d0: 5839 a83d c059 da3a 2657 10be 98cb a83d
000003e0: 4529 983d a9a5 80bd ad0b fbbd 1031 cebd
000003f0: 00df 443d d6b3 533d dc94 9dbd a10f c6bd

net.0.bias f4 [64]
-0.05587286 -0.057584286 -0.17866442 -0.19361302 -0.040160317 -0.15578085 -0.008089361 -0.10388984
-0.02707398 -0.17510264 -0.06003919 -0.17528985 0.0708587 -0.07933216 0.03153313 -0.051028166
-0.048579015 -0.04316499 0.051478203 0.04098718 -0.0892944 0.0012191081 -0.08673685 -0.103629634
-0.118929006 -0.13512994 -0.057087302 -0.10079378 -0.028607039 -0.23963723 0.025492875 -0.13078117
-0.0936736 -0.020420615 -0.028736878 -0.0051158722 -0.13027005 -0.10534241 -0.07011273 -0.11511403
-0.014338051 -0.092719704 -0.03378109 -0.016963094 -0.04049599 0.0309559 0.086389035 0.0042384258
-0.030081358 -0.2009891 -0.03438349 -0.24729158 -0.113904715 -0.03174888 -0.1447545 -0.07255464
-0.10263024 -0.103915855 -0.1761483 0.13313562 -0.1921068 -0.25669917 -0.11166615 -0.08288268
00000000: f1da 64bd 80dd 6bbd cef3 36be 7e42 46be
00000010: 257f 24bd 0485 1fbe 3d89 04bc 32c4 d4bd
00000020: 40ca ddbc 1b4e 33be a7eb 75bd 2f7f 33be
00000030: 5e1e 913d e678 a2bd e228 013d e902 51bd
00000040: cafa 46bd c6cd 30bd cfda 523d 2ce2 273d
00000050: fbdf b6bd 7bca 9f3a 17a3 b1bd c63b d4bd
00000060: 0d91 f3bd 815f 0abe 60d4 69bd f86c cebd
00000070: 4f59 eabc 7663 75be 6fd6 d03c 80eb 05be
00000080: f2d7 bfbd 2249 a7bc 9a69 ebbc 0ca3 a7bb
00000090: 8365 05be c3bd d7bd 4397 8fbd e8c0 ebbd
000000a0: 25ea 6abc d4e3 bdbd 0a5e 0abd 30f6 8abc
000000b0: 20df 25bd 3a97 fd3c bcec b03d 7ee2 8a3b
000000c0: 2e6d f6bc 16d0 4dbe b4d5 0cbd 013a 7dbe
000000d0: e046 e9bd 1d0b 02bd 863a 14be 8797 94bd
000000e0: ce2f d2bd d6d1 d4bd 3860 34be b454 083e
000000f0: a5b7 44be 136e 83be 39b1 e4bd 65be a9bd

net.3.weight f4 [128, 64]
-0.23341055 0.050280903 -0.0028794883 -0.14770463 -0.079122454 -0.02826382 0.066163585 0.05759804
-0.051736232 -0.043376707 -0.022353915 -0.0005118222 0.01116905 0.027207972 -0.03712787 0.029822951
-0.18594722 -0.011855722 -0.08646028 -0.17517528 -0.112664506 0.10830849 -0.01759023 -0.048495602
-0.08214024 -0.005164521 -0.09697964 0.12057918 0.0983339 -0.04023871 -0.0011442075 0.0017264799
-0.022624334 -0.13987929 0.13613985 -0.043923873 0.011324217 0.07476256 -0.069693595 -0.019135263
-0.03639004 0.003523102 -0.07602339 0.0066973646 0.0073732613 0.080157384 -0.07510182 -0.09660959
0.062302668 0.0033351625 -0.005797624 0.030416535 0.115697265 -0.053120352 -0.16261065 -0.051428
-0.13117063 -0.062267553 -0.02167673 0.064511955 -0.1567539 0.05127179 0.015419056 -0.09339542
0.032754015 0.12541974 0.06303552 0.1725301 0.010062466 0.0022964464 -0.082148515 -0.0435109
0.0047797095 -0.051081594 0.14992772 0.13666026 -0.094174415 0.04903064 0.12692167 0.096467294
0.013791874 -0.13057359 0.062903486 0.046583552 0.010571304 -0.07408835 -0.055058148 0.0031061012
0.055784624 -0.09901383 0.1521756 -0.016208954 -0.1811069 -0.060748763 0.085830346 -0.09400553
0.039883394 0.10707287 -0.03273633 -0.009874852 -0.073092625 -0.037541524 0.14589229 -0.006250791
-0.08816085 0.045187928 -0.04274551 -0.041928157 -0.11410231 0.0064635985 -0.132053 0.009349508
0.020779517 0.016954593 -0.09384851 0.059726447 0.08930374 -0.003320709 0.016127748 -0.103671074
0.13409513 0.06712849 -0.116844304 0.010995972 0.08449182 -0.0630319 -0.07848409 0.025025897
0.011704417 0.06675578 -0.073111504 -0.055899866 -0.102450736 0.0805166 0.07170468 0.04598047
-0.12910378 0.031942062 -0.10398641 -0.0011927063 0.01703633 0.01091423 -0.031842083 -0.01571789
0.06695979 0.052446082 -0.072122194 -0.094677895 0.08164481 -0.06997658 -0.17394365 -0.05471461
0.05458765 0.061972253 -0.050623797 -0.14644623 -0.028947428 0.1831933 -0.09415594 -0.13335346
0.08910098 -0.0045100017 0.014449967 0.012019919 0.04148414 -0.02630435 -0.01332587 -0.056673516
0.0027523006 0.11443869 0.053097017 -0.16413414 0.09613209 0.041546986 -0.04526241 -0.103190415
-0.010962351 0.13675666 -0.066985495 0.08589173 -0.05921967 -0.09046886 -0.161878 0.12202692
-0.09524336 -0.0039359643 -0.07218454 -0.110482305 -0.015674153 0.09872783 0.12689647 -0.045275323
0.043209754 0.14012443 0.12247451 -0.035572108 -0.0038391184 -0.1448059 0.02949977 -0.005327384
0.14624964 -0.024593199 0.024978636 0.039829947 0.07494334 -0.019655038 0.11300296 -0.042095732
0.07442584 -0.08105401 -0.06358908 0.05689967 -0.17574127 0.10608523 -0.0736061 0.047280956
0.038982615 0.059904937 0.11367552 0.034664877 0.016974954 -0.06462842 -0.020329036 -0.07751879
0.05791186 -0.07850948 0.0023429978 -0.15345514 -0.11906718 -0.12217645 -0.08169456 -0.06179352
-0.022813179 -0.0589731 0.1040776 -0.014521382 -0.041969575 -0.07770575 -0.03851754 0.07755126
-0.020475872 0.1118236 0.07145379 -0.016610488 0.001837114 -0.16767918 -0.09353129 -0.004310469
0.099946305 -0.032397088 0.091200076 0.016475296 0.113276534 -0.15054601 -0.014351993 0.051152095
00000000: 2d03 6fbe 59f3 4d3d ccb5 3cbb e23f 17be
00000010: f40a a2bd 8789 e7bc c680 873d eceb 6b3d
00000020: 5fe9 53bd c6ab 31bd 8f1f b7bc ce2b 06ba
00000030: 64fe 363c 41e3 de3c 6513 18bd 434f f43c
00000040: f368 3ebe 813e 42bc 1612 b1bd 2661 33be
00000050: a6bc e6bd d7d0 dd3d 6319 90bc 53a3 46bd
00000060: 2439 a8bd 243b a9bb 439d c6bd 38f2 f63d
00000070: 4963 c93d 58d1 24bd 3cf9 95ba 0d4b e23a
00000080: ab56 b9bc 843c 0fbe 3f68 0b3e 85e9 33bd
00000090: 3589 393c 1d1d 993d 84bb 8ebd 8ec1 9cbc
000000a0: b90d 15bd d8e3 663b 27b2 9bbd 9175 db3b
000000b0: 669b f13b 8e29 a43d fcce 99bd 40db c5bd
000000c0: 1531 7f3d be92 5a3b fff9 bdbb 192c f93c
000000d0: b0f2 ec3d ba94 59bd 6883 26be 2ba6 52bd
000000e0: 9851 06be 430c 7fbd 6693 b1bc d81e 843d
000000f0: 1884 20be 5e02 523d 35a0 7c3c 1946 bfbd
00000100: 1329 063d 086e 003e c418 813d bbab 303e
00000110: 0bdd 243c fa7f 163b 7b3d a8bd 7c38 32bd
00000120: 1c9f 9c3b ef3a 51bd a786 193e abf0 0b3e
00000130: 84de c0bd 5ad4 483d c1f7 013e a590 c53d
00000140: 50f7 613c 15b5 05be 8bd3 803d 65ce 3e3d
00000150: 4333 2d3c a2bb 97bd a784 61bd bb8f 4b3b
00000160: 6b7e 643d c3c7 cabd ecd3 1b3e a4c8 84bc
00000170: 1674 39be b2d3 78bd d2c7 af3d f985 c0bd
00000180: c55c 233d 0549 db3d 8816 06bd 22ca 21bc
00000190: 96b1 95bd 24c5 19bd ca64 153e 6fd3 ccbb
000001a0: ad8d b4bd fa16 393d ea15 2fbd dcbc 2bbd
000001b0: 79ae e9bd 98cc d33b e738 07be ae2e 193c
000001c0: ce39 aa3c 5ce4 8a3c a633 c0bd b8a3 743d
000001d0: e1e4 b63d 41a0 59bb 571e 843c 8051 d4bd
000001e0: 3c50 093e a97a 893d 114c efbd 7328 343c
000001f0: 0c0a ad3d de16 81bd 44bc a0bd 1c03 cd3c
00000200: e2c3 3f3c 41b7 883d 7cbb 95bd 42f7 64bd
00000210: b1d1 d1bd e3e5 a43d e7d9 923d 0456 3c3d
00000220: c833 04be aed5 023d d4f6 d4bd 9554 9cba
00000230: c68f 8b3c 99d1 323c d86c 02bd cec2 80bc
00000240: 3722 893d b4d1 563d cdb4 93bd 7ce6 c1bd
00000250: 6535 a73d e24f 8fbd 491e 32be 6d1c 60bd
00000260: 4d97 5f3d 9ed6 7d3d e65a 4fbd 00f6 15be
00000270: 2823 edbc 0697 3b3e d4d4 c0bd cf8d 08be
00000280: 937a b63d a3c8 93bb 8ebf 6c3c 32ef 443c
00000290: 46eb 293d 387c d7bc c054 5abc 7d22 68bd
000002a0: f15f 343b d55e ea3d 427c 593d c812 28be
000002b0: e7e0 c43d 2c2d 2a3d 1465 39bd 7f55 d3bd
000002c0: 6f9b 33bc f009 0c3e b12f 89bd 01e8 af3d
000002d0: 5390 72bd bd47 b9bd 59c3 25be 40e9 f93d
000002e0: f30e c3bd 43f9 80bb 7dd5 93bd 8c44 e2bd
000002f0: 1567 80bc d131 ca3d 26f1 013e 9e72 39bd
00000300: b6fc 303d c77c 0f3e ead3 fa3d 0fb4 11bd
00000310: b899 7bbb ff47 14be 80a9 f13c 5691 aebb
00000320: 77c2 153e ad77 c9bc ff9f cc3c ba24 233d
00000330: e57b 993d 9a03 a1bc 196e e73d 936c 2cbd
00000340: 936c 983d a5ff a5bd fe3a 82bd a10f 693d
00000350: 85f5 33be 3743 d93d ccbe 96bd ada9 413d
00000360: 3cac 1f3d e15e 753d b6ce e83d c2fc 0d3d
00000370: 0f0f 8b3c e85b 84bd 1489 a6bc 2cc2 9ebd
00000380: fd34 6d3d 94c9 a0bd fb8c 193b 5823 1dbe
00000390: 7ed9 f3bd a637 fabd 7a4f a7bd 341b 7dbd
000003a0: b4e2 babc c78d 71bd a326 d53d 17eb 6dbc
000003b0: 4ae8 2bbd 3124 9fbd 91c4 1dbd 32d3 9e3d
000003c0: 04bd a7bc c603 e53d 5d56 923d b812 88bc
000003d0: 51cb f03a 17b4 2bbe 558d bfbd d63e 8dbb
000003e0: a6b0 cc3d cfb2 04bd 1bc7 ba3d 33f7 863c
000003f0: 87fd e73d bc28 1abe 9f24 6bbc dc84 513d

net.3.bias f4 [128]
0.09403497 -0.10322678 0.13458006 -0.014937162 0.017558541 0.030316873 -0.047022376 0.09689024
-0.01647863 0.04359929 -0.008271863 -0.07782665 0.098754525 -0.08151907 0.085932 -0.075291686
0.17387 -0.033514284 -0.039010156 0.073345885 0.0006996725 0.077588245 -0.046034187 -0.09265716
0.027782708 0.014737343 -0.046478655 -0.10731861 -0.014542197 0.10969518 0.052527327 0.05868888
-0.095411845 0.0029405458 -0.059313025 -0.033745915 -0.06729858 -0.1310469 0.096793585 -0.033345394
0.046339467 0.061411556 -0.016708307 -0.09819073 -0.044711854 -0.022485925 -0.046095338 0.09236115
-0.008954128 -0.03567004 0.13755426 0.04735094 -0.054762974 0.079723485 -0.04529011 0.091939025
-0.10750152 -0.051494732 0.13141987 0.03887165 0.050217994 -0.08814304 0.056063257 0.16075708
-0.029156685 -0.08809429 -0.044391107 -0.006126607 0.1252448 -0.037173823 -0.012219643 0.08473276
0.08034491 -0.11002542 0.0039847926 -0.021375148 0.112407915 -0.03125865 0.1104061 0.1626626
-0.05600116 0.09916047 0.013802327 0.0824115 -0.043324813 0.055077426 0.027049704 0.10924991
0.04044351 0.10646001 -0.0029694205 0.09279634 -0.029956622 0.11229111 -0.053159364 -0.0799825
0.0070993938 -0.043176804 0.051401056 -0.05611111 -0.01293006 -0.08579331 -0.02201463 -0.047079146
-0.0850739 0.0565692 0.024257235 0.12476331 -0.011364843 -0.11108203 -0.011498688 -0.002222593
0.15035805 -0.038219552 0.17792524 0.11366337 -0.071113236 0.11740464 -0.1105842 -0.043652892
0.01434606 0.13386494 -0.048124 -0.06071139 0.08029257 0.061658964 0.013741039 0.04329323
00000000: 6895 c03d 9068 d3bd 5bcf 093e 00bb 74bc
00000010: eed6 8f3c 175b f83c 899a 40bd 646e c63d
00000020: 31fe 86bc 2b95 323d b586 07bc 9463 9fbd
00000030: d03f ca3d 78f3 a6bd 1efd af3d 8732 9abd
00000040: fa0a 323e 4646 09bd 1dc9 1fbd 5e36 963d
00000050: 3a6a 373a 96e6 9e3d 588e 3cbd 09c3 bdbd
00000060: 9098 e33c e674 713c 6760 3ebd dcc9 dbbd
00000070: 6542 6ebc dea7 e03d e526 573d c063 703d
00000080: 4967 c3bd 2cb6 403b 37f2 72bd 2839 0abd
00000090: d7d3 89bd 2931 06be b73b c63d 2e95 08bd
000000a0: 74ce 3d3d af8a 7b3d dcdf 88bc 3918 c9bd
000000b0: c723 37bd 6734 b8bc 77ce 3cbd d827 bd3d
000000c0: 56b4 12bc bf1a 12bd 06db 0c3e 0ff3 413d
000000d0: 244f 60bd 1146 a33d 1f82 39bd 874a bc3d
000000e0: c229 dcbd 24ec 52bd ee92 063e e137 1f3d
000000f0: 62b1 4d3d 5784 b4bd 96a2 653d 819d 243e
00000100: 00da eebc c76a b4bd 73d3 35bd b4c1 c8bb
00000110: 2c40 003e 9443 18bd e634 48bc 5f88 ad3d
00000120: df8b a43d 0255 e1bd dd92 823b ef1a afbc
00000130: 1f36 e63d 1209 00bd 981c e23d 0691 263e
00000140: 7961 65bd a514 cb3d 2823 623c 5cc7 a83d
00000150: 5c75 31bd de98 613d 5797 dd3c 6bbe df3d
00000160: 18a8 253d b507 da3d 9c9a 42bb 020c be3d
00000170: 9767 f5bc e2f8 e53d a2bd 59bd ddcd a3bd
00000180: 08a2 e83b 29da 30bd ea89 523d c3d4 65bd
00000190: 9ad8 53bc 67b4 afbd 0658 b4bc 10d6 40bd
000001a0: 3a3b aebd 1bb5 673d 1cb7 c63c e883 ff3d
000001b0: 9b33 3abc fa7e e3bd fe64 3cbc eca8 11bb
000001c0: 76f7 193e 1b8c 1cbd 0932 363e 57c8 e83d
000001d0: d1a3 91bd d871 f03d f879 e2bd 60cd 32bd
000001e0: bd0b 6b3c e413 093e ac1d 45bd 82ac 78bd
000001f0: 6e70 a43d 1c8e 7c3d 1822 613c 3e54 313d

net.6.weight f4 [64, 128]
0.026229694 -0.03171246 0.121476196 -0.026824342 -0.079985894 0.028665232 -0.05715746 0.055945154
-0.028399913 0.0047835675 -0.059409354 0.027260952 0.0124669215 0.070392065 0.04524795 -0.054777972
0.047374845 -0.013000146 -0.04439736 0.087303735 0.08426118 -0.027519442 0.05753549 -0.10443265
-0.000953421 0.07140006 -0.041011978 -0.03665604 0.03575574 0.05369921 -0.121241234 -0.033494886
0.059443615 -0.06537077 -0.042174485 -0.017811615 0.02635776 0.026880704 -0.032068014 -0.03792281
0.08824928 0.06946353 0.07411827 -0.0043352717 -0.007297811 0.007236229 -0.003986422 -0.018458122
0.023753671 -0.04404003 0.08979205 0.0963843 -0.122923635 -0.12167614 -0.026693974 0.058418777
-0.10694751 -0.063383944 -0.02143065 0.056326643 0.12366719 0.033204097 -0.053506102 0.05230109
-0.033193875 -0.029478036 -0.07851815 -0.056709513 -0.049754106 -0.06281152 0.12014388 0.092412
-0.004791851 0.09868093 -0.15280144 0.070675075 0.0009193562 -0.053118605 0.03087857 -0.055858336
0.012237353 -0.055531833 -0.074982755 -0.021662494 -0.06448251 0.05060334 0.02482396 0.02140126
-0.054780267 0.13558528 0.020865107 -0.02748586 -0.015590492 -0.0065123737 0.060994204 -0.042962965
0.08150483 0.0052228994 0.06396659 -0.0014907382 0.049818434 -0.047414687 -0.0005268074 0.07645963
-0.036406375 -0.0045045144 0.056203447 -0.055107802 -0.027139401 -0.054393366 0.08564287 0.094032854
-0.0111592 0.07571259 0.047519963 -0.016707068 -0.05258935 -0.05412405 0.13236715 0.0015549661
0.07158984 -0.033764526 -0.10345888 -0.049092647 -0.008356801 0.07285204 -0.016840288 0.08582229
-0.12315277 -0.02941888 -0.0539943 -0.08514514 -0.09517056 -0.03762284 -0.06065771 0.05583607
0.088560335 -0.026868723 0.03641256 -0.0280942 -0.056941677 0.08363703 0.037947718 -0.027961923
-0.045523506 0.094301455 -0.0680203 -0.022637447 -0.052722316 0.057033304 0.072532736 -0.024251396
0.019769136 0.09798023 -0.017924955 -0.0071217353 -0.019091379 -0.042972017 -0.024706904 -0.015949987
-0.033394556 0.07560754 -0.09875876 0.061037667 -0.053695083 -0.050290648 0.011570004 -0.060035307
0.033727203 0.077384025 -0.0054442976 0.028066413 0.016699841 -0.028182229 -0.042538658 -0.031282865
-0.0019002715 0.0765532 0.08562208 -0.032928545 -0.0120164575 -0.029381605 -0.047532067 -0.04690798
-0.077242486 0.08042013 0.0139817465 0.10727492 -0.115745395 0.06326576 -0.0066002663 -0.08487298
0.057900406 -0.027059961 0.0063953456 0.043276187 -0.12639347 0.026389146 0.10344239 -0.10924504
-0.07567373 -0.03812152 0.0036095525 0.029417956 -0.023289979 -0.05938485 0.033821434 -0.08577616
0.069973625 0.0028391455 -0.0642036 -0.0021691408 -0.034159936 0.12512839 -0.025176642 0.039523367
0.11718395 0.10530933 0.011679047 0.05890374 0.10050035 -0.002729186 -0.006146452 0.09104318
0.0026180835 -0.10226405 0.073199734 0.054288298 -0.04889123 0.04724099 -0.003121715 -0.008422952
-0.08402906 -0.0741374 -0.09999885 -0.0047066463 -0.051064953 0.015541489 0.08900906 0.08929516
-0.048585173 -0.0042421026 -0.1275146 -0.08377262 -0.025634997 -0.027492722 0.04115059 0.015330615
0.024610847 -0.06584723 0.028660715 0.037644096 0.13880469 -0.054448996 0.0022097637 0.062220164
00000000: a8df d63c ede4 01bd 83c8 f83d b9be dbbc
00000010: a5cf a3bd 59d3 ea3c f11d 6abd bf26 653d
00000020: efa6 e8bc 79bf 9c3b 3957 73bd 5c52 df3c
00000030: 0f42 4c3c b729 903d ea55 393d de5e 60bd
00000040: 200c 423d 90fe 54bc 02da 35bd 4dcc b23d
00000050: 2091 ac3d 7470 e1bc 55aa 6b3d c9e0 d5bd
00000060: 00ef 79ba 323a 923d 2dfc 27bd a524 16bd
00000070: 9c74 123d b4f3 5b3d 534d f8bd ef31 09bd
00000080: 267b 733d 1ce1 85bd 27bf 2cbd aae9 91bc
00000090: 3bec d73c ec34 dc3c c059 03bd f354 1bbd
000000a0: 0abc b43d e542 8e3d 52cb 973d e50e 8ebb
000000b0: 7a22 efbb e31d ed3b 88a0 82bb 7d35 97bc
000000c0: 0f97 c23c 5263 34bd e5e4 b73d 2265 c53d
000000d0: 63bf fbbd 5731 f9bd 52ad dabc 8748 6f3d
000000e0: 4c07 dbbd 71cf 81bd 558f afbc c4b6 663d
000000f0: 3945 fd3d 0501 083d 3729 5bbd ab39 563d
00000100: 4df6 07bd ec7b f1bc 20ce a0bd 3c48 68bd
00000110: f6ca 4bbd 54a3 80bd ff0d f63d 8142 bd3d
00000120: f604 9dbb 3a19 ca3d fb77 1cbe 18be 903d
00000130: f300 713a e592 59bd 0ef5 fc3c b6cb 64bd
00000140: 2e7f 483c 5975 63bd 8f90 99bd 8b75 b1bc
00000150: 680f 84bd 7345 4f3d 9e5b cb3c b251 af3c
00000160: 4661 60bd ded6 0a3e 4ded aa3c 072a e1bc
00000170: 436f 7fbc c065 d5bb 0fd5 793d eff9 2fbd
00000180: 01ec a63d db24 ab3b ea00 833d e064 c3ba
00000190: 6a0e 4c3d e735 42bd 7219 0aba de96 9c3d
000001a0: da1e 15bd 9b9a 93bb 9635 663d b8b8 61bd
000001b0: 7353 debc 94cb 5ebd 8765 af3d 4c94 c03d
000001c0: 14d5 36bc 340f 9b3d 4ba4 423d 43dd 88bc
000001d0: ee67 57bd 2eb1 5dbd 418b 073e 01d0 cb3a
000001e0: b29d 923d ac4c 0abd 40e2 d3bd 5f15 49bd
000001f0: f7ea 08bc 7333 953d a5f4 89bc 99c3 af3d
00000200: 8537 fcbd ddff f0bc 2129 5dbd 9360 aebd
00000210: c8e8 c2bd 681a 1abd 3874 78bd 5db4 643d
00000220: 1f5f b53d cc1b dcbc 5625 153d cf25 e6bc
00000230: ad3b 69bd e449 ab3d 116f 1b3d 6710 e5bc
00000240: db76 3abd 1f21 c13d 3a4e 8bbd 2b72 b9bc
00000250: 5bf3 57bd c19b 693d 0b8c 943d ddaa c6bc
00000260: e2f2 a13c dca9 c83d 5bd7 92bc 725d e9bb
00000270: 8665 9cbc 6d03 30bd 2266 cabc 8ca9 82bc
00000280: bbc8 08bd 20d8 9a3d 0842 cabd a202 7a3d
00000290: 60ef 5bbd 91fd 4dbd 1d90 3d3c 95e7 75bd
000002a0: 8925 0a3d 847b 9e3d 1466 b2bb 89eb e53c
000002b0: 1bce 883c 6bde e6bc 043d 2ebd 7622 00bd
000002c0: 8812 f9ba edc7 9c3d a15a af3d 15e0 06bd
000002d0: ade0 44bc b1b1 f0bc fcb0 42bd 9522 40bd
000002e0: 4f31 9ebd 4fb3 a43d b213 653c f4b2 db3d
000002f0: ec0b edbd 7b91 813d 0c47 d8bb e3d1 adbd
00000300: fa28 6d3d daac ddbc 0c90 d13b 5f42 313d
00000310: 4a6d 01be 0d2e d83c 9bd9 d33d ddbb dfbd
00000320: d4fa 9abd 5025 1cbd 3e8e 6c3b edfd f03c
00000330: a0ca bebc 873d 73bd 5888 0a3d 69ab afbd
00000340: 554e 8f3d f510 3a3b 2d7d 83bd 2528 0ebb
00000350: 4aeb 0bbd a821 003e 3f3f cebc 41e3 213d
00000360: 24fe ef3d 6bac d73d 7959 3f3c 0c45 713d
00000370: 21d3 cd3d 25dc 32bb 2d68 c9bb d974 ba3d
00000380: 2794 2b3b d06f d1bd bee9 953d 685d 5e3d
00000390: 2c42 48bd c57f 413d b095 4cbb 6c00 0abc
000003a0: 6e17 acbd 59d5 97bd 32cc ccbd 363a 9abb
000003b0: 7c29 51bd bba1 7e3c 624a b63d 61e0 b63d
000003c0: 3f01 47bd 5601 8bbb 3093 02be fb90 abbd
000003d0: 7c00 d2bc 6b38 e1bc 858d 283d 432d 7b3c
000003e0: b09c c93c eada 86bd e0c9 ea3c b230 1a3d
000003f0: d122 0e3e e905 5fbd afd1 103b 92da 7e3d

net.6.bias f4 [64]
0.085305326 0.05139982 0.094008215 0.052678645 -0.050653353 0.0041644815 0.04080768 0.028196555
0.15595768 0.13043632 0.021393321 0.16425441 0.052127857 -0.008884289 0.024037164 0.1099492
0.15057357 0.039711017 0.018373154 0.10118227 0.022184469 0.17553757 -0.015585853 0.030138059
0.046963092 0.119727254 -0.0042060055 0.053783957 0.03233178 0.17072499 0.08116314 0.1732264
0.13716953 -0.009048842 0.07499049 -0.033277143 0.0892086 0.020712733 0.12655722 0.08679256
0.03090607 0.09806163 0.05385882 0.06657118 0.016561424 0.032841556 0.04999288 0.098344624
0.06923704 0.06644767 0.081645906 0.18116453 0.08744828 -0.10227447 -0.03637599 0.09200744
0.11557642 0.06549926 0.040857054 0.08254805 0.11834643 0.11075983 0.15337442 0.020859893
00000000: 8fb4 ae3d 9e88 523d 6187 c03d 90c5 573d
00000010: e479 4fbd 3476 883b f425 273d 76fc e63c
00000020: 5fb3 1f3e 1991 053e 0c41 af3c 4f32 283e
00000030: 0584 553d 698f 11bc 96e9 c43c 0c2d e13d
00000040: f52f 1a3e 05a8 223d 4c83 963c a638 cf3d
00000050: 34bc b53c 1fc0 333e ce5b 7fbc 17e4 f63c
00000060: 5f5c 403d 9033 f53d 88d2 89bb 914c 5c3d
00000070: 546e 043d 88d2 2e3e dc38 a63d 4362 313e
00000080: 2b76 0c3e 9841 14bc 9d94 993d 9d4d 08bd
00000090: 00b3 b63d c0ad a93c 3798 013e 4cc0 b13d
000000a0: ba2e fd3c 89d4 c83d 119b 5c3d 7956 883d
000000b0: d3ab 873c de84 063d 56c5 4c3d e868 c93d
000000c0: 26cc 8d3d b715 883d f835 a73d 3283 393e
000000d0: 1518 b33d 4775 d1bd fdfe 14bd 666e bc3d
000000e0: 55b3 ec3d 7a24 863d ba59 273d f40e a93d
000000f0: 9d5f f23d 0dd6 e23d 2f0e 1d3e 5ee2 aa3c

net.9.weight f4 [4, 64]
-0.07035149 -0.13292424 -0.049954694 -0.043660935 0.11186532 0.035585646 -0.10622352 -0.11120554
0.055067107 -0.03818542 -0.07023306 0.10472005 0.11473911 -0.11105042 -0.10351979 0.07289376
0.060775504 -0.030780457 0.1010555 -0.13731094 -0.092663504 0.089177765 0.020501988 -0.09689691
-0.050023448 -0.08825532 -0.010260544 -0.13886742 -0.088469476 0.08524356 0.098420136 -0.046923712
0.11420166 -0.012090279 0.093673624 -0.1494291 0.00655762 -0.06764148 0.09126345 -0.11208115
-0.08587168 0.04983619 0.028881205 0.08254121 0.019404663 0.11371813 -0.0015013827 -0.041377734
-0.0238388 0.11858399 0.06524803 0.10973772 -0.07372518 0.08132977 -0.14927459 -0.050514076
-0.047935195 -0.14790496 -0.048670378 -0.12861139 -0.0059843184 -0.050807264 0.034147307 -0.06790107
-0.09513122 -0.107388474 -0.068975754 -0.058129393 0.06730549 0.047054294 -0.07304189 -0.08808885
0.06480342 -0.03908612 -0.07906764 0.09895031 0.15540794 -0.09324893 -0.09207762 0.070083566
0.029802771 -0.03515399 0.107150525 -0.11103283 -0.057524752 0.09214159 0.034301296 -0.089565955
-0.0010873438 -0.050832704 0.0077796187 -0.1285038 -0.0927741 0.12766857 0.07832461 -0.061055217
0.10525716 -0.03224544 0.10878999 -0.11009779 -0.018303053 -0.078081205 0.10059617 -0.10464362
-0.072122626 0.08472501 0.0684863 0.09179789 0.011921345 0.13539188 -0.045881312 -0.07349299
-0.041984625 0.14957798 0.084504746 0.118484624 -0.058521792 -0.14040813 -0.18536437 -0.031817246
-0.053840023 -0.11859516 -0.07005653 -0.11565206 -0.054726273 -0.09367346 0.066382214 -0.04318312
-0.017738277 -0.0111504635 0.05680922 -0.117758274 -0.1111823 -0.19877177 -0.14599277 0.074019596
-0.087050825 0.1528151 0.103091046 -0.024593612 -0.005627731 0.087548606 -0.1162688 -0.08496264
0.115585834 0.024089864 -0.09733467 -0.0014128499 0.060852483 -0.018669132 -0.17314604 0.082762845
0.10214992 -0.06522024 -0.112440154 0.07774535 -0.04150144 0.038078982 -0.10385227 -0.055874135
0.029057937 0.11319413 0.077877834 -0.063284054 0.10341916 0.029934363 -0.065308616 -0.09759252
0.07821519 -0.07453712 -0.12155987 0.11892762 0.010160923 -0.091317795 0.08740915 0.031171832
0.14262645 -8.292037e-05 0.08139939 -0.011339494 0.11819932 -0.05599419 -0.0552897 0.11116073
0.046394844 0.1099556 -0.14723557 -0.050411157 0.046319846 -0.100419216 -0.03675363 -0.17003147
-0.10926057 0.05266276 0.07114194 -0.11673843 0.043154594 -0.06766892 0.025869617 0.05378607
-0.073455274 0.07385538 0.076244295 -0.10646088 -0.026254661 0.033017617 -0.10265177 -0.0676439
-0.12858303 0.12629223 0.05986179 -0.055424836 0.14162213 -0.05633005 -0.097677246 0.029788667
0.14190593 -0.14063166 -0.07387052 0.0061963317 -0.14821018 -0.05011636 -0.041402735 -0.15359329
-0.042322546 0.06501861 0.09322276 0.004606067 0.11986949 0.10021561 -0.0737901 -0.029054843
0.06475511 0.21688266 -0.11877858 -0.06290476 0.16370781 -0.03207243 0.10697881 0.14315487
0.021548754 -0.022619179 -0.012085271 -0.09008213 -0.015122324 -0.044567406 -0.09365881 0.12668617
0.13589047 -0.06531683 -0.043739732 0.064270034 -0.18855482 -0.07589448 -0.13085875 -0.0024753143
00000000: 7114 90bd 4b1d 08be 4b9d 4cbd cfd5 32bd
00000010: a519 e53d 41c2 113d b88b d9bd bbbf e3bd
00000020: 0c8e 613d 5168 1cbd 5ad6 8fbd 7777 d63d
00000030: 57fc ea3d 676e e3bd 2f02 d4bd 5349 953d
00000040: bcef 783d 4c27 fcbc 30f6 ce3d 3d9b 0cbe
00000050: 5dc6 bdbd d5a2 b63d c9f3 a73c e371 c6bd
00000060: 63e5 4cbd 35bf b4bd d71b 28bc 4333 0ebe
00000070: 7c2f b5bd 2d94 ae3d 7f90 c93d 1433 40bd
00000080: 8fe2 e93d 4e16 46bc f5d7 bf3d f103 19be
00000090: 4ee1 d63b 9e87 8abd 55e8 ba3d cd8a e5bd
000000a0: 7edd afbd 0821 4c3d 4798 ec3c 5e0b a93d
000000b0: 87f6 9e3c 0de5 e83d 0bca c4ba b37b 29bd
000000c0: 9649 c3bc 2adc f23d c2a0 853d 2bbe e03d
000000d0: 3afd 96bd 3990 a63d 70db 18be d9e7 4ebd
000000e0: b257 44bd 6674 17be 975a 47bd b4b2 03be
000000f0: 1a18 c4bb 471b 50bd 0cde 0b3d b70f 8bbd
00000100: 28d4 c2bd 7dee dbbd 2943 8dbd 1619 6ebd
00000110: 76d7 893d 01bc 403d fd96 95bd ed67 b4bd
00000120: a8b7 843d c418 20bd 37ee a1bd 76a6 ca3d
00000130: 4223 1f3e 4cf9 bebd 3193 bcbd f987 8f3d
00000140: f124 f43c a1fd 0fbd bc71 db3d 2e65 e3bd
00000150: 139f 6bbd bbb4 bc3d 847f 0c3d 5b6e b7bd
00000160: 3485 8eba f435 50bd 2cec fe3b 8096 03be
00000170: 5900 bebd 8dbb 023e a768 a03d 0915 7abd
00000180: 1191 d73d cb13 04bd 49cd de3d f37a e1bd
00000190: 49f0 95bc 0ae9 9fbd 5d05 ce3d 654f d6bd
000001a0: 07b5 93bd 4e84 ad3d 8c42 8c3d 8800 bc3d
000001b0: bf51 433c 2ba4 0a3e 0bee 3bbd 7e83 96bd
000001c0: 12f8 2bbd f82a 193e d310 ad3d 11a8 f23d
000001d0: 8cb4 6fbd 26c7 0fbe 28d0 3dbe cd52 02bd
000001e0: 5b87 5cbd 05e2 f2bd cc79 8fbd fdda ecbd
000001f0: a828 60bd dfd7 bfbd 66f3 873d c9e0 30bd
00000200: dd4f 91bc 6fb0 36bc c9b0 683d 402b f1bd
00000210: 8cb3 e3bd d48a 4bbe 217f 15be 9697 973d
00000220: b447 b2bd 907b 1c3e 6621 d33d 8b78 c9bc
00000230: d468 b8bb af4c b33d 561e eebd e500 aebd
00000240: 44b8 ec3d 1b58 c53c 6657 c7bd 602f b9ba
00000250: 7440 793d 02f0 98bc 324d 31be 917f a93d
00000260: fa33 d13d 3092 85bd 0647 e6bd f438 9f3d
00000270: 6afd 29bd b5f8 1b3d 80b0 d4bd 47dc 64bd
00000280: e90a ee3c 53d2 e73d 6a7e 9f3d 129b 81bd
00000290: 6dcd d33d e938 f53c 86c0 85bd 96de c7bd
000002a0: 492f a03d eba6 98bd 62f4 f8bd 5390 f33d
000002b0: 007a 263c d304 bbbd 9203 b33d 125c ff3c
000002c0: ab0c 123e 89e5 adb8 b9b4 a63d 49c9 39bc
000002d0: 7c12 f23d 2a5a 65bd 7477 62bd 3da8 e33d
000002e0: 8508 3e3d 6730 e13d ecc4 16be ee7b 4ebd
000002f0: e1b9 3d3d 97a8 cdbd f98a 16bd bb1c 2ebe
00000300: 01c4 dfbd e8b4 573d deb2 913d 8f14 efbd
00000310: dfc2 303d 0196 8abd 85ec d33c c84e 5c3d
00000320: b86f 96bd 7d41 973d f825 9c3d 2908 dabd
00000330: 0414 d7bc 7b3d 073d 173b d2bd e388 8abd
00000340: 45ab 03be c052 013e a331 753d 2705 63bd
00000350: 6405 113e 57ba 66bd 020b c8bd 5d07 f43c
00000360: ca4f 113e bf01 10be 6d49 97bd 990a cb3b
00000370: 69c4 17be d046 4dbd ea95 29bd 8f47 1dbe
00000380: 685a 2dbd 7a28 853d 93eb be3d 7eee 963b
00000390: 237e f53d d73d cd3d 441f 97bd 6c04 eebc
000003a0: 549e 843d 7d16 5e3e 2f42 f3bd 36d4 80bd
000003b0: 05a3 273e 615e 03bd b517 db3d 3197 123e
000003c0: 0387 b03c db4b b9bc 4d01 46bc fb7c b8bd
000003d0: a0c3 77bc 508c 36bd 31d0 bfbd 05ba 013e
000003e0: df26 0b3e d5c4 85bd 6f28 33bd 02a0 833d
000003f0: 8414 41be 916e 9bbd d6ff 05be e238 22bb

net.9.bias f4 [4]
0.11538555 0.068628296 -0.015242177 0.055025056
00000000: 424f ec3d fe8c 8c3d 53ba 79bc f461 613d
