models/model_fold_3.pt (torch, 87693 bytes, 8 tensors)

net.0.weight f4 [64, 66]
-0.025912529 -0.010840595 -0.08227537 0.105703 0.08874948 -0.01348686 0.0769296 -0.10455312
0.09631558 -0.0027129948 -0.14061798 0.08112083 0.06992699 0.13576473 0.14785035 -0.12269901
0.012048628 -0.13224404 0.06780806 -0.05782314 0.062768005 -0.11138319 -0.04839064 -0.011489373
0.12076818 0.042532664 0.09435876 0.045905758 -0.030249732 0.0787244 0.12671384 0.036146
-0.11577648 -0.038730986 -0.09879806 -0.08230214 0.10591528 -0.017494336 0.016618684 0.0601646
0.035319462 -0.0071000615 -0.035491522 0.0065466487 0.07342176 -0.05213292 0.015837118 0.013940513
-0.023192393 0.08396301 -0.0018581396 0.042974345 -0.08782771 -0.07423301 0.0032473058 0.113612965
0.104592934 0.09086253 0.058663957 0.04646219 -0.019434966 -0.03390477 -0.09510724 0.0061113704
0.050558798 0.022429695 0.008709613 0.093853176 -0.11380559 -0.034365103 -0.08358558 0.014447652
0.122042954 0.09913391 0.013942737 0.07328373 -0.037124086 0.045338616 -0.07391443 -0.040647354
0.14129457 0.03056138 -0.034787174 0.1348031 -0.021973507 0.036684997 -0.01664165 -0.006293267
-0.06835345 -0.00176933 0.06892025 -0.028989816 0.04262711 0.057886586 0.0119470665 0.013100612
0.024712536 -0.08240871 -0.011525859 0.06840982 0.10981018 -0.08787094 -0.010409355 0.058381826
0.05026941 -0.103575535 -0.13516365 0.087616175 -0.03617193 -0.05032883 -0.021774739 0.0768501
0.024157047 -0.06188861 0.015114551 -0.072009064 -0.08928754 -0.027045716 0.0052128583 -0.014602862
-0.1055695 0.12380589 0.027348893 -0.06040138 -0.009140151 -0.063323654 -0.012851611 0.017199323
0.043388575 0.10723955 0.09307474 0.05125905 0.04094649 0.076117426 0.10419989 -0.047881834
0.08761841 -0.051434245 0.008323359 0.08430459 -0.09934614 0.09196092 -0.09310032 0.081678845
-0.12632328 -0.005502378 -0.034365013 -0.1789944 0.03125535 -0.1259262 -0.0021468198 0.13152438
0.04028489 -0.07446683 -0.052777223 0.06950828 -0.11086172 0.12884371 0.07595867 0.019365724
-0.07357765 0.097571455 0.046441536 0.016747283 -0.09786627 0.018569281 0.008640119 0.09823598
-0.064707324 -0.0856788 0.042920575 0.12157267 0.06888309 -0.031635154 0.09765394 0.09361095
0.03072372 -0.008013837 0.1161302 -0.027699597 0.06436157 0.047707383 -0.11502926 -0.06850462
0.07826236 -0.095860824 0.11458568 -0.09404563 0.076873094 0.00011754999 -0.008740807 -0.018600613
-0.07254881 -0.03587339 0.10359007 -0.08391921 0.0981791 0.008655829 -0.027730234 -0.078328624
-0.11424538 -0.052940276 -0.025056064 -0.13117498 -0.060844824 0.066325404 -0.07420823 0.06534006
0.041828215 0.08182359 -0.03361609 0.08268988 0.080581665 -0.1364386 0.17312706 -0.07397274
-0.017988758 0.026472952 0.020959388 0.10002974 0.009278476 -0.0985139 -0.0784454 0.06761743
-0.014749259 -0.009456632 0.035945103 0.051023193 -0.12841085 0.07728073 0.030310232 0.0075960783
0.07967908 -0.06673107 0.07221942 0.0064908713 0.11183931 0.064871654 0.022743361 -0.08595855
-0.040026635 -0.0011458241 0.11377303 -0.09275978 0.068686604 -0.025714032 -0.038259275 -0.004918385
-0.010125526 0.04774179 0.026380539 -0.01771529 -0.06767199 0.12775896 0.07364401 0.08328528
00000000: 8346 d4bc c09c 31bc fd7f a8bd d17a d83d
00000010: 4ac2 b53d fef7 5cbc 448d 9d3d f21f d6bd
00000020: 1a41 c53d 80cc 31bb 29fe 0fbe ad22 a63d
00000030: e235 8f3d e905 0b3e 1566 173e 9e49 fbbd
00000040: 9c67 453c fb6a 07be f4de 8a3d f5d7 6cbd
00000050: 838c 803d df1c e4bd 4435 46bd ec3d 3cbc
00000060: 4f55 f73d bb36 2e3d 2a3f c13d ad07 3c3d
00000070: 49ce f7bc 423a a13d 46c1 013e d40d 143d
00000080: 381c edbd 62a4 1ebd a356 cabd 068e a8bd
00000090: 1cea d83d 4850 8fbc e823 883c 286f 763d
000000a0: 24ab 103d a2a7 e8bb 8f5f 11bd 4585 d63b
000000b0: 265e 963d 5489 55bd d8bc 813c c066 643c
000000c0: f9fd bdbc ccf4 ab3d d28c f3ba de05 303d
000000d0: 04df b3bd 7a07 98bd c0d0 543b eaad e83d
000000e0: d234 d63d 2216 ba3d 9e49 703d 234f 3e3d
000000f0: 1436 9fbc badf 0abd 96c7 c2bd e441 c83b
00000100: be16 4f3d 7bbe b73c c4b2 0e3c 1836 c03d
00000110: e812 e9bd 6cc2 0cbd eb2e abbd d8b5 6c3c
00000120: a8f1 f93d b806 cb3d 1470 643c c815 963d
00000130: 6d0f 18bd fcb4 393d 7360 97bd d77d 26bd
00000140: 86af 103e dc5b fa3c ff7c 0ebd d309 0a3e
00000150: c901 b4bc 0243 163d 1254 88bc c037 cebb
00000160: e5fc 8bbd dde8 e7ba 0f26 8d3d 0d7c edbc
00000170: c499 2e3d 7c1a 6d3d a1bd 433c f3a3 563c
00000180: f271 ca3c e6c5 a8bd f5d6 3cbc 731a 8c3d
00000190: 29e4 e03d aef5 b3bd 008c 2abc c821 6f3d
000001a0: 4ce7 4d3d 691f d4bd 5768 0abe 1c70 b33d
000001b0: 0529 14bd 9a25 4ebd f060 b2bc 9663 9d3d
000001c0: 00e5 c53c e97e 7dbd 06a3 773c 7d79 93bd
000001d0: 63dc b6bd fa8e ddbc a0d0 aa3b d840 6fbc
000001e0: d234 d8bd f18d fd3d c90a e03c 7067 77bd
000001f0: 92c0 15bc d5af 81bd 908f 52bc 98e5 8c3c
00000200: 38b8 313d 69a0 db3d f89d be3d 02f5 513d
00000210: 82b7 273d 74e3 9b3d c066 d53d be1f 44bd
00000220: 4871 b33d b7ac 52bd b35e 083c e3a7 ac3d
00000230: fd75 cbbd 0256 bc3d 61ab bebd 3d47 a73d
00000240: e45a 01be 4b4d b4bb 54c2 0cbd 4f4a 37be
00000250: 9c05 003d ccf2 00be a9b1 0cbb 54ae 063e
00000260: c501 253d 1182 98bd ee2c 58bd 5b5a 8e3d
00000270: 780b e3bd 9bef 033e 3890 9b3d dea4 9e3c
00000280: e1af 96bd 8bd3 c73d 7b39 3e3d 9931 893c
00000290: 1c6e c8bd 9b1e 983c 498f 0d3c f22f c93d
000002a0: 4685 84bd 5e78 afbd 7ccd 2f3d 18fb f83d
000002b0: 9412 8d3d dd93 01bd cafe c73d 19b7 bf3d
000002c0: 50b0 fb3c 784c 03bc acd5 ed3d 44ea e2bc
000002d0: 00d0 833d d168 433d 7694 ebbd 264c 8cbd
000002e0: 0448 a03d ae52 c4bd e6ab ea3d ff9a c0bd
000002f0: a46f 9d3d 2c85 f638 9a35 0fbc 5060 98bc
00000300: 7894 94bd faef 12bd 0827 d43d d6dd abbd
00000310: 2012 c93d 2ed1 0d3c 842a e3bc c26a a0bd
00000320: 7bf9 e9bd e7d7 58bd 6042 cdbc bc52 06be
00000330: 6c38 79bd 9dd5 873d 7cfa 97bd 02d1 853d
00000340: 1054 2b3d 2093 a73d 06b1 09bd 5059 a93d
00000350: 0008 a53d 8fb6 0bbe 3848 313e 057f 97bd
00000360: 295d 93bc cedd d83c 06b3 ab3c 64dc cc3d
00000370: c004 183c a8c1 c9bd fba7 a0bd 027b 8a3d
00000380: e0a6 71bc fdef 1abc 2c3b 133d b2fd 503d
00000390: 227e 03be 5c45 9e3d 2a4d f83c 86e8 f83b
000003a0: c92e a33d 4daa 88bd c6e7 933d 60b1 d43b
000003b0: 020c e53d 6edb 843d 4950 ba3c 090b b0bd
000003c0: f8f2 23bd 7a2f 96ba d601 e93d d7f8 bdbd
000003d0: 90ab 8c3d 3ca6 d2bc c2b5 1cbd 672a a1bb
000003e0: 89e5 25bc e58c 433d 001c d83c a81f 91bc
000003f0: 9d97 8abd 3fd3 023e acd2 963d 7991 aa3d

net.0.bias f4 [64]
0.05448109 -0.010790717 0.06387547 -0.052214764 -0.03615723 0.06781282 -0.099501446 0.011630134
-0.117189035 -0.111790575 -0.00050497457 -0.052658465 0.004033426 0.05148144 -0.041727785 -0.027593587
0.09595909 -0.0900809 -0.0522482 0.07494905 -0.102572486 -0.03723509 0.104220614 -0.056678787
-0.09225371 -0.079797484 0.026390618 -0.07624145 0.08720719 0.15173903 -0.09401954 0.018572355
-0.12398011 -0.02785445 -0.0444308 -0.044354547 -0.032051485 0.03254241 -0.04627991 0.007138803
-0.07162473 0.008090864 0.042363316 -0.10495215 -0.08154213 -0.10136856 -0.011842031 -0.07762161
-0.026257398 0.07709632 0.016628643 -0.08086891 0.031253394 -0.05991184 0.08506965 0.03695816
0.10483531 -0.10316398 0.04978874 -0.11033382 -0.032234825 -0.03886491 -0.050681647 0.06402031
00000000: 9027 5f3d 8ccb 30bc 24d1 823d 26df 55bd
00000010: 9b19 14bd 73e1 8a3d 6ac7 cbbd 518c 3e3c
00000020: ce00 f0bd 75f2 e4bd 4560 04ba 67b0 57bd
00000030: d42a 843b 34de 523d c1ea 2abd f20b e2bc
00000040: 3386 c43d 567c b8bd 3502 56bd e37e 993d
00000050: 8611 d2bd d283 18bd 9e71 d53d 0428 68bd
00000060: 83ef bcbd dd6c a3bd 2331 d83c 7a24 9cbd
00000070: af99 b23d 7a61 1b3e 518d c0bd 0d25 983c
00000080: 49e9 fdbd 042f e4bc 12fd 35bd 1dad 35bd
00000090: 6b48 03bd 314b 053d 0190 3dbd 9fec e93b
000000a0: fdaf 92bd 8b8f 043c 2885 2d3d 27f1 d6bd
000000b0: 8fff a6bd 529a cfbd 1405 42bc 14f8 9ebd
000000c0: c119 d7bc ade4 9d3d cb38 883c 999e a5bd
000000d0: 8f03 003d 1e66 75bd ff38 ae3d 7161 173d
000000e0: e5b3 d63d a347 d3bd 47ef 4b3d b3f6 e1bd
000000f0: aa08 04bd d030 1fbd 8f97 4fbd 151d 833d

net.3.weight f4 [128, 64]
0.13957778 0.039201707 0.06796227 -0.064830996 -0.037530724 0.104062244 0.109186575 0.09858327
-0.00016499835 0.056276854 0.11940834 -0.152634 -0.09477175 -0.050956853 0.07973179 -0.07975292
-0.07743819 -0.029688064 -0.08240585 -0.01012613 0.010991855 -0.03814514 -0.037002884 -0.0996617
0.046637423 -0.14593273 -0.029633036 0.04552443 -0.057414114 -0.015392655 -0.10015544 -0.08703505
0.11943129 0.0034998227 0.07198812 -0.1393802 -0.032985553 0.097336814 0.034826823 -0.029484572
-0.039085537 -0.09604649 -0.0686296 -0.043996 -0.0020540613 -0.04169334 -0.007738192 0.12342416
0.06513259 0.07602078 -0.13074425 0.0009622114 -0.097212315 0.1321602 0.030980045 -0.056117136
-0.06555206 0.007114254 0.15333137 0.061318085 0.03308896 0.041356552 0.011921898 0.05422336
-0.08019206 0.019063935 0.096478656 -0.09776273 0.09185367 0.012600862 0.009142677 -0.10149719
0.11031432 -0.026701046 0.07525305 0.088993914 0.010274559 -0.14496607 -0.06586955 -0.022291094
0.10211389 0.04141162 -0.060896914 -0.05426068 0.048226085 0.0016140724 -0.033363808 -0.10803404
0.05879661 0.06296139 -0.06862041 -0.0021198143 -0.1037122 -0.008708727 0.019926047 -0.048470084
-0.013672114 0.14486234 0.038444877 -0.0045210402 0.039990626 0.02193554 -0.044751376 0.033613827
0.00032271998 0.0642085 -0.08961403 -0.09014671 -0.106183894 0.13301729 0.035013963 0.033590943
-0.025707921 -0.029578522 -0.08468494 0.15431911 0.027587758 -0.10879384 0.050160788 -0.050590057
0.07230256 0.0061363666 0.017574366 -0.035984796 0.09027371 0.08108689 -0.096798874 0.09597879
-0.002455055 0.033991933 0.09119698 -0.008336006 -0.05861877 0.11227064 -0.100848 -0.041746605
-0.053710964 0.05238575 0.038107492 -0.005758109 0.044314887 0.14429946 0.09521461 -0.046447173
-0.009807253 -0.0957268 -0.07022003 0.090526916 0.037917603 -0.025181333 -0.060052674 0.003950206
-0.10095508 0.104731545 -0.0770899 -0.11946037 -0.03538458 -0.12444035 0.039782178 -0.08021545
-0.1112715 -0.03050663 -0.012781897 -0.07274179 0.039070122 0.10863587 0.028551552 0.04098567
-0.032971635 -0.123235054 0.004132339 0.037128806 0.10624852 -0.013524591 -0.040978212 0.011057757
-0.06643407 0.011438086 0.14146747 -0.010895278 -0.033258475 -0.054928213 0.08292181 0.11762214
0.04567759 -0.07054135 0.06527467 -0.055158086 0.01355934 0.14869455 0.08549268 0.052474134
-0.010242565 0.06008744 0.05043007 0.13162698 -0.07479405 0.026174605 -0.010053332 -0.026125267
0.020843692 0.111121565 -0.028319877 -0.117357455 -0.08538451 -0.017821038 0.029138427 -0.073460296
0.008076234 -0.05295499 -0.0039220997 0.11606807 -0.03225917 0.06782908 -0.10800568 0.0063373516
-0.00037348422 0.18365441 -0.04454923 0.09411715 -0.022608973 -0.1499104 -0.008667506 -0.13258958
0.12406967 -0.082760535 0.068337314 -0.10414575 -0.01662669 -0.10187822 0.11560541 0.10828527
-0.095516264 -0.10390514 -0.10211681 -0.007842885 0.035024695 -0.09109515 -0.071548864 -0.02890508
-0.060450967 -0.08657671 0.015974006 0.19136095 0.01427444 0.086269684 0.067503706 0.10462834
-0.06434544 -0.015151821 0.07157581 0.13173059 0.012679803 -0.017663427 -0.039680675 -0.016555069
00000000: 7aed 0e3e f891 203d cd2f 8b3d 1dc6 84bd
00000010: d1b9 19bd 961e d53d 369d df3d 07e6 c93d
00000020: 6803 2db9 8f82 663d 5c8c f43d 164c 1cbe
00000030: b117 c2bd 22b8 50bd 6c4a a33d 8055 a3bd
00000040: ea97 9ebd 6234 f3bc 66c4 a8bd 11e8 25bc
00000050: 2e17 343c 143e 1cbd 5690 17bd 6f1b ccbd
00000060: e206 3f3d 646f 15be fbc0 f2bc d377 3a3d
00000070: 102b 6bbd 7931 7cbc 4c1e cdbd 6f3f b2bd
00000080: 6498 f43d 485d 653b 826e 933d afb9 0ebe
00000090: dc1b 07bd 8658 c73d 92a6 0e3d a189 f1bc
000000a0: 2818 20bd 06b4 c4bd ad8d 8cbd 2635 34bd
000000b0: 6e9d 06bb a3c6 2abd a990 fdbb cec5 fc3d
000000c0: 3c64 853d c8b0 9b3d d2e1 05be ea3c 7c3a
000000d0: 4017 c7bd 0155 073e ddc9 fd3c 15db 65bd
000000e0: 2940 86bd b01e e93b e602 1d3e ac28 7b3d
000000f0: 4a88 073d 7d65 293d 1154 433c 5019 5e3d
00000100: bc3b a4bd f82b 9c3c 9a96 c53d d437 c8bd
00000110: c71d bc3d d973 4e3c 2bcb 153c c2dd cfbd
00000120: 79ec e13d 27bc dabc 451e 9a3d 7142 b63d
00000130: a056 283c fc71 14be 9de6 86bd d09b b6bc
00000140: 1621 d13d 3b9f 293d 0b6f 79bd 7240 5ebd
00000150: b788 453d 488f d33a 7da8 08bd f340 ddbd
00000160: b7d4 703d e7f1 803d dc88 8cbd 95ec 0abb
00000170: 1067 d4bd 0caf 0ebc f33b a33c 9188 46bd
00000180: 0101 60bc cb56 143e 6078 1d3d 3c25 94bb
00000190: 36cd 233d 29b2 b33c 384d 37bd a7ae 093d
000001a0: be32 a939 bf7f 833d 9087 b7bd d79e b8bd
000001b0: f176 d9bd af35 083e cd6a 0f3d a896 093d
000001c0: 6b99 d2bc a84e f2bc 4c6f adbd d405 1e3e
000001d0: b9ff e13c 4ecf debd 6675 4d3d 8537 4fbd
000001e0: 5d13 943d 9313 c93b 1ef8 8f3c cb64 13bd
000001f0: 6ce1 b83d e210 a63d 7d3e c6bd 8790 c43d
00000200: fde4 20bb 203b 0b3d 7bc5 ba3d be93 08bc
00000210: 3c1a 70bd 26ee e53d 6589 cebd 7dfe 2abd
00000220: 0700 5cbd 7192 563d 9a16 1c3d 85ae bcbb
00000230: 8783 353d 3dc3 133e e1ff c23d 643f 3ebd
00000240: 9aae 20bc 6a0c c4bd 85cf 8fbd 2d66 b93d
00000250: 7d4f 1b3d 1549 cebc cbf9 75bd bb70 813b
00000260: 89c1 cebd 7e7d d63d 4fe1 9dbd a3a7 f4bd
00000270: 6cef 10bd 95da febd a3f2 223d ff47 a4bd
00000280: 50e2 e3bd 0ae9 f9bc 296b 51bc a6f9 94bd
00000290: fe07 203d 7c7c de3d f2e4 e93c 97e0 273d
000002a0: 440d 07bd a962 fcbd 9268 873b 6014 183d
000002b0: d398 d93d 3f96 5dbc c5d8 27bd 982b 353c
000002c0: 960e 88bd cf66 3b3c d9dc 103e 1c82 32bc
000002d0: 0a3a 08bd 68fc 60bd e9d2 a93d e0e3 f03d
000002e0: 6d18 3b3d fc77 90bd baae 853d 72ed 61bd
000002f0: fe27 5e3c 6243 183e c916 af3d 1eef 563d
00000300: 6ed0 27bc 3f1e 763d c38f 4e3d 39c9 063e
00000310: 9f2d 99bd 206c d63c bbb6 24bc a804 d6bc
00000320: 64c0 aa3c b493 e33d 16ff e7bc 1b59 f0bd
00000330: 13de aebd 6dfd 91bc b6b3 ee3c 5a72 96bd
00000340: 2e52 043c 55e7 58bd f584 80bb 19b5 ed3d
00000350: 3122 04bd f9e9 8a3d 1532 ddbd 8fa9 cf3b
00000360: 34d0 c3b9 e70f 3c3e 4179 36bd 7ec0 c03d
00000370: 7436 b9bc 1d82 19be 2802 0ebc 90c5 07be
00000380: 3d18 fe3d 5b7e a9bd 6ff4 8b3d 5e4a d5bd
00000390: b234 88bc 87a5 d0bd 87c2 ec3d abc4 dd3d
000003a0: 089e c3bd 38cc d4bd 9e22 d1bd 727f 00bc
000003b0: 0e76 0f3d 1890 babd 3688 92bd 59ca ecbc
000003c0: 6f9b 77bd 214f b1bd ebdb 823c 20f4 433e
000003d0: 57df 693c 29ae b03d 623f 8a3d 6247 d63d
000003e0: 8bc7 83bd 583f 78bc 5796 923d 62e4 063e
000003f0: f3be 4f3c e4b2 90bc 3488 22bd 7f9e 87bc

net.3.bias f4 [128]
0.012691353 0.01810373 0.08630371 -0.080994785 0.037189562 -0.048906468 0.018247321 0.0865587
-0.0390671 -0.049481995 -0.0053810226 0.056351393 -0.11702389 0.091197304 -0.09439367 0.058876608
0.11484278 -0.1338344 0.068200566 0.055054203 -0.108983144 0.014133772 0.027674917 0.018114101
-0.116100766 0.14144349 -0.10540689 0.021298533 0.10918818 0.027296215 0.05107734 0.0012933683
0.10816224 -0.07740668 0.07549826 -0.061808903 0.052274574 -0.11476674 0.060026757 -0.036188044
0.06870218 0.018198084 0.12511474 -0.077120416 0.06746065 0.08337506 -0.12158183 -0.043308735
-0.0118529 0.10526846 0.05207 0.119356245 -0.006479193 0.00057891244 0.038761508 0.050257683
0.015583403 0.13061115 0.06253144 -0.03110192 0.0049762353 -0.011250003 -0.030816158 -0.0037888235
0.122444116 -0.07530509 0.01357317 0.004086192 0.0033879422 -0.009537969 -0.02426889 0.07928291
-0.072514586 -0.08127637 0.1116899 -0.08138872 -0.12138101 0.11603402 0.055721432 0.07361342
-0.06990103 -0.00076632545 0.06444127 -0.0773068 -0.020370731 0.09470072 0.090417534 0.080403574
0.1241804 -0.02180514 0.1582795 -0.009633637 0.05709503 0.007889837 -0.035975445 -0.04682321
0.084475905 -0.12913938 0.0070902756 0.020437554 -0.06784235 0.020323744 0.014915224 0.080101565
0.09406788 0.038290113 -0.05250939 -0.013338898 0.047325626 0.056306433 0.10358801 -0.112872355
0.09589963 0.02609004 0.07637731 0.10808458 0.056923445 -0.002552532 0.0003838323 0.001048751
-0.10172951 0.021088745 0.07323033 0.108680256 0.076118656 0.0032470888 0.12234717 0.0970749
00000000: 65ef 4f3c 464e 943c 00c0 b03d 98e0 a5bd
00000010: 1554 183d 2652 48bd 687b 953c b045 b13d
00000020: d304 20bd a2ad 4abd 4a53 b0bb b8d0 663d
00000030: 39aa efbd a7c5 ba3d 7851 c1bd 9928 713d
00000040: b132 eb3d e30b 09be bdac 8b3d 8480 613d
00000050: 8e32 dfbd 5691 673c 82b6 e23c 0664 943c
00000060: 3dc6 edbd 90d6 103e 91df d7bd 437a ae3c
00000070: 0d9e df3d 509c df3c 7936 513d 3d86 a93a
00000080: 2a84 dd3d 6587 9ebd d59e 9a3d 552b 7dbd
00000090: dd1d 563d d30a ebbd 9ede 753d ea39 14bd
000000a0: bbb3 8c3d 2614 953c 141e 003e 4ff1 9dbd
000000b0: cf28 8a3d 8bc0 aa3d e5ff f8bd 8064 31bd
000000c0: aa32 42bc fe96 d73d 5a47 553d 0c71 f43d
000000d0: 694f d4bb 28c2 173a 63c4 1e3d 00db 4d3d
000000e0: 8851 7f3c eebe 053e 7c10 803d 74c9 febc
000000f0: b00f a33b ef51 38bc 2b72 fcbc e94d 78bb
00000100: fbc3 fa3d 8e39 9abd 0062 5e3c 77e5 853b
00000110: 3d08 5e3b 2445 1cbc 8dcf c6bc 145f a23d
00000120: 8782 94bd 3a74 a6bd adbd e43d 21af a6bd
00000130: 9b96 f8bd 3fa3 ed3d 283c 643d a2c2 963d
00000140: 4528 8fbd 3be3 48ba c9f9 833d 0753 9ebd
00000150: 85e0 a6bc 73f2 c13d d42c b93d a1aa a43d
00000160: 4b52 fe3d b1a0 b2bc 0514 223e 67d6 1dbc
00000170: 7adc 693d 6044 013c fd5a 13bd b2c9 3fbd
00000180: b401 ad3d 1d3d 04be 8b55 e83b a86c a73c
00000190: eef0 8abd fb7d a63c fc5e 743c 4a0c a43d
000001a0: a9a6 c03d 18d6 1c3d 1614 57bd 658b 5abc
000001b0: 84d8 413d 93a1 663d f325 d43d 9f29 e7bd
000001c0: 0667 c43d c8ba d53c b56b 9c3d 735b dd3d
000001d0: 8f28 693d 6148 27bb 193d c939 3e76 893a
000001e0: 9057 d0bd 4ec2 ac3c c9f9 953d c193 de3d
000001f0: 19e4 9b3d 1ccd 543b 2791 fa3d 35cf c63d

net.6.weight f4 [64, 128]
0.034694638 0.040532008 -0.01146072 0.045898404 0.025180673 -0.05783637 0.028813576 0.072608635
-0.044222645 -0.021382771 0.079386495 0.011652024 -0.0201673 -0.06093326 0.058088172 0.0033391216
0.043691915 -0.00093124097 0.01575143 0.10151963 0.0127800265 0.0450893 0.0054631466 -0.06688869
0.022361754 0.11036843 0.053179644 0.09684948 0.019352997 0.022329649 -0.067243956 -0.09106186
0.072938465 0.03990425 0.0248432 -0.0467894 -0.06670383 -0.041605685 -0.00049727305 0.06845288
0.09274259 0.015711363 -0.009783128 0.014345016 -0.04640635 0.10223934 -0.05094452 -0.020318048
0.02527432 -0.014684145 0.10295259 -0.04904498 -0.01555985 -0.077942796 -0.04015857 -0.060257897
0.084659025 0.066664234 0.037963796 -0.007444234 -0.029100014 0.05254789 -0.020586941 0.04110151
0.060904816 0.005635634 0.09337421 -0.022907669 0.09549901 0.057862896 0.0046681953 -0.026357649
-0.05739176 0.0037821743 -0.07709565 0.08548009 0.0641521 -0.03540781 0.061439898 0.09861101
-0.018832145 -0.05797244 -0.051819198 -0.013371253 0.07874484 0.071945414 -0.0972622 0.0046403944
0.05294727 -0.06856472 -0.005825214 -0.0004005173 -0.027442785 0.018563146 0.001787273 -0.049942054
-0.026792144 0.023132965 0.06306347 -0.036100917 -0.004413029 -0.01413281 -0.08956364 -0.016070345
0.06465963 -0.09129409 -0.102914296 0.045383085 -0.029273896 -0.04965867 -0.02021419 0.016995452
0.00011745677 0.039772846 -0.06096497 0.06804974 0.004689532 -0.035054747 0.012821607 -0.0047054156
0.03336115 -0.04123722 0.035322048 0.0028326474 -0.013166015 -0.002113612 0.06987784 0.09029577
0.03433635 0.013795028 0.10542356 -0.015317418 -0.042235732 -0.100320734 0.049872145 -0.06916996
-0.028712688 0.0119563565 -0.07193125 -0.054885723 0.021754771 -0.00871301 -0.052932005 -0.05584845
0.063867815 -0.039669964 0.015542919 -0.05135203 -0.044618633 -0.030851414 -0.012660801 -0.06277897
-0.058143124 0.012402314 0.034436367 0.03671956 0.007784439 -0.0571569 -0.01008243 0.027844405
0.08723067 0.013860533 -0.0231596 0.01396909 -0.05555701 -0.050577667 -0.06142897 -0.013755533
0.10329389 0.053762965 0.04109218 -0.09397914 0.007880136 -0.025018686 -0.016173588 0.035417005
0.069959626 -0.059238046 0.09785653 0.032152858 -0.04421419 -0.07774995 0.056210484 0.048874382
0.08036373 -0.047682133 0.10507941 0.1112738 -0.050798118 -0.07089741 0.08202862 0.08588131
0.09298259 -0.053688858 -0.05924774 0.073136546 0.08448577 -0.030105187 0.10360896 0.09513766
-0.04678718 0.053293094 0.0021724524 0.0009284779 -0.06314861 0.025313396 -0.015218551 -0.08116622
-0.058371797 -0.061638482 0.043638904 0.057268698 0.09490226 -0.01881899 -0.09925236 0.051982548
0.044754773 0.10407567 -0.02064827 0.024972562 -0.03649455 -0.08971264 0.018918134 -0.030869419
0.00827589 -0.033138193 -0.035434186 0.05666949 0.08538721 -0.020417843 -0.00815022 0.112122126
0.015149027 0.030213179 0.053793855 -0.051591497 -0.049458522 -0.08219836 0.03587109 0.05411109
0.040889807 0.045225557 -0.08897527 0.0051422045 0.06896294 0.011449494 -0.07828257 0.073085114
0.059350643 -0.064399764 0.04323621 -0.02937805 0.01630234 -0.015193943 -0.07780216 -0.07302065
00000000: f71b 0e3d e404 263d bec5 3bbc f7ff 3b3d
00000010: b347 ce3c d4e5 6cbd 730a ec3c d6b3 943d
00000020: ce22 35bd ec2a afbc 6395 a23d 22e8 3e3c
00000030: e535 a5bc 2795 79bd dded 6d3d 2ad5 5a3b
00000040: 4bf6 323d 861e 74ba 2509 813c 86e9 cf3d
00000050: 5163 513c 8faf 383d 3204 b33b f0fc 88bd
00000060: ff2f b73c d808 e23d e6d2 593d 0559 c63d
00000070: 2d8a 9e3c abec b63c 33b7 89bd a47e babd
00000080: c360 953d a472 233d f783 cb3c 3ea6 3fbd
00000090: 059c 88bd b96a 2abd 6e5b 02ba 0631 8c3d
000000a0: d4ef bd3d 1eb5 803c 6a49 20bc 5c07 6b3c
000000b0: 9614 3ebd dc62 d13d 33ab 50bd 0972 a6bc
000000c0: 170c cf3c c595 70bc cfd8 d23d 64e3 48bd
000000d0: beee 7ebc 79a0 9fbd 507d 24bd fcd0 76bd
000000e0: b661 ad3d 4287 883d ed7f 1b3d c3ee f3bb
000000f0: 2763 eebc 753c 573d f2a5 a8bc 0f5a 283d
00000100: 5477 793d 20ab b83b fa3a bf3d dda8 bbbc
00000110: fc94 c33d a501 6d3d a9f7 983b ffeb d7bc
00000120: 9f13 6bbd 5bde 773b 53e4 9dbd 2f10 af3d
00000130: 2d62 833d c807 11bd 67a8 7b3d 92f4 c93d
00000140: df45 9abc 8274 6dbd 5e40 54bd 1a13 5bbc
00000150: fa44 a13d 1e58 933d 6831 c7bd 730e 983b
00000160: 3ddf 583d a96b 8cbd 70e1 bebb 86fc d1b9
00000170: b1cf e0bc bd11 983c ee42 ea3a 0a90 4cbd
00000180: 337b dbbc 5881 bd3c 6c27 813d 8ede 13bd
00000190: 2c9b 90bb 4d8d 67bc 246d b7bd f5a5 83bc
000001a0: 456c 843d 65f8 babd bbc4 d2bd 9de3 393d
000001b0: cfcf efbc e466 4bbd 3b98 a5bc 0c3a 8b3c
000001c0: 2053 f638 dae8 223d 68b6 79bd a95d 8b3d
000001d0: a5aa 993b 9195 0fbd b811 523c e32f 9abb
000001e0: b4a5 083d 5ce8 28bd daad 103d f0a3 393b
000001f0: 45b6 57bc 8684 0abb 1d1c 8f3d fdec b83d
00000200: 46a4 0c3d 8b04 623c 4fe8 d73d e8f5 7abc
00000210: 60ff 2cbd f574 cdbd bc46 4c3d fba8 8dbd
00000220: df36 ebbc 98e4 433c b150 93bd dacf 60bd
00000230: 1037 b23c 03c1 0ebc 3bcf 58bd 58c1 64bd
00000240: 21cd 823d f97c 22bd baa7 7e3c 8256 52bd
00000250: 07c2 36bd 1bbc fcbc 406f 4fbc 4392 80bd
00000260: 7c27 6ebd 1333 4b3c 260d 0d3d 4067 163d
00000270: 9b14 ff3b 5b1d 6abd c730 25bc f319 e43c
00000280: fea5 b23d 4a17 633c 34b9 bdbc 9cde 643c
00000290: bf8f 63bd 872a 4fbd f29c 7bbd e35e 61bc
000002a0: bf8b d33d 8e36 5c3d 4650 283d 2378 c0bd
000002b0: b01b 013c fdf3 ccbc 797e 84bc 6c11 113d
000002c0: fe46 8f3d 98a3 72bd 0169 c83d b7b2 033d
000002d0: f019 35bd 5e3b 9fbd f73c 663d 8130 483d
000002e0: bd95 a43d 574e 43bd e033 d73d 85e3 e33d
000002f0: b011 50bd a932 91bd 9ffe a73d 8ae2 af3d
00000300: a86d be3d d9e8 5bbd c2ad 72bd 9dc8 953d
00000310: e006 ad3d 279f f6bc ef30 d43d 89d7 c23d
00000320: eaa3 3fbd dc49 5a3d b45f 0e3b 1965 733a
00000330: 0f54 81bd 0a5e cf3c 3b57 79bc 7a3a a6bd
00000340: 4417 6fbd a278 7cbd b5be 323d 9592 6a3d
00000350: 1e5c c23d 482a 9abc d244 cbbd a7eb 543d
00000360: c850 373d a025 d53d 9026 a9bc 4293 cc3c
00000370: 4f7b 15bd 43bb b7bd 34fa 9a3c dde1 fcbc
00000380: 9997 073c eabb 07bd 7023 11bd 441e 683d
00000390: 7ddf ae3d 5243 a7bc 8088 05bc 49a0 e53d
000003a0: a033 783c a181 f73c f256 5c3d 9b51 53bd
000003b0: 0595 4abd 9d57 a8bd 90ed 123d 97a3 5d3d
000003c0: 127c 273d 6f3e 393d ab38 b6bd f07f a83b
000003d0: 713c 8d3d a996 3b3c 9d52 a0bd a6ad 953d
000003e0: a919 733d 06e4 83bd 7418 313d 3caa f0bc
000003f0: 7c8c 853c 04f0 78bc bd56 9fbd da8b 95bd

net.6.bias f4 [64]
0.017376123 0.038079593 0.078427 0.0046110586 0.059170566 0.0059916074 0.09108927 0.075366065
0.028452693 -0.020183915 -0.045515206 -0.006064192 0.005202089 -0.090117306 -0.048724666 -0.033544432
0.05387254 0.01904525 0.035706475 0.0062556593 0.0051566386 0.05613191 0.0609325 0.06147745
0.04924508 0.016376225 0.002010156 -0.025246767 0.02853771 -0.024238795 -0.08929456 0.08336454
-0.006013474 0.04527815 -0.007546889 0.043555707 0.07341696 0.035651524 0.062419973 -0.016199563
0.07174553 -0.09027615 0.08704579 0.02137946 0.058852736 0.071203135 -0.034657992 -0.0639036
0.025654607 -0.04299163 -0.024375936 -0.004570686 -0.0641078 0.051689513 0.06050801 -0.025113817
-0.080477715 0.04467895 0.078117214 0.06758361 -0.052745815 0.07119252 0.06463946 0.028112106
00000000: 5f58 8e3c 59f9 1b3d 569e a03d 5d18 973b
00000010: d65c 723d 3f55 c43b 038d ba3d 8659 9a3d
00000020: 9f15 e93c bd58 a5bc 276e 3abd 21b6 c6bb
00000030: 4976 aa3b 6c8f b8bd 8493 47bd e365 09bd
00000040: 74a9 5c3d c904 9c3c f440 123d 46fc cc3b
00000050: 05f9 a83b 93ea 653d 5b94 793d c7cf 7b3d
00000060: 36b5 493d 6f27 863c d2bc 033b 4fd2 cebc
00000070: eac7 e93c 7090 c6bc 11e0 b6bd 07bb aa3d
00000080: ad0c c5bb 9575 393d e54b f7bb 7867 323d
00000090: a25b 963d 5507 123d 16ac 7f3d f2b4 84bc
000000a0: 52ef 923d b4e2 b8bd 1045 b23d fa23 af3c
000000b0: 910f 713d f3d2 913d 8af5 0dbd e4df 82bd
000000c0: 9c29 d23c fe17 30bd 0bb0 c7bc b1c5 95bb
000000d0: f34a 83bd 62b8 533d 3fd7 773d 7ebb cdbc
000000e0: 80d1 a4bd 4601 373d ebfb 9f3d 4769 8a3d
000000f0: ff0b 58bd 62cd 913d b161 843d 5c4b e63c

net.9.weight f4 [4, 64]
-0.054132186 -0.13503923 0.01746583 0.116893195 0.081148855 -0.049031854 -0.07331171 0.045847155
-0.18170767 0.048873205 0.05128146 0.09765884 -0.073887385 -0.005463501 0.04392197 0.093708344
0.09625638 0.076719 0.07258804 -0.117429085 0.054259267 -0.08723147 0.038496777 0.09258688
0.002370435 -0.090465434 -0.11304086 0.043047007 -0.09750589 0.03272836 0.03851378 -0.077393755
0.073761605 0.0024052502 0.07818321 0.11631689 0.005328025 0.023138147 0.084167935 -0.006047108
0.035168234 -0.07081609 -0.06324093 -0.024963435 -0.022167537 -0.037633806 0.08839615 0.03516514
0.06752665 -0.0048063067 0.043762814 0.0046258555 0.09150708 -0.12831414 -0.04012137 0.014730112
0.07364998 0.006302993 -0.09812637 -0.10057521 -0.054011956 0.0007848398 -0.11074507 -0.07900872
-0.08586271 -0.10427787 -0.037067186 0.107541844 -0.019166626 -0.09404047 -0.08331073 0.03218329
-0.11299297 -0.061056655 0.08379753 0.112854056 -0.04715228 -0.060920887 -0.09745919 0.007600248
0.092205845 0.07107768 -0.058659874 0.058921203 0.09182503 -0.06000848 -0.06284746 0.051545784
-0.051011693 -0.059171997 -0.07979916 -0.1044458 -0.016051708 -0.063105024 0.083399996 -0.012772948
0.09609705 0.00379969 0.06720291 0.14176275 -0.0606844 0.07540046 0.0550823 0.11531562
-0.07584582 -0.043379795 -0.085236445 0.09223098 -0.096836895 -0.11675235 0.0695073 0.047808878
0.09809649 -0.11017746 0.024003373 0.030048303 -0.0487786 0.02834779 -0.10013227 -0.023541298
0.019311931 0.0690218 -0.115078576 -0.09443554 -0.0964791 -0.05293846 -0.05562048 0.07136946
0.058619656 0.008878136 0.07548646 -0.090268716 -0.023820847 -0.12379918 0.022168193 0.13371088
0.08006385 -0.031565923 -0.08858852 -0.083713405 0.082940005 -0.11528806 -0.06360322 0.12137676
-0.047017206 0.07438736 -0.09083775 0.07872346 0.020202884 -0.06478513 0.045155738 -0.09318956
-0.12151822 0.0119381845 0.10624197 0.076597065 0.031926014 0.111814775 -0.030001502 -0.018840926
-0.12702267 0.009221888 0.05086033 -0.009189727 0.020918911 -0.023614293 0.0065001 0.05544599
0.11107426 -0.10551341 0.1284082 -0.07991182 -0.08454454 -0.029346237 -0.081310116 0.013927442
0.11462595 0.07474695 0.063695416 0.101559974 0.0882588 -0.004158375 -0.12672122 0.112106256
0.05473422 -0.10283522 0.05006601 0.10262665 -0.108134426 -0.16166024 0.029076103 -0.14446795
0.12570384 -0.02603615 0.10099444 -0.04849967 -0.048991684 -0.05608639 0.057245545 -0.014299261
-0.08079742 -0.08292839 0.07974168 -0.031850215 0.09411883 -0.0433341 0.010280992 -0.012550704
0.0031876331 0.013411369 0.092430435 0.10931111 0.06583908 -0.10597923 0.10082625 0.11751781
-0.050166223 -0.029954938 0.046531517 0.025910879 -0.056580078 0.10114336 0.107747324 0.11853639
0.038093135 -0.1186558 -0.038954522 -0.070295945 0.13971467 -0.1164527 0.06217991 0.06479791
0.1295042 0.13426845 -0.0016251287 -0.016701683 -0.06573866 0.095965855 -0.09656568 0.10624339
0.03648678 -0.091365665 -0.11898754 -0.051883925 -0.028255213 0.049709525 -0.07247949 0.11909235
0.14198993 -0.12047686 0.025094684 0.02337252 -0.082520954 -0.12302784 0.1349976 -0.1167114
00000000: b6b9 5dbd b947 0abe 8014 8f3c b365 ef3d
00000010: 5f31 a63d a0d5 48bd 7324 96bd 3aca 3b3d
00000020: 9311 3abe 452f 483d 820c 523d 5c01 c83d
00000030: 4552 97bd 2b07 b3bb 86e7 333d 29ea bf3d
00000040: 1122 c53d da1e 9d3d 0aa9 943d a97e f0bd
00000050: f73e 5e3d 6aa6 b2bd ccae 1d3d 319e bd3d
00000060: 4d59 1b3b f145 b9bd f781 e7bd 0f52 303d
00000070: 2bb1 c7bd 2c0e 063d a0c0 1d3d 9e80 9ebd
00000080: 5310 973d 67a1 1d3b 851e a03d 8d37 ee3d
00000090: b796 ae3b 368c bd3c 3d60 ac3d d226 c6bb
000000a0: 910c 103d 0708 91bd 7684 81bd 1e80 ccbc
000000b0: b298 b5bc e825 1abd 0a09 b53d 5209 103d
000000c0: 6a4b 8a3d 397e 9dbb a340 333d 7d94 973b
000000d0: 1068 bb3d c864 03be 4e56 24bd 9156 713c
000000e0: cdd5 963d 5689 ce3b 7af6 c8bd 60fa cdbd
000000f0: a43b 5dbd b5bd 4d3a 50ce e2bd 53cf a1bd
00000100: cad8 afbd a38f d5bd c3d3 17bd e63e dc3d
00000110: 5403 9dbc 4a98 c0bd d19e aabd a0d2 033d
00000120: dc68 e7bd 8b16 7abd 0a9e ab3d 0720 e73d
00000130: c022 41bd 2e88 79bd af98 c7bd 800b f93b
00000140: 6bd6 bc3d 2d91 913d 5645 70bd 5c57 713d
00000150: c30e bc3d 74cb 75bd 2bb6 80bd ac21 533d
00000160: a3f1 50bd 565e 72bd be6d a3bd aee7 d5bd
00000170: df7e 83bc 353d 81bd 9ecd aa3d a045 51bc
00000180: 88ce c43d 3804 793b aea1 893d 412a 113e
00000190: 3590 78bd 8e6b 9a3d fa9d 613d 992a ec3d
000001a0: 0e55 9bbd 03af 31bd 7290 aebd 99e3 bc3d
000001b0: 6c52 c6bd db1b efbd d859 8e3d 3ed3 433d
000001c0: d0e6 c83d b8a4 e1bd b9a2 c43c dc27 f63c
000001d0: 12cc 47bd a039 e83c 2612 cdbd aed9 c0bc
000001e0: 0e34 9e3c 4d5b 8d3d 51ae ebbd 6c67 c1bd
000001f0: d696 c5bd 00d6 58bd 4dd2 63bd 272a 923d
00000200: 2a1b 703d 9a75 113c a598 9a3d cede b8bd
00000210: f023 c3bc 6d8a fdbd 129a b53c 81eb 083e
00000220: 84f8 a33d 454b 01bd e66d b5bd ef71 abbd
00000230: 73dc a93d 251c ecbd 6842 82bd 6194 f83d
00000240: 1d95 40bd 6658 983d 2409 babd c439 a13d
00000250: 8580 a53c 11ae 84bd 39f5 383d 2bda bebd
00000260: 8bde f8bd 6098 433c 6495 d93d ecde 9c3d
00000270: dac4 023d 25ff e43d b6c5 f5bc 4958 9abc
00000280: 3b12 02be 6717 173c ec52 503d 8290 16bc
00000290: 235e ab3c c372 c1bc cafe d43b 561b 633d
000002a0: e77a e33d 6a17 d8bd 707d 033e cfa8 a3bd
000002b0: b025 adbd 8567 f0bc eb85 a6bd ed2f 643c
000002c0: 03c1 ea3d ee14 993d be72 823d adfe cf3d
000002d0: 08c1 b43d fa42 88bb 35c3 01be f797 e53d
000002e0: fd30 603d 469b d2bd 0412 4d3d ec2d d23d
000002f0: 9575 ddbd 438a 25be 0231 ee3c 68ef 13be
00000300: 82b8 003e c449 d5bc 2cd6 ce3d 97a7 46bd
00000310: 81ab 48bd d8ba 65bd 4e7a 6a3d 7347 6abc
00000320: 1e79 a5bd 5cd6 a9bd 9b4f a33d 5f75 02bd
00000330: 60c1 c03d 197f 31bd 9b71 283c 78a1 4dbc
00000340: 9ce7 503b 5cbb 5b3c 2b4c bd3d 81de df3d
00000350: a4d6 863d a30b d9bd fe7d ce3d 2dad f03d
00000360: 197b 4dbd 0f64 f5bc d597 3e3d 0d43 d43c
00000370: 83c0 67bd 4024 cf3d a1aa dc3d 35c3 f23d
00000380: 8c07 1c3d d001 f3bd c78e 1fbd 52f7 8fbd
00000390: 5d11 0f3e c17e eebd 5cb0 7e3d c4b4 843d
000003a0: c09c 043e ab7d 093e 4502 d5ba f8d1 88bc
000003b0: fea1 86bd bf89 c43d 3ac4 c5bd 2296 d93d
000003c0: 2973 153d ec1d bbbd bdaf f3bd 3d84 54bd
000003d0: 7a77 e7bc 379c 4b3d 2070 94bd b1e6 f33d
000003e0: cf65 113e 92bc f6bd 5e93 cd3c ba77 bf3c
000003f0: bf00 a9bd 05f6 fbbd d03c 0a3e 6306 efbd

net.9.bias f4 [4]
0.07094483 -0.01117395 -0.00308061 -0.044352163
00000000: 864b 913d f112 37bc 0fe4 49bb 9daa 35bd
