models/model_fold_2.pt (torch, 87693 bytes, 8 tensors)

net.0.weight f4 [64, 66]
0	0x3e1f07c7	0.1553031
1	0x3d1e9f74	0.038726285
2	0xbcf96f70	-0.030448645
3	0x3d5fd693	0.054647993
4	0xbc995734	-0.01871834
5	0x3dfb1b24	0.12261036
6	0x3dfe12e8	0.1240595
7	0x3b34e098	0.0027599689
8	0xbc351a5b	-0.011053647
9	0x3dbfa8ea	0.0935839
10	0x3d8d6be2	0.06905343
11	0xbcd55729	-0.026042538
12	0x3d723c6f	0.059139665
13	0x3e0f3bc2	0.1398764
14	0xbe1fa3f9	-0.15589894
15	0x3a0abebe	0.0005292705
16	0x3db12b63	0.086508535
17	0x3e07b556	0.13252768
18	0xbe301468	-0.17195284
19	0x3dc62d22	0.09676577
20	0xbd4f0fa5	-0.05055203
21	0xbdc66296	-0.096867725
22	0xba385980	-0.00070323795
23	0x3daaee34	0.08346215
24	0x3ccbf6b2	0.024897907
25	0x3d964890	0.07338059
26	0x3d4942f0	0.049136102
27	0x3dd841a1	0.10559393
28	0xbd0d0eb6	-0.034437858
29	0xbda02739	-0.07819981
30	0xbc6b1680	-0.014348626
31	0x3c4e7933	0.012602138
32	0xba8758cf	-0.001032615
33	0xbd52e7a5	-0.051490445
34	0x3dedf0bb	0.11618181
35	0x3de6ff5a	0.11279173
36	0xbcccb530	-0.02498874
37	0x3cd87f48	0.02642788
38	0x3dd5e03a	0.104431584
39	0x3d1a1788	0.037620097
40	0xbd9dc86d	-0.07704244
41	0x3ce23032	0.027610872
42	0xbe07f49b	-0.13276903
43	0xbd95a943	-0.07307675
44	0xbd3a31b4	-0.045457557
45	0xbdc07baa	-0.09398587
46	0x3dec6e36	0.115444586
47	0x3de6a64a	0.11262186
48	0xbe2809d8	-0.16410005
49	0x3d8417bd	0.0644984
50	0xbd8a4b51	-0.06752647
51	0x3e00db7b	0.12583725
52	0xbdfba6c5	-0.12287668
53	0xbdde53ef	-0.10855853
54	0x3c47b9c0	0.012190282
55	0xba7b8cea	-0.0009595888
56	0x3d363cd8	0.04449162
57	0xbd8f377a	-0.06993003
58	0x3d142642	0.036169298
59	0x3caabd0e	0.020842101
60	0xbdc0f278	-0.09421247
61	0xbd5f6462	-0.054539092
62	0xbd1c006c	-0.03808634
63	0xbe14d0fa	-0.14532843
64	0xbd576018	-0.052581877
65	0x3dac93b7	0.08426612
66	0xbdac389c	-0.08409235
67	0xbd1f63f4	-0.038913682
68	0xbdb79b18	-0.08965129
69	0xbbfaf940	-0.0076591074
70	0x3d8d354b	0.068949305
71	0xbdda548e	-0.10660659
72	0x3d59a179	0.053132508
73	0x3de928d9	0.11384744
74	0xbcda7e19	-0.026671456
75	0xbd902b27	-0.07039481
76	0xbd695204	-0.05696298
77	0xbce0579d	-0.027385527
78	0xbc869c9d	-0.0164321
79	0xbc887293	-0.016656196
80	0xbde3a494	-0.11115375
81	0xbdfc463d	-0.123180844
82	0xbdb02589	-0.08600909
83	0x3d9b3eff	0.07580375
84	0xbcc8a175	-0.024491051
85	0x3e020290	0.1269629
86	0x3c7b85d5	0.015351732
87	0x3ca34a00	0.019932747
88	0xbddb8cee	-0.107202396
89	0xbd395a53	-0.045252156
90	0xbdb06cdf	-0.086145155
91	0xbdaecd47	-0.08535247
92	0xbdd4929a	-0.103795245
93	0x3c1588b2	0.009126829
94	0xbd169b18	-0.036769003
95	0xbdb9ba5e	-0.0906875
96	0xbdd8c51b	-0.1058447
97	0xbd53e4a5	-0.051731724
98	0xbced1c78	-0.028944239
99	0x3d9fe9bb	0.078082524
100	0xbe098dbc	-0.13432974
101	0xbd85cec9	-0.06533582
102	0xbde5a84e	-0.11213742
103	0x3de9c632	0.11414756
104	0x3d201db0	0.039090812
105	0xbdd49b94	-0.10381237
106	0x3d1cf273	0.038317155
107	0xbe089071	-0.1333635
108	0xbdc74d64	-0.09731558
109	0x3cae4740	0.021274209
110	0xbde0dfba	-0.109801725
111	0xbca74aac	-0.020421349
112	0xbd5353be	-0.051593535
113	0xbd8eb70e	-0.06968509
114	0xbd6d5f7b	-0.057952385
115	0xbd19c1b9	-0.037538264
116	0xbdbc7d37	-0.0920357
117	0x3de50da9	0.11184246
118	0xbdef56f7	-0.11686509
119	0x3ce80d18	0.028326556
120	0x3cedc630	0.029025167
121	0x3d5d161d	0.053976167
122	0xbd5791dd	-0.05262934
123	0x3cde85ac	0.02716335
124	0xbb9c2597	-0.0047652232
125	0x3dbb6ac3	0.091512226
126	0x3d6638c8	0.056206495
127	0x3c5f01e0	0.013611287
128	0xbd82882c	-0.06373629
129	0x3df04913	0.11732688
130	0x3ba87e4f	0.0051420103
131	0x3cefe131	0.029282184
132	0x3d334ebb	0.043776255
133	0xbcbb01c0	-0.022827983
134	0x3c2d2530	0.010567948
135	0xbcc1dfc7	-0.023666276
136	0xbd2ea255	-0.04263528
137	0x3d2167d5	0.039405663
138	0xbddf009a	-0.108887866
139	0xbc713e3f	-0.014724313
140	0xbd5c0f0b	-0.053725284
141	0xbcc84838	-0.0244485
142	0xbc8d28bd	-0.01723134
143	0xbd898a4a	-0.0671583
144	0xbd224374	-0.03961511
145	0xbd2a938e	-0.041644625
146	0xbe0cd5b6	-0.13753399
147	0xbe2ed9f0	-0.17075324
148	0x3cd44a01	0.025914194
149	0xbdde6c21	-0.10860468
150	0xbb1f2a77	-0.0024286786
151	0x3cad4235	0.021149734
152	0xbdcfbd3e	-0.10143517
153	0x3d2945ec	0.04132645
154	0x3cc8be50	0.02450481
155	0x3cc8d1c7	0.024514092
156	0xbdff25de	-0.124583945
157	0xbd9109bc	-0.07081935
158	0x3ce673a8	0.028131321
159	0xbe20d966	-0.15707931
160	0xbd7469b7	-0.05967113
161	0xbc7a5d48	-0.015281029
162	0x3d35552b	0.044270676
163	0xbce53469	-0.027979093
164	0x3e03c6e0	0.12868834
165	0x3d99ccaa	0.0750974
166	0xbd8f0074	-0.06982508
167	0xbc9efb94	-0.019407071
168	0xbb617f00	-0.0034407973
169	0x3d8e5b1e	0.06950973
170	0xbd05fa72	-0.032709546
171	0x3c601c30	0.013678595
172	0xbdcb3fca	-0.09924276
173	0x3c6e25f1	0.014535413
174	0x3d8d5807	0.069015555
175	0x3d8b4114	0.06799522
176	0xbdd5bfd8	-0.10436982
177	0x3d9a0236	0.07519953
178	0x3de63ae0	0.11241698
179	0xbd8e6a29	-0.06953842
180	0x3dddc851	0.10829223
181	0x3daf876d	0.08570752
182	0xbdb61ab1	-0.0889181
183	0x3d528f86	0.051406406
184	0xbd17270e	-0.03690248
185	0xbd8fef21	-0.07028032
186	0xbac6e500	-0.0015174448
187	0x3ca78efc	0.020453922
188	0xbcdfc139	-0.027313815
189	0xbc41be0c	-0.011825096
190	0x3d4353ac	0.047687218
191	0xbc8b95cb	-0.0170392
192	0xbc3d7c40	-0.011565268
193	0xbcde0d80	-0.027106047
194	0x3d7190c4	0.05897595
195	0x3e0df94d	0.13864632
196	0xbdbe8d89	-0.093043394
197	0xbdc13fad	-0.09435973
198	0x3b2532de	0.002520732
199	0xbdc6be05	-0.09704212
200	0x3bc7d120	0.0060979277
201	0xbcb92dc2	-0.022604827
202	0x39cc9825	0.0003902327
203	0x3d400803	0.04688264
204	0x3dbe91b5	0.09305135
205	0xbdb54310	-0.08850682
206	0xbc96dae5	-0.018414924
207	0x3db3ae1e	0.087734446
208	0x3de9d4bc	0.11417529
209	0xbdcb832d	-0.09937129
210	0x3db4bee9	0.08825476
211	0x3e231d2c	0.15929097
212	0x3dfe38db	0.12413188
213	0xbd77858d	-0.0604301
214	0xbd68ed69	-0.056867037
215	0x3ddab567	0.10679131
216	0xbda26e1b	-0.07931157
217	0x3d2c3dc8	0.042051107
218	0xbd1cdf63	-0.038298976
219	0x3dc52136	0.09625475
220	0x3da71d8a	0.08159931
221	0xbcc32439	-0.023820983
222	0xbd9e51dd	-0.07730458
223	0x3d6ab756	0.05730375
224	0xbd52a7dc	-0.051429614
225	0x3da22446	0.07917075
226	0x3cf2181d	0.029552514
227	0x3d9bce66	0.07607727
228	0x3da6d4ea	0.08146079
229	0xbdb59931	-0.088671096
230	0xbe2b6dd4	-0.16741115
231	0x3d3ea104	0.046540275
232	0xbd36ff46	-0.04467704
233	0x3d91bcf8	0.07116121
234	0xbdfa780b	-0.12229928
235	0xbd833e4c	-0.064083666
236	0xbd3a9a3c	-0.045557246
237	0x3b9fcb00	0.0048764944
238	0xbd8d1945	-0.068895854
239	0xbda28504	-0.07935527
240	0xbb8a91ca	-0.004228805
241	0x3e0aebe4	0.13566548
242	0xbd611f0c	-0.05496125
243	0x3c7242b0	0.014786407
244	0xbda461a0	-0.08026433
245	0x3cd76f08	0.026298061
246	0xbd9b9837	-0.07597392
247	0x3d0ddc90	0.034634173
248	0x3b549b2d	0.0032441125
249	0xbd494fa3	-0.049148213
250	0xbdc9ce54	-0.09853807
251	0xbcfa9710	-0.03058961
252	0xbcdefe44	-0.027220853
253	0xbd4d0109	-0.050049815
254	0x3bc206ae	0.0059212064
255	0xb9348fb8	-0.00017219677

net.0.bias f4 [64]
0	0x3dcba76b	0.09944042
1	0xbdd3db0f	-0.103445165
2	0xbc4bed7f	-0.01244676
3	0xbde9238b	-0.113837324
4	0x3c87fef4	0.016601063
5	0x3d0cc65f	0.03436887
6	0xbd1eb5ca	-0.038747586
7	0xbdda94e7	-0.10672932
8	0xb9d1dc44	-0.00040027697
9	0x3d2de0a7	0.042450573
10	0xbbab8b6c	-0.0052351262
11	0x3d53c302	0.051699646
12	0xbd056891	-0.032570425
13	0x3c7996f0	0.01523374
14	0x3cd63583	0.026148563
15	0xbcf94c3a	-0.030431855
16	0x3c58718b	0.0132106645
17	0x3d7ac865	0.061226267
18	0xbcaca5b5	-0.021075109
19	0xbdf154f9	-0.117837854
20	0xbcc8e6bb	-0.024524083
21	0xbd8e1975	-0.06938449
22	0xbdf60f21	-0.12014604
23	0xbda1fba2	-0.07909323
24	0xbde455b4	-0.11149159
25	0x3cd40054	0.025879063
26	0xbdcbc1f8	-0.09949106
27	0x39409627	0.00018366483
28	0x3cf200c1	0.029541375
29	0xbd662255	-0.056185085
30	0xbdd8319d	-0.10556338
31	0x3c7bc155	0.015365918
32	0xbd2fa89b	-0.042885404
33	0x3c8e3ff8	0.017364487
34	0x3c75533e	0.01497346
35	0x3d0f4d46	0.034985803
36	0xbd746ec7	-0.059675958
37	0xbcc81844	-0.024425633
38	0xbde4f482	-0.11179449
39	0xbdf4c85e	-0.119522795
40	0x3d3d59ec	0.046228334
41	0x3cebd329	0.028787212
42	0x3ccf8875	0.025333622
43	0x3d8d9d6e	0.06914793
44	0xbd4f7de2	-0.05065716
45	0x3b947df5	0.004531617
46	0x3d2c5950	0.042077363
47	0xbd8e6f25	-0.06954793
48	0xbd95a8a9	-0.0730756
49	0xbda67d92	-0.081294194
50	0x3c2cd6c2	0.010549249
51	0xbd89e0dd	-0.067323424
52	0xbd683295	-0.056688864
53	0xbd261ee8	-0.04055682
54	0xbd0354b4	-0.0320632
55	0xbc0ac7b2	-0.008470463
56	0x3bcd9379	0.0062736836
57	0xbe0520b3	-0.13000755
58	0x3d00363b	0.03130172
59	0xbddab05f	-0.10678171
60	0xbdd4be9c	-0.10387918
61	0xbc585dd8	-0.013205968
62	0x3d3b8cf3	0.045788717
63	0xbdd984bc	-0.1062102

net.3.weight f4 [128, 64]
0	0xbda7fbe1	-0.08202339
1	0xbdea823f	-0.11450624
2	0xbd84fd95	-0.064936794
3	0xbd8c72f6	-0.068578646
4	0x3ccd556c	0.025065146
5	0x3d034142	0.032044657
6	0xbe0a42b4	-0.13502008
7	0x3db30673	0.087414645
8	0x3cafdac9	0.02146663
9	0xbda70731	-0.081556685
10	0x3d83d1b4	0.06436482
11	0x3b73c320	0.003719516
12	0x3d9c765e	0.07639764
13	0xbce6fcea	-0.02819677
14	0xbdb7708f	-0.08957016
15	0xbde897e9	-0.113570996
16	0x3daadfa3	0.083434366
17	0xbde1e413	-0.1102983
18	0xbd7c0f50	-0.06153804
19	0xbcf0f6a7	-0.029414488
20	0xbd349227	-0.044084694
21	0x3d2a6aa2	0.0416056
22	0xbdd5b233	-0.104343794
23	0xbce82146	-0.028336179
24	0x3dd153a9	0.10221035
25	0xbdea8d75	-0.11452762
26	0xbd1939b5	-0.03740855
27	0x3c8e124d	0.01734271
28	0x3c578d4e	0.013156248
29	0x3c280cba	0.0102569405
30	0xbdfba009	-0.12286384
31	0x3dbcb922	0.09214999
32	0x3d925040	0.07144213
33	0x3d246bd6	0.040141903
34	0x3d083927	0.03325763
35	0xbd3fcbdb	-0.04682527
36	0xbbbd8e7a	-0.005784807
37	0xbd2e2a52	-0.04252083
38	0x3d875bb6	0.06609289
39	0x3d1a1669	0.03761903
40	0x3d2ccb50	0.04218608
41	0x3dd6d120	0.10489106
42	0x3cb457c1	0.0220145
43	0xbd597d8d	-0.05309825
44	0xbe19799b	-0.14987795
45	0xbda2cdf2	-0.07949437
46	0x3d67dd45	0.056607503
47	0xbe1d0349	-0.15333284
48	0xbcd9dfa1	-0.026595892
49	0x3dbba12e	0.09161602
50	0xbe2b2a52	-0.16715363
51	0xbc6e9e60	-0.014564127
52	0x3c98ca50	0.018651158
53	0xbdaadb83	-0.0834265
54	0xbd02a971	-0.031899873
55	0x3e048d61	0.12944557
56	0xbdee19ea	-0.116260365
57	0xbc9995bb	-0.018748155
58	0xbce9a0fb	-0.028519144
59	0x3c0677cc	0.008207273
60	0x3c1e5d57	0.009665809
61	0x3dfb3d66	0.1226757
62	0xbd0ee8c2	-0.034889944
63	0xbda2c995	-0.07948605
64	0x3c784c81	0.015154959
65	0xbcc89b0d	-0.024487996
66	0xbda60aa3	-0.081074975
67	0xbc939d66	-0.01801939
68	0x3d6ed47d	0.058308113
69	0x3d438ef9	0.04774377
70	0xbd71e49a	-0.059055902
71	0xbdb9fd4f	-0.09081518
72	0x3d0dcc9c	0.03461896
73	0xbe21360e	-0.15743276
74	0xbd8f8004	-0.07006839
75	0x3d220e90	0.03956467
76	0xbdf1d471	-0.11808098
77	0x3d50f63f	0.05101609
78	0xbdf8a2bd	-0.12140415
79	0x3e027228	0.1273886
80	0xbe0740a7	-0.13208257
81	0xbd88f83d	-0.06687973
82	0x3e0af155	0.13568623
83	0x3e1d82a6	0.1538187
84	0x3e0e24ae	0.1388118
85	0x3cc7d17a	0.024391878
86	0xbc595338	-0.01326447
87	0xbdb0cea6	-0.08633165
88	0xbd655288	-0.05598691
89	0xbc9b437c	-0.018953077
90	0x3dcbc5fd	0.09949873
91	0xbd2d3030	-0.042282283
92	0x3db2c340	0.08728647
93	0xbd6a29ae	-0.057168655
94	0xbd427f08	-0.047484428
95	0x3cf8a337	0.030351264
96	0xbd01e361	-0.031710986
97	0x3c7e5b02	0.015524628
98	0x3cc6b2cc	0.024255179
99	0x3da7ee31	0.08199728
100	0xbc675558	-0.014119469
101	0xbd03fefa	-0.032225586
102	0xbd9df67c	-0.07713029
103	0xbc7892cc	-0.015171718
104	0x3cc17c24	0.023618765
105	0x3c186a09	0.0093026245
106	0x3db46fa9	0.0881036
107	0x3c085cbe	0.008322893
108	0xbd9541ee	-0.07287966
109	0x3d9e3d76	0.077265665
110	0x3dc1ea05	0.09468464
111	0xbdb2252f	-0.086984985
112	0xbd37fc7e	-0.04491853
113	0x3d5a4c26	0.053295277
114	0xbbd8ac0f	-0.006612308
115	0x3d43d26d	0.0478081
116	0xbd1a296f	-0.03763717
117	0xbd465153	-0.0484174
118	0x3c60dcc1	0.013724507
119	0x3dbc3566	0.091898724
120	0xbdd68d39	-0.10476155
121	0x3de84521	0.1134131
122	0x3d19555c	0.03743492
123	0xbe2a0e63	-0.1660705
124	0xbdb93d63	-0.09044912
125	0x3da72e17	0.08163088
126	0x3d44d621	0.04805577
127	0x3b5ced8b	0.0033710923
128	0xbd995716	-0.074873134
129	0x3d51d698	0.051230043
130	0x3d94e97c	0.07271096
131	0x3d7ccabb	0.061716776
132	0xbd2cd089	-0.042191062
133	0xbda6d18d	-0.081454374
134	0x3d9b3312	0.075781
135	0x3e0a99f2	0.13535288
136	0x3d8e2576	0.06940739
137	0x3dc99329	0.09842522
138	0x3c634535	0.013871481
139	0xbd9559df	-0.07292532
140	0xbca0ca22	-0.019627634
141	0x3ccb2e17	0.02480225
142	0x3d4ce102	0.05001927
143	0x3c1927d0	0.009347871
144	0x3d56bf3e	0.052428477
145	0xbc407051	-0.011745528
146	0x3cd1b682	0.025599722
147	0xbc94cbdf	-0.01816362
148	0x3d1c9dbb	0.03823636
149	0x3d9a6b81	0.07540036
150	0x3d0531c0	0.03251815
151	0xbc2be262	-0.010490986
152	0x3db91dad	0.09038863
153	0xbdccc0d3	-0.09997716
154	0x3d79dee1	0.06100357
155	0xbd677fc7	-0.056518342
156	0xbe09551f	-0.13411377
157	0x3dc5ce41	0.096584804
158	0xbddb0bac	-0.106955856
159	0x3e036c38	0.12834251
160	0x3d9ae434	0.075630575
161	0x3d3dc5b7	0.046331134
162	0xbe522505	-0.20521934
163	0xbe3d5388	-0.18488896
164	0xbce34622	-0.027743403
165	0xbd2ea9f9	-0.042642567
166	0x3da0d199	0.078524776
167	0xbc92e9e9	-0.017933803
168	0xbe48054f	-0.19533275
169	0x3da5bf72	0.08093156
170	0x3da38a8d	0.07985411
171	0x3c721e9a	0.014777804
172	0xbcb243eb	-0.021760901
173	0x3c72fda8	0.014830984
174	0xbdaacd2e	-0.08339916
175	0xbe37fa05	-0.17966469
176	0xbca42975	-0.0200393
177	0xbce1c06d	-0.027557576
178	0x3d2e572c	0.042563602
179	0xbcef1c78	-0.02918838
180	0x3c24699c	0.010034945
181	0xbdc85853	-0.097824715
182	0x3cdbbb7c	0.026822798
183	0x3c66a0bb	0.014076407
184	0xbd808e38	-0.06277126
185	0x3e2a234d	0.16615029
186	0xbcfb634a	-0.030686993
187	0x3ca658f0	0.02030608
188	0xbcccbe60	-0.024993122
189	0x3d680f0c	0.056654975
190	0x3b8172e4	0.0039504636
191	0xbdf14d7d	-0.11782358
192	0x3e0b0de9	0.13579525
193	0xbe0948f5	-0.13406737
194	0x3e12e574	0.14345342
195	0x3c9d7193	0.019219195
196	0xbd1ca354	-0.0382417
197	0xbdef1188	-0.11673266
198	0xbd97076f	-0.07374465
199	0xbdfa2eab	-0.122159325
200	0x3ddb3e49	0.10705239
201	0xbccf5782	-0.025310282
202	0x3e229864	0.15878445
203	0xbd1bae13	-0.038007807
204	0x3dcacd46	0.09902434
205	0x3defe816	0.11714189
206	0xbd964a8c	-0.073384374
207	0xbdafa51e	-0.085764155
208	0x3e0a921b	0.13532297
209	0x3dcb1529	0.09916145
210	0xbd0fdf6d	-0.035125185
211	0xbdfd13d3	-0.12357297
212	0x3df651e6	0.1202734
213	0x3c84a67e	0.01619267
214	0x3ce5f7d4	0.028072275
215	0x3df7b1e6	0.12094478
216	0xbdd488fa	-0.10377689
217	0xbd05150f	-0.032490786
218	0xbb759a87	-0.0037476139
219	0x3d20a14f	0.039216336
220	0xbe055cc9	-0.13023676
221	0x3c9a1c9c	0.01881247
222	0x3d4d0e37	0.050062384
223	0xbdb122c2	-0.08649208
224	0x3db446a3	0.088025354
225	0xbc35463b	-0.0110641075
226	0x3da77d32	0.08178176
227	0xbd702771	-0.058631364
228	0x3d8729b9	0.06599755
229	0xbddf632f	-0.1090759
230	0x3d86b30c	0.06577119
231	0x3ded4277	0.11584943
232	0x3e22ebea	0.15910307
233	0xbd2550cf	-0.04036027
234	0xbdf1bde0	-0.11803794
235	0xbe156867	-0.14590608
236	0x3e3e98de	0.18613002
237	0xbd9c5639	-0.07633633
238	0x3da993ad	0.0828012
239	0xbced5d13	-0.028975045
240	0x3d73e03f	0.05954003
241	0xbdf5c736	-0.12000887
242	0x3e04ecf9	0.12981023
243	0x3d93bf19	0.07214183
244	0x3d3450c0	0.04402232
245	0xbb04196a	-0.002015675
246	0xbdf8160d	-0.12113581
247	0x3db866f4	0.09004012
248	0xbd1d6aea	-0.03843204
249	0xbe135a63	-0.14389949
250	0x3da7401b	0.08166524
251	0xbdbb3de0	-0.09142661
252	0x3cc12d9e	0.023581322
253	0x3d5db4c7	0.05412748
254	0x3df45c97	0.119317226
255	0x3d34b3c6	0.044116758

net.3.bias f4 [128]
0	0xbd546d34	-0.051861957
1	0x3dbfc3b4	0.09363499
2	0xbd16c22b	-0.036806267
3	0xbd7c6a39	-0.06162474
4	0xbd0ce0c2	-0.034394033
5	0x3cb43b2d	0.022000873
6	0xbdd0c7de	-0.10194372
7	0x3d9b2eb3	0.075772665
8	0x3d0dfd48	0.034665376
9	0x3d769879	0.060204003
10	0x3dc56ba3	0.09639671
11	0x3d86a757	0.06574886
12	0x3d7fdeaf	0.062468227
13	0xbd89bef0	-0.067258716
14	0xbd5c9b1b	-0.053858858
15	0xbdb8d9af	-0.09025895
16	0x3d1a30c5	0.037644166
17	0xbd0d59be	-0.034509413
18	0xbced7128	-0.028984621
19	0x3d0f3cc7	0.03497007
20	0x3d935d1c	0.071954936
21	0xbc344552	-0.011002855
22	0xbb84eb7b	-0.004056392
23	0x3c189f27	0.009315289
24	0x3c6aa62f	0.014321848
25	0xbdd49a40	-0.10380983
26	0x3dff2f94	0.12460247
27	0xbc8b5587	-0.017008556
28	0x3dac9a86	0.084279105
29	0x3d186fd9	0.03721604
30	0x3de0f8be	0.10984944
31	0x3c9f98eb	0.019482097
32	0xbd271cc9	-0.040798936
33	0xbd20b968	-0.039239317
34	0x3dc7424c	0.09729442
35	0x3be91c94	0.0071140025
36	0xbd3d8e46	-0.04627826
37	0xbcff6315	-0.031175176
38	0x3c0fe318	0.008782171
39	0x3db332a5	0.08749894
40	0x3d439a0e	0.04775434
41	0x3dd74586	0.105113074
42	0xbd793585	-0.060842056
43	0x3dad4697	0.084607296
44	0xbdf6f443	-0.12058308
45	0x3c82307e	0.015892264
46	0x3db7fcae	0.08983742
47	0x3d384969	0.044991884
48	0xbcce42e8	-0.025178388
49	0x3cb9cc73	0.022680497
50	0xbd217330	-0.039416492
51	0xbd1e1498	-0.03859386
52	0xbdba6fb7	-0.09103339
53	0x3b660a98	0.003510153
54	0x3de25ff4	0.11053458
55	0x3d0aeac0	0.03391528
56	0xbdaeb868	-0.085312665
57	0xbdd7c85c	-0.105362624
58	0xbc911f33	-0.017715072
59	0x3dc03391	0.093848355
60	0x3d1d78b5	0.038445193
61	0x3d8c3fac	0.06848082
62	0x3c6ee392	0.014580624
63	0xbdcd1b1c	-0.10014936
64	0x3d9f8946	0.07789855
65	0xbc9a8fe7	-0.018867446
66	0xbd98bbeb	-0.074577175
67	0xbdf448a3	-0.11927917
68	0xbdb4809d	-0.088135935
69	0x3e06c0ca	0.1315948
70	0xbd11d5cf	-0.035604294
71	0xbdaf9798	-0.08573836
72	0x3d077172	0.033067174
73	0x3cb291c7	0.021798028
74	0x3d58f455	0.05296739
75	0xbd6a883d	-0.057258833
76	0x3da136e5	0.078717984
77	0x3d34c254	0.04413064
78	0xbd5066a9	-0.050879154
79	0xbbadc87b	-0.00530344
80	0xbd16cb38	-0.0368149
81	0xbd986e4d	-0.07442913
82	0xbd918290	-0.07104981
83	0xbd9f4bbe	-0.077781186
84	0x3d1404af	0.03613728
85	0xbdef668b	-0.116894804
86	0x3c9d94e0	0.019236028
87	0x3d6f0e10	0.05836302
88	0xbda1fa64	-0.07909086
89	0x3d308390	0.043094218
90	0x3df09298	0.117467105
91	0x3cdca381	0.026933433
92	0x3d33f539	0.043935034
93	0xbde4304b	-0.11142024
94	0xbdf4f56f	-0.11960875
95	0xb8b6222c	-8.684801e-05
96	0xbce12493	-0.02748326
97	0x3e19d219	0.15021552
98	0x3d63f9d2	0.05565817
99	0x3d4e9fa3	0.05044521
100	0xbd00af46	-0.031417154
101	0x3d9a0980	0.07521343
102	0x3d8b3cb5	0.06798688
103	0xbd8fbbbe	-0.07018231
104	0xbdda416d	-0.1065701
105	0x3cbb3b21	0.022855343
106	0xbd40d317	-0.04707631
107	0xbdc19959	-0.09453077
108	0x3d82c9dd	0.063861586
109	0xbd831965	-0.06401328
110	0x3d5ede19	0.054411028
111	0xbd56feec	-0.052489206
112	0x3d6a856d	0.05725615
113	0x3d755441	0.059894804
114	0x3d46bd41	0.04852033
115	0xbdcd1f0c	-0.10015687
116	0x3db22572	0.086985484
117	0x3d6183f7	0.055057492
118	0xbdc703d8	-0.0971753
119	0x3d5eacb1	0.05436391
120	0xbd3ed765	-0.046592135
121	0xbd8096ad	-0.06278739
122	0xbcafc102	-0.021454338
123	0x3e1a9100	0.15094376
124	0x3d646b98	0.055766672
125	0x3c2c081b	0.010499979
126	0xbbef0e98	-0.007295441
127	0xbdadfb62	-0.08495213

net.6.weight f4 [64, 128]
0	0xbd56fafb	-0.052485447
1	0x3c820737	0.01587258
2	0x3d490c02	0.049083717
3	0x3d5028ac	0.050820038
4	0xbd54b465	-0.05192985
5	0x3c26872b	0.0101640625
6	0xbbde9972	-0.0067931945
7	0xbd4dfcd3	-0.05028994
8	0xbd616f61	-0.05503786
9	0xbbc3133a	-0.0059532197
10	0x3d0ccf8a	0.034377612
11	0xbcee810c	-0.029114269
12	0x3cd23dc1	0.025664212
13	0xbd106a98	-0.035257906
14	0xbd4f6487	-0.05063298
15	0xbd709438	-0.058735102
16	0xbd7c8562	-0.06165064
17	0xbb3f44c0	-0.0029185265
18	0xbc9ec895	-0.019382754
19	0xbc9ddd7b	-0.01927065
20	0xbc3a398b	-0.011366258
21	0x3d08c0ba	0.033386923
22	0xbc9c27de	-0.019061979
23	0xbda21e47	-0.07915931
24	0xbc4f4648	-0.012651034
25	0x3c009203	0.007847312
26	0x3d32fa18	0.04369554
27	0x3c9e9230	0.019356817
28	0xbc1ab63d	-0.009442863
29	0x3d50ffce	0.051025204
30	0x3de78bd3	0.11305966
31	0xbcac09bf	-0.021000741
32	0xbd10740a	-0.035266913
33	0x3d086e0e	0.03330808
34	0x3c9385e6	0.018008184
35	0x3cfb80b0	0.030701011
36	0xbdd90baa	-0.10597928
37	0x3d831a88	0.06401545
38	0xbda858f0	-0.082200885
39	0x3d96db05	0.073659934
40	0xbd0f3df4	-0.034971192
41	0x3dcf01e8	0.101077855
42	0x3d475c15	0.0486718
43	0xbd0c0c47	-0.034191396
44	0xbc07b1a9	-0.008282104
45	0xbdb1da41	-0.08684207
46	0xbe0eb21e	-0.13935134
47	0xbcf9f086	-0.030510198
48	0xbd7d4461	-0.06183279
49	0xbd4dfabf	-0.05028796
50	0xbd1a55c6	-0.037679456
51	0xbd23ad96	-0.039960466
52	0x3c7e0844	0.0155049
53	0xbd4361dc	-0.047700748
54	0xbc583aae	-0.013197584
55	0x3da3022d	0.07959399
56	0x3af05629	0.0018336225
57	0xba7440d6	-0.00093175226
58	0xbcfb1697	-0.03065042
59	0x3da7811e	0.08178924
60	0x3d6fa31b	0.05850516
61	0x3cfc1082	0.03076959
62	0xbcc0955c	-0.02350872
63	0x3d8381e7	0.06421261
64	0xbda94341	-0.08264781
65	0xbbe75570	-0.0070597455
66	0xbd85b0dd	-0.065278746
67	0x3d41b1f5	0.047288854
68	0xbd871b27	-0.06596976
69	0x3dbfc3fc	0.09363553
70	0xbd095016	-0.03352364
71	0x3d5f7efe	0.05456447
72	0xbd3e8c90	-0.04652077
73	0x3cce3c16	0.025175136
74	0x3dc8e02f	0.098083846
75	0x3cdc50b3	0.02689395
76	0x3d3a4220	0.045473218
77	0xbc7da51d	-0.015481261
78	0xbdefd737	-0.11710971
79	0x3be57a95	0.0070031383
80	0x3d5d3b71	0.054011766
81	0x3d571605	0.052511234
82	0xbccb7aff	-0.024838923
83	0xbcf1ddab	-0.029524645
84	0x3d791037	0.06080648
85	0xbc862f99	-0.016380118
86	0xbd567325	-0.052355904
87	0xbd85673b	-0.0651383
88	0xbddb77d4	-0.10716215
89	0x3d57b867	0.052666094
90	0x3d056d7b	0.03257511
91	0x3df74269	0.120732136
92	0x3d8a923e	0.06766175
93	0x3dabd331	0.08389891
94	0xbd938ce1	-0.07204605
95	0xbd5d9922	-0.054101117
96	0xbd40a58a	-0.04703287
97	0xbc9936da	-0.018702913
98	0x3dc09bf8	0.09404749
99	0xbd972fe8	-0.07382184
100	0x3c257bc4	0.010100309
101	0x3d68867f	0.05676889
102	0xbdd997dd	-0.10624669
103	0xbcc1a16b	-0.02363654
104	0x3c834be6	0.016027402
105	0xbe156039	-0.14587487
106	0x3d9c7b61	0.0764072
107	0x3c68367f	0.014173149
108	0x3d025967	0.031823542
109	0xbd77453c	-0.06036876
110	0x3d7717e3	0.060325515
111	0xbcfacfa9	-0.030616598
112	0x3d8488e8	0.06471425
113	0x3cd26228	0.02568157
114	0xbc73bee9	-0.0148770595
115	0x3d100de0	0.035169482
116	0xbd566078	-0.052338094
117	0xbd7082d7	-0.05871853
118	0x3d2d539c	0.042316064
119	0x3d8ff2ca	0.0702873
120	0x3d501de7	0.050809767
121	0x3d7c53ac	0.061603233
122	0xbccddddf	-0.02513021
123	0x3ca6bda3	0.020354098
124	0x3d108f3d	0.035292853
125	0x3c8b9815	0.017040292
126	0x3dda1b37	0.10649722
127	0xbd83c598	-0.064341724
128	0x3d16d289	0.036821876
129	0x3d157fa6	0.03649869
130	0xbce7584d	-0.028240347
131	0xbcfc4749	-0.03079571
132	0xbdd1f09c	-0.10250971
133	0x3d79ae3c	0.06095718
134	0x3d83d302	0.06436731
135	0xba833d92	-0.0010012856
136	0x3d334c4a	0.043773927
137	0xbd005c4a	-0.031338014
138	0x3a4573ee	0.00075322285
139	0x3dbe1401	0.09281159
140	0x3d83a0ce	0.064271554
141	0x3d585876	0.052818738
142	0x3cf46201	0.029831888
143	0x3c800144	0.015625603
144	0xbd175628	-0.0369474
145	0x3bc403bc	0.0059818905
146	0x3d52b7b4	0.051444724
147	0xbcea9f0d	-0.028640294
148	0x3db53e23	0.08849742
149	0xbded0843	-0.115738414
150	0xbda456ab	-0.08024343
151	0xbc88fedd	-0.01672309
152	0xbd867491	-0.06565202
153	0x3ce4e9a3	0.027943438
154	0x3d1ea83f	0.03873467
155	0xbd8bb9cc	-0.06822547
156	0xbc0d8c59	-0.0086394185
157	0x3b2de3b7	0.0026533434
158	0x3dd58846	0.10426383
159	0xbcce7f74	-0.025207259
160	0x3d1bd9d8	0.03804955
161	0x3dc6b498	0.09702414
162	0x3c9ae9ca	0.018910307
163	0x3d682d69	0.05668393
164	0xbcc8425f	-0.02444571
165	0xbd866a1e	-0.06563209
166	0x3c34d2b5	0.011036565
167	0x3bf0d70e	0.0073498553
168	0xbcc4c7e5	-0.024021098
169	0xbdce6eb0	-0.10079706
170	0xbdaa6863	-0.083206914
171	0xbdff66e5	-0.124707974
172	0xbc8d0828	-0.017215803
173	0x3c80a377	0.015702946
174	0x3d0337ec	0.032035753
175	0xbc72b32a	-0.014813224
176	0xbdbed913	-0.09318747
177	0x3c95ab9c	0.018270306
178	0x3d6deeb3	0.05808897
179	0x3d9a43ce	0.07532464
180	0xbd8c4a98	-0.06850165
181	0x3c9ab960	0.018887222
182	0x3d01b2bb	0.03166459
183	0xb9823a80	-0.00024839118
184	0xbd172bfe	-0.03690719
185	0xbd8dcd33	-0.06923904
186	0xbd596871	-0.05307812
187	0xbd9ded7f	-0.077113144
188	0xbce0569f	-0.027385054
189	0x3cc36769	0.02385302
190	0xbc761ae5	-0.015021061
191	0xbba38035	-0.0049896487
192	0x3d8db031	0.069183715
193	0xbe10fb37	-0.14158331
194	0xbc1b485b	-0.0094777
195	0xbcd3ebbb	-0.025869241
196	0x3d12a479	0.035801385
197	0xbc606df1	-0.013698087
198	0x3dae8a16	0.085224316
199	0xbde18214	-0.110111386
200	0x3d88430b	0.066534124
201	0xbdddf633	-0.108379744
202	0x3dbea363	0.09308507
203	0xbd6aaa44	-0.057291284
204	0xbd843bb8	-0.06456703
205	0x3dd2f959	0.103014655
206	0xbca982d3	-0.020692265
207	0x3d7e9705	0.062155742
208	0xbde0db75	-0.10979358
209	0x3c66a02f	0.014076277
210	0x3d45e2fd	0.048312176
211	0x3da3b0aa	0.0799268
212	0xbc7777c0	-0.015104234
213	0xbc49f265	-0.012325858
214	0x3c9a2169	0.01881476
215	0xbcef1dd6	-0.029189032
216	0x3caa7fb1	0.020812841
217	0xbc552d30	-0.013011262
218	0x3df882f8	0.12134355
219	0xbdd117fe	-0.10209654
220	0x3d99a0e9	0.07501394
221	0xbd20400b	-0.039123576
222	0x3c06c53f	0.008225738
223	0xbd974cec	-0.073877186
224	0x3de9e9e0	0.11421561
225	0xbdf0969a	-0.11747475
226	0x3d98de5d	0.074642874
227	0xbd402a2f	-0.04691523
228	0xbdabe041	-0.083923824
229	0xbd2bfbd0	-0.041988194
230	0x3de85930	0.11345136
231	0x3d8ea09e	0.06964229
232	0x3be9faa5	0.007140475
233	0x3c9f4a53	0.01944462
234	0x3c932c87	0.017965568
235	0x3daa42bb	0.08313509
236	0xbdf10a12	-0.11769499
237	0xbd2c5284	-0.04207088
238	0xbc274aa4	-0.010210667
239	0xbd236260	-0.03988874
240	0xbd6cb8c5	-0.057793397
241	0x3d61107a	0.054947354
242	0xbc808a14	-0.01569084
243	0x3d781f07	0.060576465
244	0x3db9077d	0.090346314
245	0x3d91b41c	0.07114431
246	0x3d6eb370	0.058276594
247	0xbc770473	-0.015076744
248	0x3dcbfbf6	0.09960167
249	0x3d50ed6c	0.051007673
250	0xbd5e1b9e	-0.054225557
251	0xbd2faa74	-0.042887166
252	0xbdcc5039	-0.09976239
253	0x3949fcd8	0.00019263045
254	0x3d0a4fd5	0.03376754
255	0x3d6e4169	0.05816785

net.6.bias f4 [64]
0	0x3dc44b6e	0.095846996
1	0x3c9ad6c7	0.018901242
2	0xbd12a7c2	-0.035804518
3	0xbca99e0c	-0.020705245
4	0xbcc1fc1f	-0.023679791
5	0x3d83adad	0.064296104
6	0xbd81dd42	-0.0634103
7	0xbb354148	-0.002765732
8	0xbd78f2bd	-0.06077837
9	0x3d7a55a0	0.061116815
10	0x3de28f9f	0.1106255
11	0x3ccf547d	0.025308842
12	0x3dab8029	0.08374054
13	0x3d4bf758	0.049796432
14	0x3c302804	0.010751728
15	0x3d12bca1	0.03582442
16	0xbc06c7d2	-0.008226352
17	0x3d95823e	0.07300232
18	0x3d438767	0.04773655
19	0x3cefcc49	0.029272215
20	0xbd067f73	-0.03283639
21	0xbd43f96e	-0.047845297
22	0xbd8f8cad	-0.07009254
23	0x3d2a4164	0.041566268
24	0x3d34a3c9	0.04410151
25	0x3db93c13	0.090446614
26	0x3da3cfc4	0.079986125
27	0x3c07b7a2	0.008283528
28	0x3d2c2d01	0.042035107
29	0x3d9cc3ff	0.07654571
30	0x3d491760	0.049094558
31	0x3bf81305	0.0075706267
32	0xbd45f7fa	-0.048332192
33	0xbb8ff6b7	-0.0043934244
34	0x3d70d910	0.058800757
35	0xbbf69291	-0.0075247963
36	0x3dccf30a	0.100072935
37	0xbd10a00d	-0.035308886
38	0x3bb9d991	0.005671688
39	0x3d128c94	0.035778597
40	0x3dacef32	0.084440604
41	0x3dfde9e6	0.12398128
42	0xbc9e4953	-0.019322073
43	0xbc8051a4	-0.01566393
44	0xbdc7465c	-0.09730217
45	0x3cf4bbe2	0.029874746
46	0xbcbc68dc	-0.02299922
47	0x3dc17fb4	0.094481856
48	0x3d9ba0ef	0.07599055
49	0xbd798704	-0.060919777
50	0x3c72517a	0.014789933
51	0xbcd56314	-0.02604822
52	0x3dc9ee1f	0.09859871
53	0x3d15add8	0.036542743
54	0x3d8aac13	0.06771102
55	0xbd06244f	-0.03274947
56	0x3d4fa7e4	0.050697222
57	0x3caafa5f	0.02087134
58	0x3d3861fe	0.045015328
59	0x3d5b2ec7	0.053511407
60	0x3ca5d26c	0.020241939
61	0x3d87f57e	0.06638621
62	0xbd403eed	-0.04693501
63	0x3c05e237	0.00817161

net.9.weight f4 [4, 64]
0	0xbdbe5af7	-0.09294694
1	0xbdf307a7	-0.11866694
2	0xbd4b774d	-0.04967432
3	0xbdc8dd32	-0.09807815
4	0xbcea845f	-0.028627573
5	0xbcd6f547	-0.026240004
6	0x3dbee4b5	0.09320966
7	0x3d77c0b1	0.0604865
8	0x3acff0c3	0.0015864599
9	0x3d8f7df7	0.07006448
10	0xbdab980e	-0.083786115
11	0x3d964d32	0.073389426
12	0x3dd124eb	0.1021212
13	0xbd7c6556	-0.06162008
14	0xbd0b04e2	-0.033940203
15	0x3ca6b6eb	0.020350894
16	0x3d6693a9	0.056293163
17	0xbddd416d	-0.108034946
18	0xbdc33a94	-0.09532657
19	0xbd63f5d4	-0.05565436
20	0x3da1b883	0.07896521
21	0xbde6ede0	-0.1127584
22	0xba8c6c74	-0.0010713474
23	0xbdfcb5bc	-0.123393506
24	0xbdd5719f	-0.10422062
25	0xbe0901b9	-0.13379563
26	0x3ccca3d0	0.024980456
27	0xba7a0916	-0.0009538097
28	0xbdd37c24	-0.10326412
29	0xbd51b9aa	-0.051202454
30	0x3d83d8a1	0.06437803
31	0x3d8cacd6	0.06868903
32	0xbd44c2e5	-0.04803743
33	0xbd36d50d	-0.044636775
34	0x3b075283	0.0020648546
35	0xbd38c32b	-0.045108
36	0xbbc783ee	-0.0060887253
37	0x3c2d84b1	0.010590718
38	0x3d9a43e4	0.0753248
39	0x3de2331f	0.11044907
40	0xbe126b64	-0.14298779
41	0x3dc4ce6a	0.09609683
42	0x3dfd42ca	0.12366255
43	0xbd8def96	-0.06930463
44	0xbc9d438f	-0.019197254
45	0x3ddb5e8c	0.10711393
46	0x3d630898	0.055428118
47	0xbd8defc2	-0.06930496
48	0xbc82a970	-0.015949935
49	0x3ddda10b	0.10821732
50	0xbdf52334	-0.11969605
51	0x3cfde55c	0.030993156
52	0x3d5b0fb5	0.053481776
53	0xbd0cd8fc	-0.03438662
54	0xbd4a9b85	-0.04946472
55	0x3c5e2eeb	0.013560991
56	0xbd652118	-0.055939764
57	0x3d311786	0.043235324
58	0xbda843d8	-0.08216065
59	0x3db08753	0.08619561
60	0x3d43c30d	0.047793437
61	0x3b04181a	0.0020155967
62	0x3b995311	0.0046790917
63	0xbe3465ce	-0.1761696
64	0x3a91e49b	0.0011130752
65	0xbd99f384	-0.0751715
66	0xbd5f31b2	-0.054490753
67	0xbda1c5f2	-0.07899083
68	0xbcde8f14	-0.027167834
69	0xbd1831e8	-0.03715697
70	0xbd2f6cc0	-0.04282832
71	0x3def14ca	0.11673887
72	0xbce330d4	-0.027733244
73	0x3db2c675	0.08729259
74	0xbbfed290	-0.007776566
75	0x3d8205d3	0.06348767
76	0x3e0a58ab	0.13510387
77	0xbd03d46b	-0.032185
78	0xbd3eeba6	-0.04661145
79	0x3d630038	0.05542013
80	0x3dedc34a	0.11609514
81	0xbdd2100a	-0.102569655
82	0xbd8d2584	-0.06891921
83	0xbdfc1d50	-0.123102784
84	0x3d9dfafd	0.07713888
85	0xbd7e27e5	-0.062049765
86	0x3d93f0e2	0.07223679
87	0xbcf82329	-0.030290203
88	0xbd7b56ca	-0.061362065
89	0xbced0641	-0.028933646
90	0x3d6261d1	0.055269066
91	0x3dee5734	0.116377264
92	0xbd266251	-0.040621106
93	0xbd85a04f	-0.06524717
94	0x3dc75569	0.097330876
95	0x3d5c346e	0.05376094
96	0xbd9fb7be	-0.07798718
97	0xbc2683be	-0.010163246
98	0xbd1cf68e	-0.03832107
99	0xbb19f7a9	-0.0023493564
100	0xbd80f193	-0.062960766
101	0xbd978772	-0.07398881
102	0x3df889b5	0.121356405
103	0x3dbde83b	0.0927281
104	0xbde405b8	-0.11133903
105	0x3d685ff4	0.056732133
106	0x3dddfb0e	0.108389005
107	0xbcfa33fa	-0.030542362
108	0xbd3ff1e7	-0.046861555
109	0x3d97ce5f	0.07412409
110	0x3db5e243	0.088810466
111	0x3af367f8	0.0018570414
112	0xbdc7dc35	-0.09758798
113	0x3d76b7ac	0.060233757
114	0xbdd87747	-0.10569625
115	0xbd8c0684	-0.0683718
116	0x3de2606f	0.110535495
117	0xbd8d30a4	-0.06894043
118	0xbd87e9e1	-0.06636406
119	0xbd961063	-0.07327344
120	0xbdb8239e	-0.089911684
121	0xbd5cd58f	-0.053914603
122	0xbd257658	-0.040396065
123	0x3de128fb	0.109941445
124	0xbd7cf8f2	-0.06176085
125	0xbd1f8973	-0.03894944
126	0xbcd6260e	-0.026141193
127	0xbdeb8459	-0.11499853
128	0x3e192185	0.14954193
129	0xbded2f4f	-0.11581289
130	0x3d5eecfd	0.05442523
131	0x3df82d02	0.121179596
132	0x3d75b894	0.05999048
133	0xbdfb1b39	-0.12261052
134	0xbd941851	-0.072312005
135	0xbc9eae9f	-0.019370375
136	0xbd4c9387	-0.04994538
137	0xba147620	-0.0005663354
138	0xbd802a0d	-0.062580206
139	0xbdd230e2	-0.1026323
140	0xbd20b3f3	-0.039234113
141	0x3ddb44bc	0.107064694
142	0x3df495ba	0.119426206
143	0xbdee90e6	-0.11648731
144	0x3ce2851a	0.027651358
145	0xbcfe2acb	-0.031026265
146	0xbc89a50a	-0.01680233
147	0xbc4dc1f3	-0.012558448
148	0x3dd37d76	0.10326664
149	0xbd9e9d44	-0.0774484
150	0xbd2eab1c	-0.04264365
151	0xbca73f43	-0.020415908
152	0xbd289cc0	-0.041165113
153	0x3dc517be	0.09623669
154	0xbd855194	-0.065097004
155	0xbe2f378c	-0.17111033
156	0xbdc60dd7	-0.096706085
157	0x3ded725f	0.1159408
158	0xbca28e81	-0.019843342
159	0x3dd95ed2	0.10613789
160	0x3d546c1a	0.051860906
161	0xbd0f8f89	-0.035048995
162	0x3d4b588f	0.049645003
163	0xbdb1e576	-0.08686344
164	0x3ba337cd	0.004981017
165	0xbdd1980f	-0.10234081
166	0xbda15f30	-0.07879484
167	0x3cab0f1e	0.020881232
168	0x3d84551d	0.064615466
169	0x3da5d900	0.0809803
170	0xbd4c49a7	-0.049874928
171	0xbdeaaa9a	-0.11458321
172	0xbcfadcd7	-0.030622883
173	0xbd0aac56	-0.03385576
174	0xbd074383	-0.03302337
175	0x3dea4fab	0.11440977
176	0x3db9ed3c	0.09078452
177	0xbdbd1885	-0.09233192
178	0x3ceeec8f	0.029165534
179	0xbdc5af2e	-0.096525535
180	0x3d5bd581	0.05367041
181	0xbda9fb7e	-0.082999215
182	0xbdcfdfee	-0.10150133
183	0xbd16a235	-0.036775786
184	0xbde6fbf5	-0.11278526
185	0xbc9d2681	-0.0191834
186	0x3dfbf81f	0.12303185
187	0xbd2a9b50	-0.041652024
188	0x3e0dda48	0.13852799
189	0x3adf7d1a	0.0017050833
190	0xbdd22d32	-0.102625266
191	0xbdb6afb1	-0.08920229
192	0xbc31d000	-0.010852814
193	0xbdda93c1	-0.10672713
194	0x3de1b4bf	0.11020803
195	0x3d547599	0.051869962
196	0x3dc1e419	0.09467334
197	0xbdbd0b11	-0.092306264
198	0xbdae2bf0	-0.08504474
199	0x3cc13542	0.023584966
200	0x3df612f1	0.120153315
201	0x3dacbf85	0.08434967
202	0xbdfe58e1	-0.12419296
203	0x3d0d6437	0.0345194
204	0x3cc87c6d	0.024473393
205	0x3e0d32b4	0.13788873
206	0x3d838e19	0.06423587
207	0xbde26257	-0.11053913
208	0xbd8362ce	-0.0641533
209	0xbc9add9c	-0.0189045
210	0x3c1bb52d	0.009503645
211	0x3d8b01db	0.06787463
212	0x3ba238e7	0.004950631
213	0xbcbf02eb	-0.023316821
214	0x3bfa5d19	0.0076404926
215	0x3e1937b7	0.1496266
216	0xbce9e17f	-0.028549908
217	0x3dbf82cd	0.0935112
218	0xbdaa6062	-0.08319165
219	0xbd4201bb	-0.04736493
220	0xbd924da8	-0.07143718
221	0xbd7cbf2c	-0.061705753
222	0xbd24c476	-0.040226422
223	0xbd3a4ccc	-0.045483395
224	0x3dc7c7d7	0.09754913
225	0x3e1b1a9b	0.15146868
226	0x3e1c5717	0.15267597
227	0xbd83da78	-0.06438154
228	0x3e2675b0	0.16255832
229	0xbd47ff20	-0.04882729
230	0xbd8c107f	-0.06839084
231	0xbd5d601a	-0.054046728
232	0xbd19d998	-0.03756103
233	0xbdaa414c	-0.08313236
234	0xbb903553	-0.004400888
235	0xbd562b8e	-0.05228763
236	0x3daf59b9	0.08562035
237	0xbda33311	-0.079687245
238	0xbd6c5d90	-0.057706416
239	0x3deb4b5d	0.11488984
240	0x3d42f987	0.04760125
241	0x3d1a3ded	0.037656713
242	0xbd25ecfd	-0.040509213
243	0xbdf4638a	-0.11933048
244	0xbdf22db7	-0.11825126
245	0xbdf7e42e	-0.12104069
246	0xbde82ca8	-0.113366425
247	0xbd10b5ec	-0.035329744
248	0xbde8a22d	-0.113590576
249	0xbde015cc	-0.109416574
250	0x3daac9c8	0.08339268
251	0xbbb7b667	-0.005606461
252	0x3e2b1088	0.16705525
253	0x3e1d6168	0.15369189
254	0xbd75ca5c	-0.060007438
255	0x3d201aa5	0.03908791

net.9.bias f4 [4]
0	0x3d778d74	0.060437635
1	0xbd64607e	-0.055756085
2	0x3cc0cf9c	0.023536496
3	0x3c8e616f	0.017380444
