models/surrogate_latest.pt (torch, 84621 bytes, 8 tensors)

net.0.weight f4 [64, 54]
0.027983706 -0.07582015 -0.09476346 0.027844021 0.053308573 0.09896 0.06728797 -0.018003194
0.10181362 -0.12062015 0.10094793 0.059903767 -0.047995504 0.06663709 0.10219662 -0.055757143
-0.08109912 -0.017665239 -0.1624313 0.05000863 0.040425695 0.02053426 0.13063042 0.03342645
0.085424095 -0.04472488 0.012476459 0.05481763 -0.024806531 0.14655457 0.007483783 0.090781756
0.06439321 -0.005845979 0.090144455 -0.04430498 -0.07352287 -0.18683313 0.08589679 0.04096066
-0.02466099 -0.06563274 -0.03709477 -0.043453153 -0.048917413 -0.14441492 0.030408219 -0.050766334
0.09356463 -0.101328686 -0.047471143 0.17664196 -0.12893967 -0.054121535 0.10371131 0.18832904
0.06639917 -0.04931228 -0.092765726 -0.038766857 0.06507983 0.05759858 -0.030106923 0.022887155
-0.022414327 0.0569551 -0.08153355 -0.056553114 0.036008388 -0.025925547 -0.04088073 0.15477405
-0.044418726 -0.039231706 -0.021591417 -0.09911285 0.069362335 0.12464249 0.068737864 0.07320838
0.096494794 -0.10864252 -0.005201234 -0.084670745 -0.06790946 0.12027048 -0.028071642 0.081254095
-0.030950926 -0.071642615 -0.0721059 -0.029617026 0.11444288 -0.01190473 0.0034281015 -0.060675085
-0.076122604 -0.053762414 -0.060338043 -0.11943841 -0.08203518 -0.047371008 -0.06321156 -0.04574389
0.016793475 -0.026133176 0.124846414 -0.042198204 0.035843212 0.023826886 0.10703931 0.055176698
0.118194655 0.1620194 0.13335642 0.0067873695 0.1706004 0.0701163 0.09898634 -0.061046854
0.13441935 -0.05351138 -0.044762194 -0.15458934 -0.027617224 0.05158386 0.17797875 0.09551437
-0.070475966 0.09666811 -0.014529487 -0.001307115 0.056981534 -0.05765108 -0.0737398 -0.12265058
0.032789692 -0.09919082 0.10537546 -0.13648672 0.095712095 -0.064128265 -0.061429746 -0.028281331
-0.08505553 -0.10784773 -0.05521033 0.04807204 -0.12557751 0.06035921 -0.10561483 -0.050988194
0.08588223 0.051795024 -0.12976745 -0.03627283 -0.1342748 -0.015273944 0.054568306 0.10182218
-0.03673961 0.0290561 0.009125318 -0.004839168 -0.065799735 -0.15400358 0.11804005 -0.019986777
-0.045378394 0.038990036 0.07912486 0.0013624132 -0.05345694 0.025743796 0.104553245 0.07088044
0.049740627 0.14214957 0.11653485 -0.08197492 0.0040337485 0.1443599 -0.028547334 -0.0061472785
-0.032222856 0.06499866 -0.082093135 -0.10056698 0.10571684 -0.065674774 0.1294382 0.0258546
0.04379107 -0.07560468 -0.12809034 -0.07375926 -0.05214639 -0.13157669 -0.10469073 0.00062965765
0.1363712 0.117800996 0.10969713 -0.087882474 0.058047414 -0.06642869 0.0131123625 -0.031772953
0.17095491 0.11458116 -0.1333373 -0.09820582 -0.024361655 -0.0077664685 -0.03002047 0.08652174
-0.062805526 -0.04138588 -0.10643207 -0.0027456477 -0.023010772 0.008772238 -0.18168446 0.12260855
-0.20839053 0.05307181 0.0073225796 0.034235865 -0.024414767 0.072198115 0.068061456 -0.026151756
-0.13849024 -0.04040759 -0.055963084 0.027073478 -0.1199399 -0.01729495 0.07817415 -0.13114008
-0.07240822 0.03502761 0.07156527 -0.12525384 0.01247006 -0.013755307 -0.05434967 0.062217038
0.05952862 -0.06301426 -0.05150541 0.016516045 -0.13157547 -0.08628873 -0.20418015 0.06718597
00000000: 163e e53c 9847 9bbd 5813 c2bd 2519 e43c
00000010: 175a 5a3d 8aab ca3d 46ce 893d 6f7b 93bc
00000020: a983 d03d b207 f7bd cabd ce3d a75d 753d
00000030: ef96 44bd 0779 883d 764c d13d 9a61 64bd
00000040: 4c17 a6bd b1b6 90bc 6454 26be d9d5 4c3d
00000050: 6a95 253d 7737 a83c fbc3 053e 2cea 083d
00000060: d4f2 ae3d 7031 37bd 106a 4c3c 7488 603d
00000070: 1137 cbbc 6712 163e 863a f53b c9eb b93d
00000080: 96e0 833d a08f bfbb a89d b83d 2479 35bd
00000090: 2993 96bd 2f51 3fbe a8ea af3d 5dc6 273d
000000a0: d805 cabc 756a 86bd b0f0 17bd effb 31bd
000000b0: a05d 48bd 81e1 13be a81a f93c 5cf0 4fbd
000000c0: d09e bf3d 6a85 cfbd 1a71 42bd a1e1 343e
000000d0: c308 04be 8bae 5dbd 9866 d43d 54d9 403e
000000e0: 4afc 873d acfb 49bd f5fb bdbd ffc9 1ebd
000000f0: 9348 853d 7dec 6b3d cba2 f6bc d87d bb3c
00000100: 409e b7bc c049 693d 10fb a6bd 3da4 67bd
00000110: 887d 133d d061 d4bc 8d72 27bd 177d 1e3e
00000120: 69f0 35bd 6db1 20bd 7ce0 b0bc aefb cabd
00000130: d70d 8e3d 9044 ff3d 70c6 8c3d 46ee 953d
00000140: 109f c53d f87f debd 1d6f aabb db67 adbd
00000150: 1d14 8bbd 5f50 f63d 80f6 e5bc 8c68 a63d
00000160: cc8c fdbc 5db9 92bd 42ac 93bd 689f f2bc
00000170: 0761 ea3d 0f0c 43bc 00aa 603b 7086 78bd
00000180: 2be6 9bbd fa35 5cbd 0625 77bd 209c f4bd
00000190: 0f02 a8bd 1a08 42bd 1075 81bd f25d 3bbd
000001a0: 7892 893c 3e15 d6bc 7aaf ff3d 06d8 2cbd
000001b0: 55d0 123d 9a30 c33c 6d37 db3d f600 623d
000001c0: 0a10 f23d 6ae8 253e 968e 083e 9568 de3b
000001d0: dfb1 2e3e 2299 8f3d 5ab9 ca3d 440c 7abd
000001e0: 3aa5 093e c02e 5bbd 9058 37bd ab4c 1ebe
000001f0: 843d e2bc 9949 533d 1040 363e 0a9d c33d
00000200: b455 90bd eef9 c53d 160d 6ebc 8053 abba
00000210: 7865 693d 8a23 6cbd e404 97bd 3a30 fbbd
00000220: 7c4e 063d 8e24 cbbd 17cf d73d 2dc3 0bbe
00000230: b404 c43d ae55 83bd c29d 7bbd 40ae e7bc
00000240: 9831 aebd 45df dcbd 3a24 62bd 30e7 443d
00000250: 6497 00be 383b 773d 974c d8bd ffd8 50bd
00000260: 06e3 af3d 0527 543d c2e1 04be d292 14bd
00000270: 557f 09be 903f 7abc 0483 5f3d 2688 d03d
00000280: 467c 16bd 0f07 ee3c 5c82 153c e291 9ebb
00000290: 03c2 86bd 1db3 1dbe fbbe f13d 4fbb a3bc
000002a0: b2de 39bd 04b4 1f3d 370c a23d 0093 b23a
000002b0: aaf5 5abd a7e4 d23c 0320 d63d c429 913d
000002c0: d4bc 4b3d a88f 113e d3a9 ee3d 78e2 a7bd
000002d0: 892d 843b 15d3 133e 19dc e9bc 1c6f c9bb
000002e0: 1dfc 03bd 041e 853d 7220 a8bd 10f6 cdbd
000002f0: 1282 d83d 7f80 86bd 738b 043e 07cd d33c
00000300: 445e 333d a0d6 9abd 1d2a 03be 180f 97bd
00000310: 7497 55bd 0abc 06be 1868 d6bd 9c0f 253a
00000320: e4a4 0b3e a641 f13d e4a8 e03d bafb b3bd
00000330: 20c3 6d3d c40b 88bd 3cd5 563c 5b24 02bd
00000340: ce0e 2f3e 87a9 ea3d 9389 08be 2220 c9bd
00000350: 1892 c7bc dc7d febb 7ded f5bc 4f32 b13d
00000360: 2fa0 80bd 3e84 29bd 0ff9 d9bd 53f0 33bb
00000370: 1681 bcbc 6fb9 0f3c 7e0b 3abe 311a fb3d
00000380: 5464 55be d461 593d 40f2 ef3b e83a 0c3d
00000390: 7a01 c8bc 9bdc 933d ce63 8b3d 353c d6bc
000003a0: 63d0 0dbe 6e82 25bd 8c39 65bd 33c9 dd3c
000003b0: 0da3 f5bd 24ae 8dbc c519 a03d 9649 06be
000003c0: c34a 94bd 1c79 0f3d d090 923d 8b42 00be
000003d0: 394f 4c3c f05d 61bc c29d 5ebd 4bd7 7e3d
000003e0: 48d4 733d 9f0d 81bd 56f7 52bd a84c 873c
000003f0: b8bb 06be 25b8 b0bd 9a14 51be cc98 893d

net.0.bias f4 [64]
-0.16527092 -0.15911745 -0.008882126 0.05895737 -0.0327302 -0.24034125 -0.20477702 -0.035694804
-0.041159097 0.044221926 -0.14732626 0.051594295 -0.05477152 -0.07832397 -0.049643908 -0.14077058
-0.1394571 -0.27897155 -0.07955913 -0.0024980754 -0.22168145 -0.23239414 -0.13127755 0.013846883
-0.052282874 -0.1558351 -0.3031905 -0.08021903 0.05636859 -0.116690435 -0.0544276 -0.254825
-0.039097365 0.08420489 -0.21278375 -0.08380919 -0.074048676 -0.12570398 -0.09583871 -0.04423264
-0.10896683 -0.25698522 -0.08877081 -0.12781624 0.0378037 -0.08956076 -0.14757922 -0.15468934
-0.2147069 0.0026722807 -0.0064026923 -0.21800981 -0.009135931 -0.028372845 -0.13585968 -0.012235191
0.02935865 -0.10266589 -0.13038644 -0.08017236 -0.016745377 0.0169215 -0.18318988 -0.039216083
00000000: c83c 29be afef 22be 5686 11bc 497d 713d
00000010: 1a10 06bd 041c 76be 11b1 51be b734 12bd
00000020: 7196 28bd 0d22 353d b2dc 16be 8a54 533d
00000030: 1a58 60bd 5168 a0bd 6957 4bbd 2a26 10be
00000040: d8cd 0ebe 5cd5 8ebe e6ef a2bd c0b6 23bb
00000050: 7600 63be bbf8 6dbe 9f6d 06be 09de 623c
00000060: 9126 56bd 3d93 1fbe c93b 9bbe e049 a4bd
00000070: c0e2 663d 65fb eebd 7aef 5ebd 6c78 82be
00000080: 8f24 20bd 9d73 ac3d fce3 59be 27a4 abbd
00000090: d5a6 97bd 8bb8 00be 1647 c4bd 492d 35bd
000000a0: 002a dfbd 9193 83be 78cd b5bd 43e2 02be
000000b0: 0dd8 1a3d a26b b7bd 021f 17be e266 1ebe
000000c0: 20dc 5bbe 6e21 2f3b adcd d1bb f73d 5fbe
000000d0: dfae 15bc 2b6e e8bc cd1e 0bbe 1c76 48bc
000000e0: 8d81 f03c 7e42 d2bd 0684 05be 6831 a4bd
000000f0: 9a2d 89bc f59e 8a3c 2196 3bbe 0ba1 20bd

net.3.weight f4 [128, 64]
-0.11682539 -0.09849954 0.007549173 -0.1949105 -0.13346155 0.05059965 -0.119561456 -0.1771743
-0.13853313 -0.13006371 0.028252827 -0.010337699 -0.015822154 -0.07845159 -0.23119645 -0.15320282
-0.12902936 -0.09547704 -0.012203977 0.029534467 0.056098998 0.012005256 -0.15362567 -0.021935062
-0.050577782 -0.014848345 -0.10960111 -0.02472444 -0.016226614 0.0807265 0.016771678 0.038866814
0.00017513901 0.06994172 -0.052927647 0.05709815 -0.05844813 0.04856951 0.061735205 0.063618995
0.054859467 0.014024952 -0.023796543 0.03621322 -0.009192035 0.040559676 0.006303417 -0.09244482
-0.047957983 0.020649357 0.009937644 0.12023392 0.029478848 0.06525818 0.008372948 -0.1076071
0.062272444 0.06562747 -0.017975627 -0.07014824 -0.03809494 0.10793928 -0.05428342 -0.113483295
-0.012572814 0.034684427 -0.015384493 0.09391873 0.06488807 -0.008061263 0.012660625 -0.051299956
0.0042764135 -8.61547e-05 0.059513263 -0.03960497 0.024522742 -0.054029882 0.085511625 0.039750792
0.12551726 -0.011721661 0.039963048 0.033582274 -0.14829662 -0.12751666 0.06103368 -0.2828639
0.021894807 0.011082108 0.053184215 0.025506794 -0.0016178174 -0.075710945 0.016529894 0.03419293
0.035225086 0.1310791 0.044144183 0.117663816 -0.014856202 -0.1821499 0.06883203 0.03254195
0.102464885 -0.10516866 0.0039145187 -0.0227866 -0.098003 0.04067385 -0.03297532 -0.04727387
0.12754014 -0.07981981 0.022526152 0.08447385 -0.24320778 -0.21567924 -0.2210718 0.021625232
-0.19452827 -0.20354126 0.055394866 -0.108171724 -0.053751774 0.07227782 0.0157819 0.04120825
-0.029971277 0.09107811 -0.084576614 -0.07441632 -0.0042733015 -0.03343156 -0.09573617 0.06107719
-0.21816567 -0.23246406 -0.0958754 0.13548082 -0.045297947 -0.101052366 0.009088541 0.10272606
0.028401969 0.042849768 -0.08574587 -0.009732973 0.10934116 0.027693817 0.05952325 0.1020959
0.0948759 -0.033278007 0.02256404 0.09850499 -0.04003277 -0.037082512 0.014616045 0.01784246
0.11763108 -0.046873745 -0.075922295 -0.15366854 0.065038696 0.039154746 -0.12045103 -0.08385473
-0.1229839 -0.07210991 -0.10006651 -0.020048955 -0.1486981 -0.07982616 -0.14328395 -0.027823364
-0.12430239 -0.060972035 -0.06860096 -0.0394424 -0.0039106063 -0.0035999222 -0.10387688 0.041655585
-0.03077963 0.07399058 0.078395635 0.036437158 0.019703189 -0.15184359 0.14495577 0.121262245
0.103384644 -0.027426139 -0.25296566 0.12051066 -0.010537881 0.06223725 -0.0035517265 0.008967939
-0.017689323 -0.021336604 -0.07032987 -0.14791943 0.068501666 0.0201727 -0.02427544 0.13127817
0.06643982 -0.02192671 -0.016451066 -0.033476017 -0.08127185 -0.12988912 0.0770614 -0.06032579
-0.12833892 -0.068407 0.08825411 -9.18381e-05 -0.20733859 0.02664027 -0.08358871 0.10615441
0.08072815 0.011285439 0.01204455 0.054740086 0.04952575 -0.15243566 0.07427827 -0.050839536
0.031810682 -0.17363292 0.09176994 0.07074056 -0.12036562 0.13942215 -0.0650226 0.09106399
0.14499123 -0.16275439 -0.15853323 0.008387827 -0.2097535 -0.054400317 -0.119393006 0.116350845
-0.107317746 -0.20302929 0.04153803 0.09439984 -0.14208303 -0.09907724 -0.052631576 0.05685442
00000000: 2642 efbd 20ba c9bd 0e5f f73b 9e96 47be
00000010: 25aa 08be 9441 4f3d a3dc f4bd 2e6d 35be
00000020: a1db 0dbe 6c2f 05be 7972 e73c 745f 29bc
00000030: 769d 81bc 3aab a0bd c3be 6cbe 33e1 1cbe
00000040: 4620 04be 7789 c3bd 31f3 47bc 44f2 f13c
00000050: 10c8 653d b1b1 443c 0c50 1dbe 29b1 b3bc
00000060: a62a 4fbd 7946 73bc 8c76 e0bd e98a cabc
00000070: aded 84bc ef53 a53d c264 893c cf32 1f3d
00000080: 85a5 3739 9b3d 8f3d a9ca 58bd c0df 693d
00000090: 4e67 6fbd d3f0 463d 0ede 7c3d ad4a 823d
000000a0: 52b4 603d eac8 653c f8f0 c2bc 5054 143d
000000b0: 309a 16bc e721 263d e58c ce3b b653 bdbd
000000c0: 976f 44bd d728 a93c 80d1 223c 343d f63d
000000d0: a07d f13c 15a6 853d b02e 093c 1c61 dcbd
000000e0: 6411 7f3d b267 863d 9f41 93bc e1a9 8fbd
000000f0: 7109 1cbd 450f dd3d 4b58 5ebd ee69 e8bd
00000100: 34fe 4dbc 4211 0e3d 3e0f 7cbc 7758 c03d
00000110: 09e4 843d 6313 04bc 836e 4f3c e71f 52bd
00000120: 2821 8c3b f4ad b4b8 2ec4 733d d238 22bd
00000130: ebe3 c83c 704e 5dbd b820 af3d bad1 223d
00000140: 9987 003e 360c 40bc 4bb0 233d 918d 093d
00000150: 12db 17be ba93 02be 74fe 793d 89d3 90be
00000160: bd5c b33c bb91 353c b1d7 593d a0f3 d03c
00000170: f20c d4ba 570e 9bbd b369 873c e30d 0c3d
00000180: 2e48 103d 9939 063e 88d0 343d baf9 f03d
00000190: 6d67 73bc 8185 3abe cff7 8c3d b54a 053d
000001a0: 1cd9 d13d ab62 d7bd 5d45 803b f7aa babc
000001b0: ccb5 c8bd 9f99 263d 2111 07bd 3fa2 41bd
000001c0: e299 023e 9278 a3bd c488 b83c a000 ad3d
000001d0: 760b 79be 05db 5cbe a560 62be 6627 b13c
000001e0: 6b32 47be 1f6d 50be bae5 623d 2389 ddbd
000001f0: d22a 5cbd 6506 943d 0b49 813c fbc9 283d
00000200: 5386 f5bc 2987 ba3d 8136 adbd 9567 98bd
00000210: 0d07 8cbb 88ef 08bd 5311 c4bd 132c 7a3d
00000220: d266 5fbe 0f0b 6ebe 525a c4bd 7cbb 0a3e
00000230: 578a 39bd 8bf4 cebd 1be8 143c 0a62 d23d
00000240: 3fab e83c 3d83 2f3d 889b afbd 0c77 1fbc
00000250: 42ee df3d 25de e23c a7ce 733d a817 d13d
00000260: 4c4e c23d 854e 08bd 39d8 b83c fcbc c93d
00000270: 67f9 23bd d5e3 17bd 2378 6f3c 5a2a 923c
00000280: 90e8 f03d affe 3fbd 267d 9bbd 495b 1dbe
00000290: 0233 853d ba60 203d 08af f6bd 07bc abbd
000002a0: fcde fbbd 5cae 93bd acef ccbd b53d a4bc
000002b0: 5144 18be e67b a3bd 07b9 12be d3ed e3bc
000002c0: 4092 febd d0bd 79bd a97e 8cbd 5b8e 21bd
000002d0: 8b24 80bb acec 6bbb 67bd d4bd 0c9f 2a3d
000002e0: 9025 fcbc 6088 973d e48d a03d 213f 153d
000002f0: 9568 a13c e37c 1bbe 496f 143e 5758 f83d
00000300: 54bb d33d c8ac e0bc b784 81be 4bce f63d
00000310: 14a7 2cbc 7dec 7e3d 15c4 68bb 43ee 123c
00000320: 33e9 90bc 1aca aebc 1b09 90bd 3178 17be
00000330: 9a4a 8c3d 3841 a53c 4add c6bc c96d 063e
00000340: 9a11 883d a59f b3bc 63c4 86bc 261e 09bd
00000350: db71 a6bd a701 05be 5ed2 9d3d 2d18 77bd
00000360: 476b 03be f818 8cbd 92be b43d 3499 c0b8
00000370: 9150 54be b23c da3c 8f30 abbd 7c67 d93d
00000380: cd54 a53d 90e6 383c 8156 453c 2437 603d
00000390: 83db 4a3d 1818 1cbe 351f 983d 1e3d 50bd
000003a0: eb4b 023d d4cc 31be e1f1 bb3d 6de0 903d
000003b0: 4082 f6bd aec4 0e3e 922a 85bd c27f ba3d
000003c0: 9578 143e 16a9 26be 8956 22be 196d 093c
000003d0: 9fc9 56be ded2 5ebd 5284 f4bd 5a49 ee3d
000003e0: 68c9 dbbd e9e6 4fbe c823 2a3d b454 c13d
000003f0: 377e 11be 02e9 cabd 3594 57bd 2ee0 683d

net.3.bias f4 [128]
0.0650637 0.03178384 0.005154006 -0.0074428744 -0.09481724 0.051051565 -0.083495095 -0.01648707
0.03813962 0.104058266 -0.08183071 -0.055563062 0.08982395 -0.04973909 0.06435277 0.089913584
0.086748086 -0.013100537 0.020949023 0.1171514 -0.12596084 0.124054395 -0.020291142 0.09489681
0.13445878 0.030385468 -0.028879492 0.05901443 0.071276456 0.077457115 0.088639 -0.06614505
0.040689394 -0.043308534 -0.11431226 0.13919033 -0.054169096 0.119734734 0.1298298 -0.13476025
0.053621512 0.04284684 0.02733631 0.129804 0.03988755 0.076833114 0.12963639 0.040742308
0.08527731 0.00977353 0.056637473 0.15317799 -0.023752978 0.12865944 0.110010274 0.100116335
0.08685389 0.107340015 0.0822078 0.022813361 -0.048680928 -0.012978401 0.12851256 -0.17491643
0.072366476 0.13004796 0.071994126 0.10232975 -0.063888684 -0.06273423 0.14115119 0.032905627
-0.039139528 0.092537545 -0.0549975 -0.04383362 0.007964308 0.06622899 -0.060054153 0.095002726
0.06084025 0.090868115 0.06247345 0.17754428 0.00886145 0.12099065 0.06509439 0.00716313
0.16899888 -0.04643878 0.09627822 -0.00010878901 0.072958015 0.08886757 0.11627801 -0.049006574
-0.07043111 -0.020099064 -0.121035196 -0.027851338 -0.0016066793 -0.040634967 0.021058895 0.016742894
-0.06288574 -0.006291773 0.021811249 -0.017918129 -0.017908623 -0.112920806 -0.0070960936 -0.07463753
0.01217484 0.0523166 0.00078204134 -0.040613852 -0.03432423 0.013927457 -0.028566256 0.038344145
0.13478056 0.045524504 0.043503862 -0.029747821 0.05348702 0.15942577 0.044375263 0.13500746
00000000: 1e40 853d c62f 023d f0e2 a83b 5be3 f3bb
00000010: 8b2f c2bd 721b 513d 7aff aabd e40f 87bc
00000020: 4a38 1c3d 801c d53d dc96 a7bd 1896 63bd
00000030: 9ef5 b73d 37bb 4bbd 63cb 833d 9d24 b83d
00000040: fba8 b13d a2a3 56bc 499d ab3c 13ed ef3d
00000050: e1fb 00be 3b10 fe3d 9c39 a6bc 4259 c23d
00000060: 90af 093e f2ea f83c af94 ecbc 1db9 713d
00000070: 64f9 913d d6a1 9e3d 5d88 b53d 0e77 87bd
00000080: eca9 263d 4a64 31bd 8c1c eabd e987 0e3e
00000090: 6ae0 5dbd 7c37 f53d 1af2 043e 97fe 09be
000000a0: 3ba2 5b3d 2b80 2f3d 66f0 df3c 57eb 043e
000000b0: 2161 233d ae5a 9d3d 67bf 043e 68e1 263d
000000c0: dfa5 ae3d 2821 203c b2fc 673d b1da 1c3e
000000d0: 9b95 c2bc 4dbf 033e 114d e13d cb09 cd3d
000000e0: 74e0 b13d 15d5 db3d 905c a83d 16e3 ba3c
000000f0: a765 47bd 5ca3 54bc cc98 033e 4b1d 33be
00000100: e034 943d 4b2b 053e a871 933d 4392 d13d
00000110: 12d8 82bd ce7a 80bd f089 103e 0dc8 063d
00000120: c550 20bd 5384 bd3d 0f45 61bd e28a 33bd
00000130: bb7c 023c 11a3 873d 58fb 75bd ca90 c23d
00000140: a033 793d 1019 ba3d 29e4 7f3d 2bce 353e
00000150: 9d2f 113c f2c9 f73d 3550 853d b1b8 ea3b
00000160: 0b0e 2d3e 9736 3ebd 842d c53d a825 e4b8
00000170: 036b 953d 3300 b63d 2a23 ee3d 1ebb 48bd
00000180: 303e 90bd cba6 a4bc 4de1 f7bd 7d28 e4bc
00000190: 3697 d2ba da70 26bd b483 ac3c 6528 893c
000001a0: 3dca 80bd 382b cebb 81ad b23c 0ac9 92bc
000001b0: 1bb5 92bc 0643 e7bd 5986 e8bb 90db 98bd
000001c0: fb78 473c ee49 563d e801 4d3a b65a 26bd
000001d0: 9097 0cbd fd2f 643c c803 eabc c00e 1d3d
000001e0: ea03 0a3e e777 3a3d 1b31 323d b4b1 f3bc
000001f0: 3515 5b3d 8240 233e d6c2 353d 653f 0a3e

net.6.weight f4 [64, 128]
0.04056314 -0.0018402226 0.02887034 0.011455443 -0.057477705 -0.05003489 -0.005242227 -0.13565151
-0.026434723 0.00067657116 -0.05420778 0.010717818 -0.021256994 -0.16437943 0.08997411 0.032821406
0.045691628 0.03686052 0.053092156 -0.03610065 -0.050157174 0.08360244 -0.10357681 -0.012338171
-0.05421282 0.073217556 0.03571212 -0.08132497 0.007589178 0.08666442 0.037569627 0.018856337
-0.09886852 -0.045499157 -0.0153277535 0.0140240695 -0.07802248 0.064831614 0.011976113 0.06203407
-0.06589153 0.029079495 0.06117612 0.07872592 0.061963163 0.13184065 -0.06011415 0.10539748
0.040500507 -0.041523896 -0.021965418 0.04575558 0.014165012 -0.019135075 0.012728687 -0.0075929887
-0.029662965 -0.030858232 0.003261872 -0.10361193 0.0034479625 -0.061191093 -0.07875456 -0.056979366
-0.024063194 -0.02742393 0.08949024 0.069942705 -0.02540373 -0.046921425 0.020661611 0.04239211
-0.10060022 -0.052541602 0.0034369426 0.021072676 -0.07022342 -0.05762048 0.03251926 -0.006969224
-0.04620484 0.009439956 0.0347139 0.07092045 -0.06131499 0.109573744 0.056473546 -0.09232281
0.10346123 0.064043775 -0.013426563 0.06493819 -0.010300331 0.09872423 0.09307168 -0.009136433
-0.031451095 0.009065945 -0.041259855 -0.055561215 0.05078816 -0.008503722 -0.034395702 -0.0064339596
0.017416088 0.09821071 -0.022251373 -0.11052151 0.09846641 0.039247487 0.032024544 -0.005747668
-0.0045053945 0.041422144 -0.056795347 -0.09930658 -0.007675819 -0.06910831 -0.015892753 -0.13850747
0.09876849 0.016495122 -0.035684835 -0.012412243 0.10369315 -0.0964417 0.008874236 0.034380775
-0.059231717 -0.10484842 0.085221425 -0.08522411 -0.053520795 0.034052934 0.03440689 -0.15993519
-0.00277296 0.06836978 -0.0006401438 -0.00084456906 -0.14327626 -0.01986874 0.027756184 0.09252856
-0.018389996 0.06925721 -0.025364535 0.09627891 0.062543675 0.07639299 0.032077447 0.04438002
-0.11372499 -0.08961948 -0.013369204 0.009788459 0.05788719 -0.103294924 -0.0809995 0.039205663
-0.036798753 -0.045875672 -0.036339965 0.065747485 -0.12210796 0.10594868 0.009009013 0.034363806
-0.0077735838 -0.04278276 0.03913826 0.0018623681 0.0441256 -0.004593909 -0.010221391 -0.042720962
0.016601358 0.02021409 0.0804673 0.013096096 0.12889141 -0.0240573 0.13195005 -0.15136252
-0.12611176 0.027312944 0.10713041 0.1075013 -0.022257093 -0.010562973 0.03585823 -0.0714473
-0.08964082 -0.06624756 0.0438729 -0.039021928 0.12646136 0.1315497 0.020618752 -0.00498446
0.05275701 0.11228507 -0.09513101 -0.051429525 -0.0700068 -0.008349394 -0.067141384 0.032075636
0.019898776 -0.073315226 -0.08190031 -0.024981085 0.027749725 -0.07847119 0.18761048 0.06169309
-0.030393315 0.06464518 0.03395728 -0.046334084 -0.08446552 0.08256321 -0.023023566 0.02387634
0.05103671 -0.038387094 -0.030306052 -0.1103032 -0.043732993 -0.030160604 -0.06298425 -0.060961965
-0.055068176 0.044028867 -0.0390212 0.0056516053 0.057660505 -0.06239705 -0.059935924 -0.007075397
-0.003520041 0.04966599 0.051401842 -0.06224633 0.058122195 -0.036488775 0.10066743 -0.009623175
-0.029175213 0.036643434 -0.020326065 0.047601286 0.09176007 0.036173023 -0.0663502 0.032844644
00000000: 8925 263d a033 f1ba 7e81 ec3c 9caf 3b3c
00000010: be6d 6bbd 63f1 4cbd fdc6 abbb 3be8 0abe
00000020: a28d d8bc ec5b 313a fa08 5ebd c999 2f3c
00000030: 2623 aebc 1553 28be 5944 b83d bd6f 063d
00000040: 2527 3b3d 0efb 163d 2977 593d 46de 13bd
00000050: 9c71 4dbd c237 ab3d 1420 d4bd 0a26 4abc
00000060: 430e 5ebd 16f3 953d df46 123d b58d a6bd
00000070: a4ae f83b 1e7d b13d 9ce2 193d 9b78 9a3c
00000080: 947b cabd 535d 3abd 4221 7bbc 36c5 653c
00000090: 40ca 9fbd 70c6 843d 7537 443c 7017 7e3d
000000a0: 23f2 86bd 1f38 ee3c d093 7a3d 0e3b a13d
000000b0: 16cd 7d3d 3c01 073e 413a 76bd a2da d73d
000000c0: dce3 253d f614 2abd d2f0 b3bc 346a 3b3d
000000d0: 5e14 683c 29c1 9cbc fc8b 503c 9bce f8bb
000000e0: bfff f2bc 67ca fcbc 22c5 553b 7e32 d4bd
000000f0: 36f7 613b 83a3 7abd 124a a1bd 3263 69bd
00000100: 2d20 c5bc 26a8 e0bc a946 b73d 1f3e 8f3d
00000110: 7c1b d0bc ae30 40bd 8a42 a93c 59a3 2d3d
00000120: 7d07 cebd dd35 57bd 543e 613b 9ba0 ac3c
00000130: 4cd1 8fbd 7403 6cbd ea32 053d 175e e4bb
00000140: 4941 3dbd 0caa 1a3c 2a30 0e3d be3e 913d
00000150: 6d25 7bbd 3368 e03d ce50 673d be13 bdbd
00000160: 7be3 d33d 6229 833d 16fb 5bbc 50fe 843d
00000170: b8c2 28bc ee2f ca3d 5d9c be3d fab0 15bc
00000180: ddd2 00bd 5489 143c 1800 29bd 2894 63bd
00000190: 3f07 503d 3253 0bbc 82e2 0cbd f7d3 d2bb
000001a0: 2fac 8e3c b222 c93d 8348 b6bc 1a59 e2bd
000001b0: c2a8 c93d f9c1 203d 2b2c 033d ef56 bcbb
000001c0: fda1 93bb 44aa 293d 3da2 68bd 4061 cbbd
000001d0: 7085 fbbb a888 8dbd 8531 82bc e7d4 0dbe
000001e0: 2247 ca3d c720 873c 432a 12bd b85c 4bbc
000001f0: 135d d43d 3a83 c5bd 3e65 113c dbd2 0c3d
00000200: f59c 72bd c5ba d6bd 9288 ae3d fa89 aebd
00000210: 9f38 5bbd 177b 0b3d 3dee 0c3d 0dc6 23be
00000220: 8dba 35bb 7505 8c3d 53cf 27ba 1266 5dba
00000230: 03b7 12be c5c3 a2bc f060 e33c 9d7f bd3d
00000240: 9ea6 96bc b9d6 8d3d 49c9 cfbc e12d c53d
00000250: e616 803d ee73 9c3d a463 033d d3c7 353d
00000260: a6e8 e8bd 6b8a b7bd 810a 5bbc c65f 203c
00000270: 1e1b 6d3d 4a8c d3bd 11e3 a5bd 1e96 203d
00000280: 4aba 16bd 21e8 3bbd 37d9 14bd 9ea6 863d
00000290: bd13 fabd 9ffb d83d 8a9a 133c 10c1 0c3d
000002a0: 8cb9 febb fa3c 2fbd 714f 203d b41a f43a
000002b0: 0cbd 343d 8088 96bb 9f77 27bc 2dfc 2ebd
000002c0: 92ff 873c 0598 a53c 0acc a43d 0291 563c
000002d0: 1cfc 033e d113 c5bc ea1d 073e c7fe 1abe
000002e0: 7123 01be 65bf df3c 3067 db3d a429 dc3d
000002f0: 8254 b6bc 5210 2dbc 14e0 123d f652 92bd
00000300: 9b95 b7bd cdac 87bd 12b4 333d 75d5 1fbd
00000310: 167f 013e f7b4 063e a8e8 a83c ae54 a3bb
00000320: bc17 583d b7f5 e53d 0cd4 c2bd c4a7 52bd
00000330: ba5f 8fbd e6cb 08bc 6c81 89bd be61 033d
00000340: c202 a33c 4b26 96bd 5abb a7bd 22a5 ccbc
00000350: 6453 e33c 81b5 a0bd f61c 403e e5b1 7c3d
00000360: 67fb f8bc b164 843d ca16 0b3d cfc8 3dbd
00000370: 42fc acbd e616 a93d eb9b bcbc 5098 c33c
00000380: df0b 513d c93b 1dbd 6644 f8bc a5e6 e1bd
00000390: 5e21 33bd 5f13 f7bc e3fd 80bd 41b3 79bd
000003a0: 2b8f 61bd 9d57 343d b2d4 1fbd 1a31 b93b
000003b0: 6c2d 6c3d 0d94 7fbd 5f7f 75bd bbd8 e7bb
000003c0: 7db0 66bb 916e 4b3d bd8a 523d 02f6 7ebd
000003d0: 8a11 6e3d 4175 15bd ba2a ce3d 85aa 1dbc
000003e0: db00 efbc 6d17 163d d982 a6bc 91f9 423d
000003f0: b4ec bb3d 2a2a 143d 9de2 87bd 1b88 063d

net.6.bias f4 [64]
0.06528867 0.062261604 0.046964657 0.1102398 0.14529802 0.113254145 -0.0031142503 0.08573552
0.08448624 0.051185478 0.050625023 0.0804797 0.10403776 0.0067872717 0.032622933 0.0020587451
0.07833009 0.09615786 0.10453055 0.09961169 0.074975654 0.108793505 0.06956392 0.012638575
0.1208513 0.03399519 0.0406355 0.10203124 0.09512879 0.017808845 0.13103066 0.01606301
0.08967907 0.08571787 0.099568255 -0.06354598 0.14879817 0.048197776 0.11992587 0.06691261
-0.0421334 0.11940569 0.09923881 0.08512825 0.11407949 0.124549694 0.031619158 0.092561506
0.06902225 0.052507807 -0.0068702144 0.11025732 0.08062781 0.09242983 0.09894245 0.07370315
0.01967682 0.09810631 0.088144004 0.056668565 0.038521685 0.007649159 0.030440312 -0.01378596
00000000: 11b6 853d 0606 7f3d 035e 403d 67c5 e13d
00000010: 01c9 143e caf1 e73d 7318 4cbb 1b96 af3d
00000020: 1f07 ad3d dda7 513d 2f5c 4f3d 8ad2 a43d
00000030: c011 d53d c367 de3b a09f 053d 03ec 063b
00000040: 876b a03d 69ee c43d 1d14 d63d 3701 cc3d
00000050: d68c 993d 21cf de3d 8777 8e3d 0712 4f3c
00000060: e380 f73d 8a3e 0b3d 6971 263d c1f5 d03d
00000070: e2d2 c23d dbe3 913c e72c 063e 9396 833c
00000080: a9a9 b73d da8c af3d 71ea cb3d 6524 82bd
00000090: 8c5e 183e 086b 453d b29b f53d 7a09 893d
000000a0: 1294 2cbd f88a f43d b83d cb3d b857 ae3d
000000b0: 82a2 e93d e913 ff3d 1783 013d e390 bd3d
000000c0: 8a5b 8d3d 6d12 573d 891f e1bb 97ce e13d
000000d0: 3120 a53d da4b bd3d 57a2 ca3d adf1 963d
000000e0: 4831 a13c f6eb c83d d884 b43d 4c1d 683d
000000f0: eac8 1d3d cca5 fa3b f65d f93c 82de 61bc

net.9.weight f4 [4, 64]
0.093935244 0.036670938 -0.14869244 -0.108553 0.01817346 -0.114534624 -0.00069722475 0.060464624
-0.039994035 0.090508096 -0.09873076 -0.087051526 0.09964459 -0.10643573 -0.073769204 -0.1122429
-0.10694956 0.084808 -0.06717488 0.05382077 0.114522874 -0.0032466988 -0.068702586 -0.02189494
-0.06608854 0.09462386 0.09781709 -0.103409275 -0.017263046 -0.009455928 -0.06620686 0.10892043
0.08457964 0.11062227 0.08418189 -0.07632579 -0.07489048 -0.099073924 -0.12451913 0.0032797104
-0.021490203 -0.040605534 -0.08142368 -0.08688672 0.10449122 -0.12444005 -0.09221654 0.034516092
-0.016761914 0.0805321 0.06509763 0.02391489 -0.08995137 0.05410195 -0.04055118 0.104557075
-0.05245596 0.1355738 -0.05103112 -0.13671583 -0.06652754 0.07422619 -0.025846895 -0.017346103
0.07214979 0.008438598 -0.11587464 -0.08985759 0.02096095 -0.11800083 0.014710654 0.05692982
-0.10118002 0.07786904 -0.102642 -0.09762515 0.07550679 -0.09476662 -0.052406058 -0.08424234
-0.098259285 0.09300379 -0.085298985 0.054933477 0.1427603 -0.0004799112 -0.036767192 -0.08881783
-0.08688715 0.111198716 0.11360537 -0.11071856 -0.022455137 0.030133896 -0.09480086 0.13358264
0.08199488 0.11832554 0.121597335 0.08837296 -0.06801087 -0.08664117 -0.09776918 -0.010638963
-0.11386048 -0.06473408 -0.08552021 -0.061967555 0.09168208 -0.118707195 -0.0743712 0.045943707
-0.03127085 0.10761445 0.10438867 0.014156999 -0.08332765 0.041716203 -0.06021068 0.12206556
-0.057958867 0.1469029 -0.016483802 -0.10358258 -0.062530234 0.096090615 -0.024955966 -0.03411534
-0.02332776 -0.147073 0.043261006 0.10028002 -0.021777786 0.12587076 -0.12421008 -0.12376781
-0.030397428 0.14273402 0.009322582 0.08799517 -0.07387598 -0.13214117 -0.06347311 -0.093767546
0.02102815 0.047762092 -0.056111787 -0.14018102 0.02713401 -0.06543992 -0.13177714 -0.1757332
-0.13424736 0.016661683 -0.021970052 0.08441837 0.039894287 -0.008709072 -0.091428824 0.060077272
-0.07315684 -0.0008786361 -0.036482006 -0.0023673635 0.053594317 -0.120066434 -0.005957496 0.15137744
0.0992237 0.1311388 -0.043543547 0.056015685 -0.0017046601 0.029599113 0.09605101 -0.088802606
0.06708852 -0.12940134 -0.09858151 0.118734494 0.105504364 -0.075297296 0.09865176 -0.12422044
0.16355568 -0.00076460536 -0.10585475 0.011309541 -0.11753429 -0.11572422 -0.13838407 -0.117185
-0.09556606 0.07263677 0.0026352555 0.092929006 0.18305334 0.1269786 -0.048362397 -0.09255019
-0.16055539 -6.8428475e-05 0.0073224483 0.11283795 -0.015125641 -0.095791385 0.08746792 -0.089092486
-0.11852552 -0.084787175 -0.14184739 -0.087776415 -0.06529392 0.20359845 -0.07791639 -0.05733922
-0.1614467 0.06837227 0.069538124 0.08661223 0.14169225 -0.14922301 -0.157807 0.033951152
-0.04434716 0.084864214 -0.036339935 0.022359092 0.1026662 -0.056724254 0.02391759 0.03158786
-0.019956766 0.115901835 0.10901417 0.12149801 -0.0885356 0.051335976 0.08228683 -0.10874511
0.13066615 0.030695517 -0.07267892 0.0741962 0.08879438 -0.11814007 0.1512196 -0.053831846
0.0066820304 -0.05821564 -0.11841858 0.02865235 -0.08150131 0.03728757 0.04096782 0.041979887
00000000: 1f61 c03d 4434 163d d542 18be 0951 debd
00000010: 82e0 943c 2191 eabd f6c5 36ba c1a9 773d
00000020: c9d0 23bd 4f5c b93d 5a33 cabd 1248 b2bd
00000030: 7612 cc3d fafa d9bd 4f14 97bd 9bdf e5bd
00000040: 5f08 dbbd d1af ad3d fc92 89bd 2b73 5c3d
00000050: f88a ea3d 91c6 54bb f1b3 8cbd 045d b3bc
00000060: 6e59 87bd 28ca c13d 5454 c83d 3ec8 d3bd
00000070: 3b6b 8dbc 09ed 1abc 7697 87bd ad11 df3d
00000080: 1738 ad3d ee8d e23d 8e67 ac3d b250 9cbd
00000090: 2e60 99bd 45e7 cabd e303 ffbd 69f0 563b
000000a0: 390c b0bc fd51 26bd 75c1 a6bd aaf1 b1bd
000000b0: 7eff d53d 6dda febd 06dc bcbd bf60 0d3d
000000c0: 4850 89bc 03ee a43d e851 853d 29e9 c33c
000000d0: 6d38 b8bd 029a 5d3d fe18 26bd 0522 d63d
000000e0: 10dc 56bd dcd3 0a3e 0206 51bd 3cff 0bbe
000000f0: 973f 88bd e703 983d debc d3bc 6a19 8ebc
00000100: 45c3 933d 0c42 0a3c af4f edbd 4207 b8bd
00000110: 4cb6 ab3c 6baa f1bd f404 713c 3e2f 693d
00000120: 7837 cfbd ce79 9f3d f835 d2bd b2ef c7bd
00000130: 4ea3 9a3d 0015 c2bd bca7 56bd 3f87 acbd
00000140: 2a3c c9bd c578 be3d 3cb1 aebd ed01 613d
00000150: c22f 123e 979c fbb9 3299 16bd 1fe6 b5bd
00000160: e4f1 b1bd 27bc e33d efa9 e83d 6ac0 e2bd
00000170: d6f3 b7bc 5cdb f63c f426 c2bd e3c9 083e
00000180: efec a73d a954 f23d 0608 f93d e2fc b43d
00000190: 4849 8bbd ed70 b1bd 353b c8bd 0c4f 2ebc
000001a0: af2f e9bd 4d93 84bd 3825 afbd b1d1 7dbd
000001b0: d0c3 bb3d c21c f3bd ed4f 98bd 782f 3c3d
000001c0: dd15 00bd f764 dc3d bac9 d53d c2f2 673c
000001d0: b0a7 aabd 9cde 2a3d 799f 76bd 82fd f93d
000001e0: 4766 6dbd b76d 163e 0a09 87bc 1b23 d4bd
000001f0: da0f 80bd 28cb c43d 7470 ccbc 87bc 0bbd
00000200: dc19 bfbc 4e9a 16be 7432 313d 9c5f cd3d
00000210: 5467 b2bc 44e4 003e db61 febd fa79 fdbd
00000220: 0704 f9bc de28 123e bebd 183c d036 b43d
00000230: 4a4c 97bd 0450 07be 31fe 81bd 3309 c0bd
00000240: 3a43 ac3c 2fa2 433d 79d5 65bd 9d8b 0fbe
00000250: 2548 de3c 5d05 86bd 96f0 06be 67f3 33be
00000260: 2478 09be 157e 883c 8afa b3bc 8ae3 ac3d
00000270: 3168 233d 7fb0 0ebc 093f bbbd 9613 763d
00000280: 41d3 95bd 4554 66ba 286e 15bd c525 1bbb
00000290: b785 5b3d 64e5 f5bd 1937 c3bb b002 1b3e
000002a0: cc35 cb3d 4049 063e b85a 32bd b470 653d
000002b0: e76e dfba d779 f23c 64b6 c43d 24de b5bd
000002c0: b565 893d c981 04be 1ae5 c9bd 122b f33d
000002d0: ac12 d83d 7835 9abd ef09 ca3d 4967 febd
000002e0: 247b 273e cc6f 48ba 60ca d8bd a74b 393c
000002f0: d1b5 f0bd d200 edbd 8eb4 0dbe b0fe efbd
00000300: 23b8 c3bd 96c2 943d 40b4 2c3b 9051 be3d
00000310: 5672 3b3e ae06 023e a617 46bd f48a bdbd
00000320: a268 24be 4281 8fb8 26f1 ef3b 9517 e73d
00000330: 89d1 77bc 462e c4bd 6122 b33d 1f76 b6bd
00000340: 82bd f2bd e6a4 adbd 7140 11be 1fc4 b3bd
00000350: d2b8 85bd 1d7c 503e a192 9fbd 88dc 6abd
00000360: 4952 25be c306 8c3d 016a 8e3d c161 b13d
00000370: c617 113e ebcd 18be 2998 21be 5d10 0b3d
00000380: 5ea5 35bd 4acd ad3d 2fd9 14bd 6a2a b73c
00000390: a842 d23d b157 68bd d2ee c33c 4662 013d
000003a0: 5f7c a3bc f15d ed3d d242 df3d f3d3 f83d
000003b0: 2752 b5bd ac45 523d ff85 a83d c2b5 debd
000003c0: 59cd 053e 2a75 fb3c b0d8 94bd 2df4 973d
000003d0: d4d9 b53d 6cf3 f1bd 50d9 1a3e c87e 5cbd
000003e0: eff4 da3b 8673 6ebd 7185 f2bd 55b8 ea3c
000003f0: 29ea a6bd daba 183d dfcd 273d 1af3 2b3d

net.9.bias f4 [4]
0.063537456 0.045378722 0.0616869 -0.071505435
00000000: ed1f 823d 0adf 393d 67ab 7c3d 7171 92bd
