models/surrogate_latest.pt (torch, 29909 bytes, 6 tensors)

net.0.weight f4 [32, 176]
000000 3c 0f 74 bd 40 1c 12 3b 88 22 6e 3c ef 87 73 bd
       -0.05958484 0.002229467 0.0145346 -0.05945581
000010 0f c5 c4 3c e7 85 a3 3c 53 e0 5a bc a5 92 9b 3d
       0.024019746 0.01996131 -0.013359147 0.075963296
000020 91 af 0b bd 54 c9 71 3d 07 6e 6e 3d 09 eb b7 3c
       -0.03410298 0.059029892 0.0582104 0.02245094
000030 60 58 50 3d 42 db 5b 3d 05 8b 8d 3a 0a 7a b8 bc
       0.05086553 0.053675897 0.0010798877 -0.02251913
000040 08 af aa bc b3 98 cd 3a c2 83 2b bd 8b 82 de bc
       -0.020835415 0.0015685767 -0.0418737 -0.027161857
000050 3e a4 30 3d 60 6a e3 3b 12 55 6c bd 62 9e 8e 3d
       0.043125384 0.006940171 -0.057698317 0.06963803
000060 8c 04 4e 3d 9c 17 3c bc 40 1e 6c bd 1d 60 fd bc
       0.050297305 -0.011480238 -0.057646036 -0.03092962
000070 92 26 96 3d 25 3b 75 bc e3 d7 12 3a 99 73 80 3d
       0.073315755 -0.014967714 0.00056016276 0.062720485
000080 20 1d 8c bc af cc 66 bd 17 1f 95 3d b5 b5 19 bd
       -0.017103732 -0.056347545 0.072813205 -0.037526805
000090 4c aa 8e 3d 81 b1 39 bd 0a f9 2f 3d 1c 05 24 3d
       0.06966075 -0.045335297 0.04296211 0.040043935
0000a0 e8 21 fa 3c 32 f4 48 bd ea 36 2c bd 25 2a 80 3d
       0.030533746 -0.049061008 -0.042044558 0.062580384
0000b0 e4 9a 0e 3d 5c 58 20 3d 80 b8 1e ba 4f a3 28 bd
       0.034815684 0.039146766 -0.00060547143 -0.04117137
0000c0 75 b9 91 bd c5 3e 05 bd cf a3 a1 3d e9 19 95 bd
       -0.07115451 -0.032530565 0.07892572 -0.072803326
0000d0 6d 6b 19 bd 78 34 7f 3c a0 40 48 3b 93 12 db 3a
       -0.037455965 0.015576474 0.0030556098 0.001671391
0000e0 a2 23 79 bd 68 e4 82 3c 54 7e 24 bd 40 f8 71 bd
       -0.060824998 0.015978053 -0.04015954 -0.05907464
0000f0 60 4b 70 3d 00 22 51 39 98 cf 11 3c 48 2a 2d bd
       0.058665633 0.00019944459 0.008899592 -0.04227665
000100 b4 e9 8e 3d 00 ba 9f bd aa cf 2d 3d 80 3d a2 3b
       0.06978169 -0.077991486 0.042434372 0.004951179
000110 54 3a 2e bd 29 c3 df 3c 4c 20 38 3d 10 26 a5 bd
       -0.042536095 0.02731474 0.044952676 -0.080639005
000120 05 9d 19 3d 70 d0 8a 3b fd 84 83 3c 44 84 7c 3d
       0.03750326 0.0042362735 0.016054625 0.061649576
000130 06 26 7e 3d d8 8a 9d 3d 55 74 24 3d 53 a7 35 3c
       0.06204798 0.07692498 0.040150005 0.0110872565
000140 e5 40 9d ba a7 34 0e 3d cf 67 4a bd 69 f8 be bc
       -0.001199749 0.034718182 -0.049415406 -0.02331181
000150 a2 d4 4a bd fc 35 a8 3d 64 8b ce 3c 88 0b 08 3b
       -0.04951919 0.08213422 0.025212951 0.0020758826
000160 db fc 20 bd e9 62 07 3d f7 2c 1c 3d 08 9c 6c 3d
       -0.03930364 0.033053312 0.03812882 0.05776599
000170 94 99 39 3d 11 dc 2e bc cc 0f 4f 3d 00 a4 6c 3d
       0.04531248 -0.010672585 0.050552174 0.05777359
000180 09 3f 84 bd b4 b7 0c 3d dc 27 95 3d 62 05 c7 bc
       -0.064573355 0.03435488 0.07282993 -0.024294559
000190 44 3f 4e bd 48 c4 42 3c a6 8c 78 3d 84 11 dc 3c
       -0.050353304 0.011887617 0.060681008 0.02686382
0001a0 5e 1f 10 bd 1e 47 bb bd a4 a5 7a bc 7a 57 de 3c
       -0.035186164 -0.09144424 -0.015298281 0.027141321
0001b0 d9 05 99 bd f1 5d 1e bd b1 2f 1b bd 20 c2 5b bd
       -0.074718185 -0.03866381 -0.03788728 -0.05365193
0001c0 9c 92 a0 bd 61 84 f4 3d 00 5c f4 3a d9 47 e8 3c
       -0.078404635 0.11939312 0.0018643141 0.028354572
0001d0 4c d5 6b 3d 31 5a 92 3c 3e 80 c2 3c a3 79 63 bd
       0.057576463 0.017865272 0.023742791 -0.055535924
0001e0 cb ae 33 bd f3 ac ae 3c f2 a6 79 3d 30 aa 89 3d
       -0.043867867 0.021322703 0.060950227 0.06721914
0001f0 a4 73 8b bc 60 42 dc 3c 02 b8 13 bd 2e 40 7d 3d
       -0.017022915 0.026887119 -0.036064155 0.061828785
000200 fa b4 c1 bc 2c 51 ae bc a4 10 f2 3b 90 b1 f3 3b
       -0.023645867 -0.02127894 0.0073872376 0.0074369386
000210 bf be a9 bc 81 61 41 bd 36 38 85 3c 2f ac 60 bd
       -0.020720838 -0.047212128 0.016262155 -0.054851707
000220 e6 3c 01 bb f8 e2 4e 3d 38 59 62 3d da 82 82 3d
       -0.0019720136 0.050509423 0.055260867 0.06372614
000230 40 a2 37 3c d7 80 81 bd ce e9 70 3d e2 7e a7 bd
       0.011208117 -0.063234024 0.058816724 -0.08178498
000240 0c d6 6e bc 68 e5 23 bd f4 f5 57 3d dc 9f a9 3d
       -0.0145774 -0.0400137 0.052724794 0.08282444
000250 c8 f4 55 3d 88 12 55 bd be 06 93 bd ce e3 ab 3d
       0.052235395 -0.052019626 -0.0717902 0.0839306
000260 03 2e 82 bd 58 dd 68 3d bf 8b 11 bd c6 ce 23 bd
       -0.06356432 0.056851715 -0.035533663 -0.039992116
000270 fa 76 9c 3b 97 cb fd bb ac fd 74 3d 98 1b 05 3d
       0.0047749253 -0.007745217 0.059812233 0.03249702
000280 de 09 03 3d 13 c4 81 bd 02 8f 40 ba d7 88 64 3c
       0.031991832 -0.06336226 -0.00073455286 0.013948641
000290 64 2f 22 bd c4 ca f3 bd 05 17 0e 3c a9 a5 9d bc
       -0.039595976 -0.11903909 0.0086724805 -0.019244032
0002a0 d4 43 bc 3b 42 63 06 bc 2f 80 90 bd 60 5e 68 3d
       0.0057453904 -0.008202376 -0.07055699 0.056730628
0002b0 80 1d b1 bc fd c5 6c 3c 9a 62 93 3c 57 8d e8 bc
       -0.021620512 0.014451501 0.017991353 -0.028387709
0002c0 fc 7d e2 bc f0 47 5f bd 40 cf e5 3a bc ff 99 3d
       -0.027647965 -0.054511964 0.0017533079 0.075194806
0002d0 87 84 75 3d 22 b6 f1 bc 01 c6 78 bd 83 2a c0 bc
       0.05994084 -0.029505793 -0.060735706 -0.023457771
0002e0 44 d6 78 bd 38 a0 07 bd 71 4d 08 bd 0c 18 37 3d
       -0.060751215 -0.03311178 -0.03327698 0.044700667
0002f0 a3 ca 31 3d c7 bd 8f 3d 7f e4 81 bc a6 a6 ce bc
       0.04340614 0.07018619 -0.015856026 -0.025225949
000300 aa 32 b3 bc 6b cc 7b 3c 08 2d 58 bd 17 42 92 bd
       -0.021874744 0.015368561 -0.05277732 -0.07141512
000310 fb 22 af bc 92 05 91 3d 9b d8 18 bd 70 c5 f5 3c
       -0.021378985 0.070811406 -0.037315946 0.030001372
000320 4b 0d 99 bb e4 bc 84 bd 6c db 98 3d a2 1d 9b bc
       -0.004670774 -0.064813405 0.074637264 -0.018935028
000330 28 50 e0 3c 72 28 34 3d ba 3a d3 3c 75 04 6a 3c
       0.027381971 0.043983884 0.025784839 0.014283289
000340 90 83 90 bd d0 bd 82 3d 33 d3 62 3d 60 78 93 3b
       -0.070563436 0.0638386 0.055377197 0.004500434
000350 99 21 6d bd 98 02 9e bc 28 52 54 bd 38 4d 25 3d
       -0.05789337 -0.019288346 -0.051836163 0.040356845
000360 a6 0c 2b 3d 89 67 f7 bb 42 bf 22 3d 7a 3d 08 ba
       0.04176011 -0.007550184 0.03973318 -0.0005197149
000370 d8 57 76 bc 96 3b d0 bc 81 5a 82 bd ee da 49 3d
       -0.015035592 -0.025419038 -0.063649185 0.049281053
000380 43 e5 8e bd da 8b cf 3c 7f a1 69 3b b5 e2 13 bc
       -0.06977322 0.025335241 0.0035649238 -0.009026219
000390 58 03 f3 bc e8 6f 25 bc 40 c2 c8 3b d8 af b6 3c
       -0.02966468 -0.010097481 0.006126672 0.022300646
0003a0 2c 86 6a bd 60 04 88 bd 30 f5 a3 bc ff bd 56 bd
       -0.057256863 -0.066414595 -0.020014375 -0.05242729
0003b0 d0 3a c7 bc db 50 11 bd 5f 12 34 bd 8f 7b 19 bd
       -0.024320036 -0.0354775 -0.043962833 -0.03747135
0003c0 78 13 24 bc 59 d7 ca bb e0 26 97 3c d8 71 86 bd
       -0.010014407 -0.006190222 0.018451154 -0.06564683
0003d0 d8 09 a3 3c 2d 41 15 3d 34 86 e9 bc 65 8f 3b bd
       0.019902155 0.03643911 -0.028506376 -0.04579105
0003e0 2d f7 45 bd 74 ee 2d bd 4c 2f 36 3d 60 82 6c 3d
       -0.04833143 -0.042463735 0.0444787 0.057741523
0003f0 ef ea cc bc 82 77 2b 3d 7a f6 65 3d 96 64 ca 3d
       -0.025014369 0.04186202 0.05614326 0.098824665

net.0.bias f4 [32]
000000 80 22 0e bd b5 01 f8 3c 84 a4 4d 3d 98 14 f0 bc
       -0.03470087 0.030274251 0.050205722 -0.029306695
000010 67 fe 1d 3d ad 14 9e 3d 92 7c 68 bd 7b d0 11 3c
       0.038572695 0.07718787 -0.056759425 0.008899803
000020 83 56 25 3d 8b 96 cf ba 78 48 c3 3d 7d 27 3c 3c
       0.040365707 -0.0015837712 0.09535307 0.011484024
000030 7d 12 d4 bc f7 14 19 bd b0 48 a0 3d 40 6e 7d 3d
       -0.025887722 -0.03737351 0.07826364 0.06187272
000040 af cd 7b bd 8a e6 49 3d d8 d2 39 3d 41 9c 18 3d
       -0.061475452 0.049292125 0.045367092 0.03725839
000050 41 a7 6b 3d 2b 2a 58 bd 34 9a 46 bd 04 f1 ae 3d
       0.057532553 -0.05277459 -0.048486903 0.08542064
000060 13 1d 02 bd 5f 65 06 3c af 73 b7 3c e1 fa 2a bd
       -0.03176601 0.00820288 0.02239403 -0.041743163
000070 d3 80 1f 3d 4f 7d 91 3c be 58 91 3d 8c f7 60 3d
       0.038941216 0.017759947 0.07097004 0.05492358

net.3.weight f4 [32, 32]
000000 bb 7d cb bc 4d 98 29 be 2a e0 12 be f2 9e d7 bd
       -0.024840226 -0.16562004 -0.14343324 -0.10528363
000010 17 e1 03 3e 79 27 87 3d f3 b3 9a bd df e9 34 be
       0.12878834 0.06599326 -0.07553854 -0.1766734
000020 6a c2 b7 bd 44 a0 d3 bd 1c 9d a4 3d 86 1a 7b 3d
       -0.089726284 -0.103333026 0.08037779 0.06130459
000030 88 34 a6 3c 61 68 12 3d 07 60 1c be 62 80 43 bd
       0.02028872 0.035744075 -0.15271007 -0.047729857
000040 26 91 cd bc 4a 05 31 bd 71 d0 ba bc 6d 98 26 be
       -0.025093626 -0.043217935 -0.02280447 -0.16269083
000050 46 f5 3b be 27 09 71 bc f9 81 8a bd 32 17 5a 3d
       -0.18355283 -0.014711655 -0.067630716 0.053244777
000060 47 cf 32 bc d9 43 7b 3d 95 3e c3 bd 8e f4 97 bd
       -0.010913677 0.061344 -0.09533421 -0.07419692
000070 a7 d4 0d 3e 7f 31 8b 3d 99 7d 32 3e 2d 6d 03 3e
       0.13850652 0.0679655 0.17430724 0.12834616
000080 36 ae 17 3e 2e 41 29 3e 34 86 ca 3c a4 31 54 3e
       0.1481255 0.1652877 0.024722196 0.20722061
000090 71 0d c1 3d 86 57 0d 3e af 0b 5a bd 05 aa 3f 3d
       0.09426392 0.13802919 -0.0532338 0.046793003
0000a0 4f 6c 3c bd 27 3c 62 bd 39 7e 80 3d fb 39 cd bd
       -0.04600173 -0.055233147 0.06274075 -0.100208245
0000b0 ea 5e f1 3d c2 24 94 b9 aa 05 7a bd 98 e6 a2 3d
       0.117856815 -0.00028256146 -0.061040558 0.079541385
0000c0 ff 7b ac bd d2 6d 54 bd cf be b9 bd 9c 7d 39 be
       -0.08422088 -0.051862545 -0.09069597 -0.18114322
0000d0 a7 b8 ad 3c da 68 f6 bd 87 85 86 3d 8c d0 93 3d
       0.021206213 -0.120317176 0.06568437 0.072175115
0000e0 03 d4 4a 3d d1 aa 22 3d 15 09 3f bb a3 ca 28 be
       0.049518596 0.039713684 -0.00291497 -0.1648355
0000f0 60 54 19 be 2b 36 0a 3e d7 39 cb 3d 41 cb 25 3e
       -0.14973593 0.13497226 0.099231414 0.16190816
000100 0c 1b 51 3c 44 9c 83 3d 5b ae 0e 3d b2 42 a5 3d
       0.012762796 0.0642629 0.034834247 0.08069362
000110 e9 fd 1d bd 9c 6a 16 3e 7c 3a 38 be dc 32 15 3e
       -0.038572226 0.14689106 -0.1799106 0.14570183
000120 ba 1c 87 3c e1 36 41 3e a7 68 1d bd df ff d1 3d
       0.01649319 0.18868591 -0.038429882 0.10253882
000130 9b 0a 0d 3e 8a ab d2 bd 4a 34 0b be 4e 54 d9 3d
       0.13773577 -0.10286625 -0.13594165 0.10611783
000140 6f 7e f4 3d f6 b4 64 b8 35 79 b2 3d 9b c3 dc bd
       0.11938178 -5.452797e-05 0.08714525 -0.10779496
000150 7c 47 c3 bc 53 2b f7 bd 71 48 d5 3d b3 30 fb bd
       -0.023837797 -0.1206881 0.10414208 -0.12265148
000160 d8 f9 68 bd d7 c0 31 be f7 87 01 be dd 1c cf bd
       -0.056878895 -0.17358719 -0.12649523 -0.10112927
000170 34 1b cb 3d 33 ac 9e 3a 1c 5b 81 3d e7 31 47 bc
       0.09917298 0.0012105763 0.06316206 -0.012157894
000180 7f eb 01 3e 78 0e 19 bd 93 11 57 be 9f 4f 92 bd
       0.12687491 -0.037367314 -0.21002798 -0.07144093
000190 8f ca 9e bd 98 aa 3f 3e 26 b4 17 be ba 5a 84 3d
       -0.07753479 0.1871742 -0.14814815 0.06462617
0001a0 81 6f 82 bc 8b c7 72 3d b6 78 45 bc 58 85 48 3e
       -0.01592231 0.05927233 -0.0120527055 0.19582117
0001b0 c9 c4 29 bd 6d 39 b8 bd 96 ac ed 3d 41 d9 13 be
       -0.041447435 -0.08995328 0.11605184 -0.14438345
0001c0 70 c1 68 bd 20 1d 06 3e 94 e7 01 be 24 4c 18 3e
       -0.0568251 0.13097048 -0.12685996 0.14872795
0001d0 5c 5d 5f 3d 95 b6 56 3d ca 7a 33 be 93 79 ea 3d
       0.054532394 0.052420218 -0.17527309 0.1144897
0001e0 3d 28 02 3e a2 09 99 3d 21 f5 63 3d 7e 34 a8 3d
       0.12710662 0.074725404 0.055653695 0.08213137
0001f0 42 07 85 3d e2 6a 07 3e ab f3 04 3d ba a2 60 3d
       0.06495525 0.13224366 0.032458942 0.05484269
000200 e0 40 9e bd 70 86 36 3d 4a e9 d9 3a 5d 93 9e 3c
       -0.07727218 0.044561803 0.0016625312 0.019357378
000210 be 4c bf 3d 1f 7e b3 3d b4 3c 19 3d 19 76 ca 3d
       0.09340809 0.0876429 0.037411407 0.098858066
000220 ec 88 47 3e e3 7b 98 3d d0 98 1b 3e e0 11 78 3d
       0.19485825 0.074455045 0.15195012 0.060563922
000230 48 34 2e bd 89 1e 9b bd 36 e2 61 3e f4 e9 3d bd
       -0.042530328 -0.075741835 0.22058949 -0.046365693
000240 6a 98 9f 3d f7 89 9b bd 70 3c 09 be 88 78 11 3e
       0.077927426 -0.07594674 -0.13401961 0.14206135
000250 3e 52 29 be bb c3 1f 3e 4f 8c 1a 3e da f5 a1 3d
       -0.16535279 0.15602009 0.15092586 0.079082206
000260 cc 03 08 3e dd e2 19 be 63 b6 0a be 05 0b c6 bc
       0.13282698 -0.15027948 -0.13546138 -0.024175176
000270 60 a8 9a 3d 4e c9 10 3c 67 00 22 3e fd 48 1e be
       0.07551646 0.008837057 0.15820466 -0.1545753
000280 c1 d2 2f 3e 45 84 d6 bc 6e 90 e3 3c db 6b f5 3d
       0.1717024 -0.026186118 0.02777883 0.119834624
000290 ef 6a 59 be db 99 03 be 38 6b 16 3e 3f ba 27 3e
       -0.21232198 -0.1285166 0.14689338 0.16379641
0002a0 01 f0 48 3d d8 ea 23 3d 02 2f df bd ca de 9a bd
       0.04905701 0.040018886 -0.10897638 -0.07562025
0002b0 6b 5b b3 bc 17 0a ad bc ae 1d 26 3e c8 9d 54 3e
       -0.021894177 -0.021122975 0.1622226 0.20763314
0002c0 6a c6 3a bb 89 c9 1b be cf 2e 22 be f3 7a 5f 3d
       -0.0028499612 -0.15213598 -0.15838169 0.054560613
0002d0 2f 0e 19 3e ac 15 9d 3d a4 b7 26 be 44 50 4f 3e
       0.14946817 0.07670149 -0.16280991 0.20245463
0002e0 3a c8 65 3d 47 83 f9 bc 08 40 8c 3c ee 2b 71 3d
       0.056099154 -0.030458106 0.017120376 0.058879785
0002f0 ba 94 a3 bc d0 72 b4 3c b8 09 36 3e 27 90 29 be
       -0.01996838 0.022027403 0.17777145 -0.16558896
000300 0e 25 3b 3e 24 34 37 bc 59 78 74 3c 64 5e 9a 3d
       0.18275854 -0.011181865 0.014921271 0.07537535
000310 01 2a 48 be 62 f1 93 3d c2 dc e8 bc d1 74 1d 3e
       -0.19547273 0.072237745 -0.028425578 0.15376593
000320 0c 09 34 3e 3a 6e 07 3e 4e 35 22 be d8 23 04 3e
       0.17581576 0.13225642 -0.15840647 0.12904298
000330 50 f9 63 3d 49 bc 47 3e 00 b6 ed 3d b4 57 6d bd
       0.055657685 0.19505419 0.11606979 -0.05794497
000340 07 cd e3 3d 88 33 a5 3d 6d 8b e0 3d 71 a9 87 3d
       0.1112309 0.080664694 0.10964093 0.06624115
000350 13 e2 12 be 4a 80 33 bd f5 c6 0e be 14 23 be bd
       -0.14344053 -0.043823518 -0.13943084 -0.09284034
000360 6b 9d af bb 5b b2 00 3d 88 26 96 bd aa c2 79 3d
       -0.005359342 0.031420093 -0.07331568 0.06097666
000370 3f b2 07 be ae d4 e9 bd c3 12 06 3e 7b a8 ae bd
       -0.13251589 -0.114175186 0.13093095 -0.08528229
000380 4a 4e 01 bc ca 9b fa 3d a3 cc a5 3d a4 d8 b5 bd
       -0.007892201 0.12236746 0.08095672 -0.088792115
000390 4b 61 b1 3d f4 d9 fb 39 7a d4 22 be a3 7e 3a 3e
       0.08661135 0.00048036838 -0.15901366 0.1821237
0003a0 a2 43 0a be dd ef 15 3b 23 12 f6 ba 1a 10 33 3e
       -0.13502362 0.0022878565 -0.0018773716 0.17486611
0003b0 8e c1 84 3d c4 ad 14 be 01 ee d7 bd 4d 42 1f bc
       0.0648223 -0.14519411 -0.105434425 -0.009720397
0003c0 1e 65 12 be 9f 06 81 bd cf 09 72 3d 06 1a e0 bc
       -0.14296386 -0.06300091 0.059091385 -0.027356159
0003d0 e3 2c 57 3e 65 50 03 be 5f 01 64 3c 63 f6 f3 bc
       0.21013217 -0.12823637 0.0139163425 -0.029780572
0003e0 11 ae bf bd 26 97 10 be 2e 38 09 be 97 4c 23 3d
       -0.093593724 -0.14120159 -0.13400337 0.039867964
0003f0 93 9a 14 bd e5 f7 f8 3d 20 3b ef 3c c3 fc 9f 3d
       -0.036280226 0.12156657 0.029202998 0.07811882

net.3.bias f4 [32]
000000 b1 25 c7 bd 64 65 bf 3d 46 d5 b9 bb 68 03 6e 3d
       -0.09723986 0.093455106 -0.005671176 0.058108717
000010 c9 64 b4 bd 28 d6 28 3e c9 51 f9 bd 77 39 91 bd
       -0.08808286 0.16487944 -0.121738024 -0.07091039
000020 bd 5f 37 3d d3 18 3c 3e f6 93 80 bd 3a ac cd 3c
       0.044769038 0.18368845 -0.06278221 0.025106538
000030 52 30 74 3d 1f 7f 19 be 26 17 dd bd 45 4a 66 3d
       0.059616394 -0.14989899 -0.10795431 0.056223173
000040 e2 82 ea 3d 37 0f 04 3e 05 c1 b5 3d a2 e9 10 3e
       0.11450745 0.12896429 0.08874706 0.14151624
000050 2d 70 ed bd 9e dc 0d 3e 2d 07 47 3d e3 c1 81 bd
       -0.115936615 0.1385369 0.048590828 -0.06335809
000060 10 93 73 bd 60 54 47 3c 7f 02 8b 3c df 6a 37 be
       -0.05946642 0.012166113 0.016968964 -0.17911862
000070 e1 68 33 3e 10 fb 76 3d f6 12 49 bc fc 75 3d 3e
       0.17520477 0.060298026 -0.012272587 0.18502039

net.6.weight f4 [2, 32]
000000 37 91 f7 bc 2e c8 16 bd 42 5c 58 3d 2f 2f d7 3d
       -0.030220611 -0.036812 0.05282236 0.105070464
000010 d0 94 be 3d 03 ef 51 bc ac 0d 1c 3b 6c 36 44 be
       0.093057275 -0.0128133325 0.002381186 -0.19161385
000020 ee 0d fc bd 13 99 f8 3c be ac 32 3e 61 80 7f bc
       -0.123073444 0.030346429 0.17448708 -0.015594573
000030 86 78 e3 bd b7 2b 5e bd 2f fb a8 bd 91 9e 1b be
       -0.111069724 -0.05424091 -0.082510345 -0.15197207
000040 97 97 cb 3d 8e 47 2d 3e 9d ff e6 3c 71 8b 64 3d
       0.09941023 0.16921827 0.028198058 0.055797044
000050 ea 54 f5 3c 78 fb 92 3c 68 3a 77 3d 91 a6 5c be
       0.029947717 0.017942175 0.060358435 -0.21547915
000060 87 e0 5b be eb a8 70 bd 50 35 4e be 9c 28 51 3c
       -0.21472369 -0.058754843 -0.20137525 0.01276603
000070 4e b4 de 3d 3d 5b 8b 3d 94 76 26 bd 26 7e 01 3e
       0.10874234 0.06804512 -0.04064043 0.12645778
000080 a1 a2 b0 39 96 60 5e bd 84 18 3c be 2e ce d8 bb
       0.00033690504 -0.05429133 -0.18368727 -0.0066163754
000090 38 17 54 3d a1 13 12 3e 29 b3 24 3e c4 46 5d be
       0.051779956 0.142653 0.16083969 -0.21609026
0000a0 ef 05 ab 3d 03 e6 75 3d 41 a7 4c 3e f5 b0 9d bd
       0.08350741 0.06003381 0.19985677 -0.076997675
0000b0 98 03 cc 3d 42 a2 9f bd 20 54 19 be 2d 62 08 be
       0.09961623 -0.0779462 -0.14973497 -0.13318701
0000c0 13 36 88 bc 60 b8 b2 bd 4b 1b 4e bd 60 79 70 bc
       -0.016627347 -0.08726573 -0.050318997 -0.014677376
0000d0 da 5c 8f bd 1d fa 3a 3e b0 74 43 3e ac 00 10 be
       -0.07000132 0.18259473 0.19087481 -0.14062756
0000e0 1d f5 0d be 10 56 4f 3e 16 87 98 bd f9 9d 5a bd
       -0.13863035 0.20247674 -0.074476406 -0.05337331
0000f0 1c 0d cb 3d 75 76 ed 3c b4 31 5c bd 2e 67 23 be
       0.0991461 0.028987149 -0.053758338 -0.15957329

net.6.bias f4 [2]
000000 e1 16 9c bd bc e3 a8 bd
       -0.07621551 -0.08246562
