models/surrogate_latest.pt (torch, 84621 bytes, 8 tensors)

net.0.weight f4 [64, 54]
00000000: 005c d23d ae25 173e ad8b d9bb c94e 63bc
00000010: f0c6 3ebe 043e b2bd 3b23 91ba f854 d7bc
00000020: 571c ee3c 2e18 b83d 7657 db3d 1e7f 08bb
00000030: 0841 97bc e4b4 a13d d0d6 7a3c 7c2f 303b
00000040: 3181 85bd c66b 093e e27e 00bd 660c c7bd
00000050: 3ce4 0bbe a66e 10be 56a5 81bd 628c 62bd
00000060: 103f 223c 5e8c 033e 58e5 c9bd 7049 0a3e
00000070: d857 f43d a779 bdbd 1f3d 023e 85bd ef3c
00000080: 36a2 7abd 5443 72bd 4287 013e 50cf eb3d
00000090: 1809 71bd be93 c2bd 7451 9b3a 536b 4c3d
000000a0: f053 68bc c889 083d e465 793d 37ff fdbd
000000b0: 007d 453d fd1a e53c 5ff7 a53b 8b6f 483d
000000c0: dea2 d23d c268 e2bd feff 6cbd fe55 f23c
000000d0: 213a 4d3c 1bd8 f03c 0c0c 45bd 8f54 ae3d
000000e0: 9a68 37be 85a5 b6bd 431f 283d 0b8c 4f3d
000000f0: b015 c7bd 5719 233d 24b8 7f3d 87a9 b9bd
00000100: b008 02bc c214 3e3d 6e9f 3b3e 538d 0f3d
00000110: c44c a8bd 4ea8 7ebd 8953 65bc f2f8 86bd
00000120: a947 48be 0422 5d3c 051a dabc be61 d6bc
00000130: f60e 25bb da53 913d d4e7 b5bc 5822 f93d
00000140: 26dc 6cbd 2871 3a3d 4ddf 8b3d a6b8 2b3e
00000150: 787e 9dbd fc8e 46bd dc6c a1bd bc95 0a3d
00000160: 1aba 61bd b49a c23d d398 fcbd 8f6d 913b
00000170: 2f71 b03d 8149 0a3e 606c f9bd 8dd6 ccbd
00000180: 8408 893d eb7c 4bbd 38dd e5bb ac40 4e3d
00000190: c19c 433a 1348 103d 32ad 06bd f833 ee3c
000001a0: fe9c f8bd 2292 ddbc e83f 0a3d 7b3d 22be
000001b0: a7f0 0f3e 5af6 cfbc 4f7f bdbd 9e5f e3bd
000001c0: e5fe 08bd 933f 2fbe 1638 1fbd 37a5 6fbd
000001d0: 6e89 d03d 50cb a83d e0ef 8c3c ec64 9a3b
000001e0: da1d 9b3d 7d6c 1a3e 38d8 0cbd 0207 133d
000001f0: a555 80bc 37d3 af3d 8a2d 9dbd ef72 553e
00000200: 4c10 79bd 16cc 763d 52af bbbd 6812 d5bd
00000210: 9694 a63d 5f7a c6bd 2d7b bebd 3bcc febd
00000220: 277f 66bd 4ee9 923d 19c6 6cbb d402 38bc
00000230: c8ad 643d f406 503d 6853 313d e4ae 5c3d
00000240: 73ce cc3d 2949 44be 99f6 233e 3db2 fabd
00000250: 8479 8c3d ac82 03bd ec42 5dbd 80d9 ed3c
00000260: 1f18 143d 9fb7 5cbc d873 c43c d172 b83d
00000270: b463 df3d 2040 d13c f25d c1bd ad7b 723d
00000280: 135e c2bd 459b edbc fee5 73bd 7321 a73d
00000290: f5ef 53bd c24f 05be 0b1f 323e 3708 973d
000002a0: 1af3 f1bd 26cd 043e 1fff 0abe b824 ddbc
000002b0: f529 a4bd 1c54 9dbc c863 5cbd d89d f93c
000002c0: f09e 063e 21c1 f6bd bb19 5c3d 2190 4bbc
000002d0: 8ef9 a2bd f1d0 ea3d dd87 d23d 8374 3b3c
000002e0: 2e26 7abd 1c8f f23d e0e2 a03c 27d9 08be
000002f0: 92ee bf3d b04a c5bd 5eaa e03b 4a4f 093e
00000300: f3cb 7f3d e264 be3c 1887 cbbc c2d4 913d
00000310: 94b6 103d f609 41bd 2f2a 86bc fe7e ba3d
00000320: 5dca 11be b1bf b6bd 0008 fcb8 706d c0bd
00000330: f833 edbc bad7 0b3d 3c1e 10be 62fc b2bd
00000340: 874f c5ba ca99 de3d 2084 07bc 3e32 70bd
00000350: 18da 343d 4e54 983d 2b36 01bd 9e9a 97bc
00000360: ffb4 a23d 557e 033e 61bd ce3b da79 f2bd
00000370: ddf5 e43d 7e75 dbbd 8085 b5bd 0049 84bc
00000380: f9be 233e 52d0 ae3d eaf9 a43d c2fa 9c3d
00000390: 94b8 253e 541f aebd 2025 9d3d b2f2 8bbd
000003a0: 0b86 6dbd f430 083e 8b71 2e3d ae1f 543e
000003b0: 7d73 8dbb a4de 9e3c 268c 373c 4682 70bd
000003c0: e40c f73d a257 87bd 8c6d 273d 84b7 b73d
000003d0: 0522 4fbd 8275 b13d 5913 a03d 3634 e23c
000003e0: 18b4 f5bd a822 d93d 50ae 083e a1fe 95bd
000003f0: 6397 6f3d 4b53 c4bd 52a6 11bc 8b30 3abd
0.10271454 0.14760467 -0.006638965 -0.013873764 -0.18630576 -0.08703235 -0.0011073122 -0.026285633
0.029066248 0.08988987 0.10710041 -0.002082772 -0.018463627 0.0789583 0.015310004 0.0026883772
-0.06518782 0.13420019 -0.031371005 -0.09719162 -0.13661283 -0.14104709 -0.063303635 -0.05530966
0.009902731 0.12846515 -0.09858197 0.13504577 0.11930817 -0.09251719 0.12718628 0.029265175
-0.061189853 -0.05914624 0.12649253 0.11514151 -0.058846563 -0.09500836 0.0011849836 0.04990704
-0.0141801685 0.033334523 0.060888186 -0.12402194 0.048214912 0.02796697 0.0050648893 0.0489345
0.10284971 -0.11055137 -0.05786132 0.02958202 0.012526066 0.029399922 -0.048107192 0.08512222
-0.17910996 -0.08918289 0.04104544 0.050670665 -0.097209334 0.039819088 0.06243147 -0.09065538
-0.007936642 0.046406515 0.18322536 0.035046887 -0.08217767 -0.062172227 -0.013996967 -0.06590451
-0.19558586 0.0134968795 -0.026623735 -0.026169654 -0.002518592 0.070960715 -0.02220527 0.12164754
-0.057827137 0.04551807 0.068297006 0.16769657 -0.076901376 -0.048476204 -0.078820914 0.033834204
-0.05510912 0.095021635 -0.123338364 0.004438109 0.08615338 0.13504602 -0.12178874 -0.1000186
0.06691077 -0.049679678 -0.0070148967 0.050354645 0.0007462018 0.035224985 -0.032880016 0.029077515
-0.12139319 -0.02704722 0.033752352 -0.15843765 0.14056645 -0.025386024 -0.09252798 -0.11102222
-0.03344621 -0.17114095 -0.038871847 -0.05850717 0.10182463 0.08241904 0.017204225 0.004711738
0.07574053 0.15080447 -0.03438589 0.035895355 -0.015665838 0.08585208 -0.076747015 0.20844625
-0.060806558 0.060253225 -0.09164299 -0.10403901 0.08133809 -0.09691309 -0.09300838 -0.124412976
-0.056273606 0.071734056 -0.0036128818 -0.011231143 0.055829793 0.05078788 0.043292433 0.053877726
0.100003146 -0.19168533 0.16012038 -0.122410275 0.06859115 -0.03210704 -0.0540189 0.029034376
0.036155816 -0.013471513 0.02398102 0.090062745 0.10907689 0.025543272 -0.09441747 0.059199978
-0.094905995 -0.029004702 -0.05954551 0.08160677 -0.051742513 -0.13018706 0.17394654 0.07374614
-0.11813946 0.12968883 -0.13573883 -0.026995048 -0.08015815 -0.019205146 -0.053806096 0.030470774
0.13146567 -0.12048555 0.053735476 -0.0124245 -0.07957755 0.11465634 0.1027982 0.011441353
-0.061071567 0.11843702 0.019639432 -0.13364087 0.093716756 -0.09633386 0.006856247 0.13409153
0.06245036 0.023241464 -0.024844691 0.071206585 0.03533037 -0.04712864 -0.016377537 0.09106253
-0.14237352 -0.08923281 -0.000120177865 -0.093958735 -0.028955445 0.03414128 -0.14074033 -0.087395445
-0.0015053608 0.10869177 -0.008271247 -0.058641665 0.044153303 0.07437955 -0.0315458 -0.018506344
0.079446785 0.1284116 0.006309197 -0.118396476 0.11179707 -0.10715769 -0.08863354 -0.01614809
0.15990819 0.08535828 0.0805548 0.07665016 0.16183692 -0.08502069 0.07673097 -0.068334
-0.05798916 0.13299924 0.04258875 0.2071521 -0.004316746 0.019393273 0.011202848 -0.05871799
0.120630056 -0.066085115 0.040875956 0.0897055 -0.050569553 0.08664991 0.0781619 0.027612787
-0.11997241 0.10602313 0.13347745 -0.07323957 0.058493983 -0.095861994 -0.0088897515 -0.04545645

net.0.bias f4 [64]
00000000: 780f 47be 4d20 f9bd 420c 92be b7d5 85bb
00000010: 78c1 bcbd 128d 963c 521a 30be bc34 95bd
00000020: 6acd 8bbe bab4 8cbe 8c0d 00be f4e7 86be
00000030: 6d20 a0be a5bc e3bc f132 20be ec10 07be
00000040: ec6c 84bd 76f5 09be c205 33be 9f3b 4bbe
00000050: 4acd 6abe 7c4d 59bd a964 ffbd 6ee4 f6bd
00000060: 3282 a8bd 612d 03be 80ca 70be b163 1fbe
00000070: 0678 16be db28 7cbe 4a54 9bbd d320 ee3c
00000080: 4592 0bbe 19cc a7bd b682 85be 18de 17be
00000090: 096c 41be 01eb 36be cad7 9f3d f0b7 91bd
000000a0: 6ca1 c5bd c5fe 82be 5843 abbd 6c7f 07be
000000b0: a2bd 18be 7fa7 4abe c70a 68be 2687 3dbe
000000c0: 0066 8b3c dae8 28be f0d6 44be f4bd 0bbd
000000d0: 92ff d7bc 8b3e 40be 6309 b4bd 3c27 38be
000000e0: 4f93 7abe d01a 43be 5605 9b3c 7414 f6bd
000000f0: e23b e839 cf36 0ebe 6e4a 0bbe ec45 30be
-0.19439495 -0.12164364 -0.28524977 -0.0040843147 -0.09216589 0.018377814 -0.1719754 -0.07285449
-0.27305156 -0.27481633 -0.12505168 -0.2634884 -0.3127474 -0.027799914 -0.15644433 -0.13190049
-0.06466088 -0.13472542 -0.17482665 -0.19846962 -0.22929874 -0.05305241 -0.12470371 -0.12055288
-0.08227958 -0.1281028 -0.23514748 -0.15565373 -0.14694223 -0.2462496 -0.07584436 0.029068386
-0.13630016 -0.081932254 -0.26076287 -0.14830816 -0.18888868 -0.17863084 0.0780483 -0.071151614
-0.096499294 -0.25585 -0.08362454 -0.13232201 -0.14916089 -0.19790457 -0.22660361 -0.18508586
0.01701641 -0.16495076 -0.19222617 -0.0341167 -0.026366983 -0.18773858 -0.08790853 -0.17983717
-0.24470256 -0.19053197 0.018923443 -0.1201562 0.00044295104 -0.13888095 -0.13602611 -0.17214173

net.3.weight f4 [128, 64]
00000000: 2b33 acbd c011 e73d 2152 0abd 8229 cbbd
00000010: 62aa 8dbd 48bc c73d 571c e5bd dc5e abbd
00000020: db5e 99bc 0c11 6c3d 2336 5a3c 122e 263e
00000030: 5869 2bbc be59 97bd a219 a83d 7b65 ac3d
00000040: 5959 23bd 6187 33be 7aae 46bb 4336 c0bc
00000050: 9058 873d 6fb9 593c dbfd 02be 9402 ccbd
00000060: 1a9d d23d f9e4 3a3d f4e4 f53d dbf5 0ebc
00000070: 8838 c1bd dfc2 01be e88d 623b 3192 313c
00000080: e3c8 5b3d 7ed9 003d 1eb1 36bd 0d81 fabd
00000090: 4e97 01be eaec 08bd ba96 d5bd 5060 a6bd
000000a0: 906e 843b 123e 74bd ec8a 363e 3b52 d43c
000000b0: 26ee edbb 6963 34be 265a 8ebd 8308 a93d
000000c0: 95a9 243e becc 813d 5eb9 40be 9482 99bd
000000d0: a7c0 0ebd ebfb 563d 8c8a 8b3b e572 d3bc
000000e0: 4b2b f8bd 26f6 f03c 1aad c9bb 6680 8d3d
000000f0: 9c42 e63c 3d23 e83d 1ddd 323c b29c 4cbd
00000100: 6082 52bd 32bb 2ebe 27d1 c43c fe10 0fbe
00000110: 834e 0ebd 0f70 8d3d 2854 b83d b694 0c3d
00000120: 003c 583d 2223 4f3e d4f0 f13c 0171 16be
00000130: 4b35 063e f7f5 103d d8ad 3ebe 8f38 1d3c
00000140: eea6 823c cd3d f9bc ea01 6a3d 8ac6 8dbd
00000150: 3516 14be 2856 50bd c201 acbd e5e5 083d
00000160: e0e9 a1bd 77ba 31be faba ddbd e72a d53c
00000170: a26a 943c c96a e83d 64e5 c4bb d9fa 39bc
00000180: 8f84 7ebc 6f88 823d b583 8ebd 8735 393c
00000190: 26af b73d d0f2 813d 327f 90be a5e5 c7bd
000001a0: a3f6 56bd 86ba fb3c 3bfe 3dbe 9262 29be
000001b0: 5671 783d 4b9e 60be 55dd bd3d 3717 893c
000001c0: a6b2 c53c 6d88 dbbd b61c 1d3d 2900 2f3d
000001d0: a50d 3ebe 1317 3e3d 741a 8cbd b1fc 23be
000001e0: 7f32 63bd 00d7 aebd e782 783c 7dfd dbbb
000001f0: 4852 da3d 8acf a2bc 53fe 4e3d bfed a6bc
00000200: afd0 3b3d b974 133c dffb 173e 96bf 24be
00000210: 5ac3 e2bd 6b57 37bd cc31 93bd b1f7 e93d
00000220: a9ae 5a3d 1248 4e3e dd74 843d 768c 13bd
00000230: 2661 2e3d c895 6d3d ba0b 80bd 8f22 d5bd
00000240: 80cc f03c d2d1 18be 3248 b2bd 0ec6 cd3c
00000250: 224e 07be 13c8 2a3d e866 98bc c0d9 e43d
00000260: 6a25 233d 0e69 39bd 27da cfbd 9529 d63d
00000270: 9d08 143d 2d8e 41bd 95aa ac3d 2d48 afbc
00000280: b268 45bc 6b73 a1bd 4063 123d 4824 303d
00000290: dfcd 323d 65a3 acbd cd2a 943d c4cb b13d
000002a0: 87bd 183d 2059 b83c 52b5 88bd 1401 19be
000002b0: a30b 1fbe 3bfa 633d 57bc 013c 2ef9 bfbd
000002c0: c122 b13c 2f2c 2ebd 78c3 51be f76d d73d
000002d0: 7224 46bb e1e5 f73c 06a2 2a3d ce18 16be
000002e0: 06c1 42bd 03f9 69bc 42f0 313d cc82 5f3d
000002f0: 848d 1bbd efc2 20bd 5c9d 0cbe af87 12be
00000300: 4bd3 033e b9fc c0bd 9dc5 75bc 000d 9cbd
00000310: 00da 4a3d 50c2 43be f85b 6cbd d231 fe3c
00000320: 8979 44bd 0821 3cbe 097c 0d3d 6a1b deba
00000330: 4391 e6bc ff62 43be 9637 0f3d c4a2 b63d
00000340: 1ab8 aa3d 2375 e43c 81f4 20be 94f5 393d
00000350: 888c ed3d aecc 06be 7a2a 22be dace 9a3c
00000360: 5f9d 9f3d ffb3 c83d 552d 9fbd 0b0d 6e3d
00000370: 3e0a 133d 3458 6dbd 0873 b4bd f601 e8bd
00000380: 4626 3c3d 2b40 ba3b 8ba1 93bd 9d0c 873d
00000390: 07f1 423c 82f7 c1bb 3e4d 54bd 0585 1cbe
000003a0: 331a f4bc f44b f1b8 1f1d 213d 39b2 3d3c
000003b0: bb59 043d 6d14 8c3d adf1 753c 8aa4 dfbc
000003c0: 8b20 cbbd 4ffd 003e c3a2 313c f65f 2fbe
000003d0: 57bd 2cbe bc9a febd 7bdc a13d 5c32 9d3c
000003e0: ba0d 593d 7f1b 67bd 5982 9e3d 8616 3fbe
000003f0: f5f1 3ebd c906 3abe 553c 84bd 77e3 f2bb
-0.08408197 0.112826824 -0.03376973 -0.09920026 -0.069172636 0.09752709 -0.11187046 -0.08367702
-0.018721988 0.057633445 0.013318571 0.16228512 -0.010462128 -0.07390164 0.08208014 0.08417793
-0.03988013 -0.17532112 -0.0030316398 -0.023463374 0.06608689 0.01328884 -0.1279215 -0.09961429
0.10283871 0.04562852 0.1200656 -0.008725609 -0.094346106 -0.12671994 0.0034569446 0.010838077
0.053658377 0.031457417 -0.044602506 -0.12231646 -0.12655374 -0.033429064 -0.104291394 -0.08123839
0.0040415004 -0.059629507 0.17826432 0.025918117 -0.0072610555 -0.17616047 -0.06950788 0.082535766
0.16080315 0.063378796 -0.18820712 -0.07495609 -0.034851696 0.05248634 0.0042584594 -0.025811622
-0.121176325 0.029414248 -0.0061546685 0.06909256 0.028107934 0.11334846 0.010916975 -0.049954124
-0.051393867 -0.17063597 0.024025513 -0.13971326 -0.034742843 0.06906139 0.090004265 0.03432151
0.052791595 0.20228246 0.029533781 -0.14691545 0.13106267 0.03539082 -0.18621004 0.009596004
0.015948739 -0.030424977 0.05713073 -0.06922634 -0.14461596 -0.050863415 -0.08398773 0.03342237
-0.07905936 -0.17356287 -0.108266786 0.026021434 0.018117253 0.11348493 -0.006008791 -0.011351311
-0.015534534 0.06373679 -0.06958715 0.011304266 0.08968954 0.06345141 -0.28222042 -0.09760598
-0.052481305 0.03072859 -0.18554012 -0.16541508 0.06065496 -0.21935384 0.09270731 0.016734703
0.024133038 -0.107193805 0.03835746 0.042724762 -0.18559892 0.046408724 -0.06840983 -0.16014363
-0.05546808 -0.08537102 0.015167928 -0.006713568 0.10660225 -0.019874353 0.05053551 -0.020377038
0.045853313 0.008999997 0.14842175 -0.16088709 -0.110724166 -0.044761103 -0.071872324 0.114241965
0.053389225 0.2014468 0.064676024 -0.036022626 0.042573117 0.05800417 -0.06252237 -0.10406982
0.029394388 -0.1492379 -0.087051764 0.025118854 -0.13213399 0.041694712 -0.018603757 0.11174345
0.039830603 -0.045266204 -0.10149031 0.1045715 0.036141027 -0.04725473 0.084309734 -0.02139672
-0.012048887 -0.07883342 0.035739183 0.04300335 0.043653365 -0.084296025 0.07234726 0.08681443
0.037290122 0.022503436 -0.06675209 -0.14941818 -0.15531783 0.05565856 0.007918439 -0.09373699
0.021623017 -0.042522606 -0.20484722 0.10519021 -0.0030234125 0.030260982 0.041658424 -0.146579
-0.047547363 -0.01428056 0.04344202 0.054568097 -0.037976757 -0.039248403 -0.13731903 -0.14309572
0.1287357 -0.09423203 -0.015000728 -0.07619667 0.049524307 -0.19117093 -0.057704896 0.031029616
-0.047967467 -0.18371975 0.034542117 -0.0016945426 -0.028145438 -0.19080733 0.03496512 0.08917764
0.08335896 0.027887886 -0.15718271 0.045400217 0.1159907 -0.13164017 -0.15836516 0.018897463
0.07793688 0.097999565 -0.07772318 0.058117907 0.03589844 -0.057945445 -0.08811003 -0.11328499
0.045934938 0.005683919 -0.07208546 0.06594203 0.011898286 -0.005919398 -0.051831476 -0.15285118
-0.029797649 -0.00011505923 0.039334413 0.011578136 0.032312136 0.068398334 0.015011233 -0.027300138
-0.099183165 0.1259663 0.010842028 -0.1712645 -0.16869102 -0.12431857 0.079033814 0.019189052
0.052991606 -0.056422707 0.077397056 -0.18660936 -0.046617467 -0.18166651 -0.0645682 -0.00741237

net.3.bias f4 [128]
00000000: 911e ddbb 9f5e a73d f2e1 693d b2a7 1d3d
00000010: d2c1 f6bc 180a 7b3d 4e0c 903d 2dbc bbbc
00000020: 3007 c83d 56df 0b3e 52d5 f0bc efdd 6c3d
00000030: 0153 093e 2766 15bd 8cec 91bd 69dd 823d
00000040: 8b59 9d3d c0ad 573d 7ee7 84bd 2d54 693d
00000050: e272 c9bd c095 ef3d 7a8f d63c 67af aabd
00000060: a037 763d 9f1f 163d 31ba 083e a234 ef3d
00000070: c184 12bd 42fb d5bc 2728 923d 1dc4 3e3d
00000080: 823b 083e ce9c d93d b07e 723a 50bc b93d
00000090: 7501 a93d ad96 9b3c ee9e 0fbe aa36 de3d
000000a0: 141b e93d 14ad a5bc ada5 0f3c 1cf4 033e
000000b0: 56a7 1f3e c396 92bd 44de 293c 1bf0 7ebd
000000c0: de15 b13c 1fba 0b3e a2de 9b3c f15f 073e
000000d0: e2e6 b03d a8a2 0cbd 7493 12be 7be1 e73d
000000e0: fa4e 163e f3da b8bc 0026 103e 3946 7cbc
000000f0: 2c8b 04bd e25c d83d ffa5 a93d f698 493d
00000100: fecf 16be 9681 c83d 65d6 133e 941e df3d
00000110: 2ba9 c43d d194 283e 3875 3b3c df03 1b3d
00000120: 7577 6d3d 2ab0 b6bc 697d babd a579 233b
00000130: 17a8 d7bc cc8e e43d 19a1 98bc 26ff 213c
00000140: 2008 eebc 0359 16be bcc9 313d ce68 98bd
00000150: 59dc bf3c 7690 f83d b747 13be 5a3e 46bd
00000160: 050f d2bd 1c4c b93d a26d b83b 8afb 3d3c
00000170: 7a4b 88bd d5a8 86bd 2875 033e 8e8c 47bc
00000180: deff 4c3d 8a52 c2bd 4c56 c2bd 2c5e c63d
00000190: 7231 c83c 64f0 053e 2070 ef3c bb93 553d
000001a0: 4ed1 d7bc 4c98 a7bc fba8 db3d 4555 a9bd
000001b0: fe62 e63d 0b18 d0bb dd46 b33d 30bc 1a3d
000001c0: 30e0 0f3e ecf2 05be e38f 0d3d 5c3e e83d
000001d0: 55a6 88bd 97af a43d 167e 063c 2815 553b
000001e0: 8607 cdbd e741 08bd baa8 543c cea8 7f3c
000001f0: 91d1 88bb 2e41 17bd 4e6a a63c 3a5c 7d3d
-0.0067480286 0.081723444 0.057100244 0.038490005 -0.030121718 0.061288923 0.07033597 -0.022916878
0.09766996 0.13659415 -0.029398594 0.05782884 0.1341057 -0.036474373 -0.07125196 0.06389887
0.076830946 0.052655935 -0.06489466 0.056965042 -0.09836365 0.116984844 0.026191462 -0.083342366
0.060111642 0.03665125 0.13352276 0.11679961 -0.035771135 -0.026120786 0.07136565 0.046573747
0.1330395 0.10625611 0.00092504453 0.09069121 0.08252231 0.018992746 -0.1402547 0.1085027
0.11382118 -0.020224132 0.0087675275 0.12886089 0.15591177 -0.07157662 0.010367934 -0.0622407
0.021616872 0.13645218 0.019027058 0.13220192 0.086377874 -0.03433481 -0.14314061 0.11322304
0.14678565 -0.02256534 0.14076996 -0.015397602 -0.032359287 0.10564591 0.08283614 0.04921814
-0.1472778 0.097903416 0.14437254 0.10894504 0.09602579 0.16463019 0.011441521 0.03784549
0.05797525 -0.022300798 -0.09105951 0.0024944332 -0.026325269 0.11160049 -0.018631505 0.009887492
-0.029056609 -0.14682393 0.04340528 -0.07441865 0.0234205 0.12136929 -0.14382826 -0.048399307
-0.10256771 0.0904772 0.0056283036 0.011595616 -0.06655021 -0.06575171 0.1283766 -0.012179507
0.0500487 -0.09488399 -0.09489116 0.096859306 0.02443764 0.13079983 0.02922827 0.05214284
-0.026344921 -0.020458363 0.1072559 -0.08268217 0.1124935 -0.0063505224 0.087537505 0.037777126
0.14050364 -0.13080949 0.03456105 0.11340019 -0.0667235 0.080413036 0.008208772 0.003251383
-0.100112006 -0.033265974 0.012979681 0.015604211 -0.004175373 -0.036927395 0.020314362 0.061855532

net.6.weight f4 [64, 128]
00000000: 9675 663d d508 693d d6ec 873d 22e4 ad3b
00000010: 844c 053d 2031 5a3d 8299 043d d47a 943a
00000020: e197 cf3d 2f5c d73c dd4d 113d f696 083c
00000030: d083 0d3d 5db8 8c3d 92ce 253d d0fe 60bd
00000040: 0d0f 133d 541e e43c dd0a 01bc 7d81 d4bd
00000050: 8039 90bd c5b2 77bd f905 92bc f06f 53bd
00000060: 4fd5 2d3d 1c45 c8bd a573 6c3e f2bc 10be
00000070: fa5b 393d d343 2e3d 621c b8bd 0a6d 833b
00000080: e870 25be 1d2b f73d 7c46 813d af1e ae3d
00000090: 798e bdbc 99e0 bbbd 4cec 9bbd ee0f e43d
000000a0: 83b7 033c 2f7f f93d fcae 1b3e cde8 06bd
000000b0: 41e3 0b3e 70bd 8d3c abb0 ae3d 908d d8bd
000000c0: 7b40 713d 2c66 893d c87b 9d3d 2f77 0e3e
000000d0: 03fb b7bc a02f 24be 2539 3abd 5cc3 6bbc
000000e0: 6f9c 93bc 2d4f 69bb 04c1 83bd d8b4 7cbd
000000f0: 591a dfbd 3402 d0bc d227 fdbc 0655 3f3e
00000100: fe3a 163c 33dc 40bb 2654 8fbd 2583 c8bd
00000110: f06e c1bd 9585 34be 06d3 263c cfab dabd
00000120: 7a24 74bd fcbd aabc 5bf1 093d b95c eebc
00000130: a27d 16bc 4591 e7b9 4839 f53c 1093 5ebd
00000140: 5b6c f2bb 9598 e33c 22fd 8b3d ef91 083a
00000150: a818 bebd 3118 11bd 250c ccbd c9eb 6bbd
00000160: 665f 2b3c 9430 3cbe 0646 a5bd 9891 c63d
00000170: fd0f 583d b10a 42bd 1810 b43d e7f4 53bd
00000180: 5e23 fc3c 092d 84bb 593e 463d 1993 ce3d
00000190: 105f 05be fb0f 673d 8683 b7ba 08f1 26bd
000001a0: e77b c2bc 52b3 1a3d a947 a83c ca6e 503a
000001b0: 3268 77bc 9d74 453d dfe5 82bd 6dc2 553d
000001c0: 1b26 a03c 2427 67be d325 363e 2ed7 833d
000001d0: 5901 243e 15ad c8bd c2b2 9fbd 3f80 6abd
000001e0: 50a2 1f3c ba99 21bd 9e59 4ebd 3e80 353c
000001f0: 62b1 88bc fa51 503c c4c8 893c 9eae 6fbd
00000200: 1442 25bb cd46 813d 9ce2 2d3d f5d8 ffbd
00000210: 7469 933d e81c a73c a045 40bd 1378 2fbc
00000220: 3ff9 d2bb a929 5fbe 50b3 d13c b62f aabd
00000230: 8012 4abd bd15 dcbc e0fd efbb cdb7 d03c
00000240: f0de 1e3d 2d7c e4bd 13cf 30be fc73 f13c
00000250: b9c2 8c3b dc12 5e3d c99a 1ebe 7e1e 9cbd
00000260: c989 f5bd 8137 fbbd 1fb7 da3d a0fa b63a
00000270: 729f c9bd 65bf 98bd b173 24be 1c2a d7bc
00000280: 6963 2cbe 3d98 a63d ac95 bf3b a6ec 973d
00000290: 2c5e 8fbd b7a4 3dbe dbd7 78bc 3a31 543d
000002a0: 0183 4bbd a8ae 81bd 5cd7 61bc 406c 1abe
000002b0: cab0 5abc d0ef 2cb9 b12f ce3c 814e 2ebe
000002c0: 6f02 f33d 1b9c 443d 9ddb bb3d 17b2 d63d
000002d0: 969e 63bd a942 72be c999 c33d c873 e9bd
000002e0: 2066 e23d bf09 b4bc 8489 acbb fdf8 80bd
000002f0: b670 753c 86ca c83b 0508 fb3d ebca a03b
00000300: 34eb dabd 8a1b d1bd fc0d d0bc d48d 01bd
00000310: 96b4 62bd c66e e8bd 9d01 00bc 6ecc 3c3c
00000320: 4ccf 25bd 04bb 9e3d e053 0cba 2913 d93c
00000330: ae1c 2cbe 8fc8 543b 81e3 033e 94f1 dfbd
00000340: 8e6e 4c3d 73bc c8bc 3075 a13d a78e 013d
00000350: 1822 1dbe 9538 e1bd fc11 30bd 9241 a93d
00000360: 6b59 073d 168e d8bd a656 d6bd 7cc9 633d
00000370: 622d 8dbd 61af edbc 65ad 473b 23e5 f3bc
00000380: 5e84 a63b 1047 c3bd 154b 24bd a58f 883c
00000390: 2214 7bbb ed5c 333d eaea 85bc 8748 0e3c
000003a0: e91e 0a3a 9509 c13a 7a6a 043d 1346 ae3b
000003b0: cfd8 ae3d 7ed1 afbc aa91 063d c57e 23be
000003c0: cf9a 1dbd 89a3 86bd cb46 df3d 405a 87bc
000003d0: 3e9c c13d 23ed 0e3d e183 18be 25ba 083d
000003e0: 28de 12be 70ac 843d 232a 2bbe ea86 063e
000003f0: 2354 233c d81e c8bc 73b2 2e3d 5b29 c23d
0.056264482 0.05689319 0.0663697 0.0053067366 0.032543674 0.053269506 0.03237296 0.001132811
0.101363905 0.026289074 0.035474647 0.008336773 0.034549534 0.06871102 0.040480204 -0.054930508
0.035903025 0.027846493 -0.007876125 -0.103762604 -0.07042217 -0.060473222 -0.017825114 -0.051620424
0.042439755 -0.097788066 0.2309099 -0.14134577 0.04525373 0.04254515 -0.089897886 0.004010801
-0.16156352 0.1206877 0.06312272 0.08501946 -0.023139225 -0.09173698 -0.076134294 0.11135851
0.008039358 0.121824615 0.1520347 -0.03293686 0.13660909 0.017302245 0.085297905 -0.10573876
0.058899384 0.06708941 0.07689625 0.13912652 -0.022458559 -0.16033792 -0.045464654 -0.014389839
-0.01801893 -0.003560017 -0.06433299 -0.061695904 -0.10893697 -0.025391676 -0.030902777 0.18684778
0.009169338 -0.0029428124 -0.06998472 -0.09790639 -0.09444988 -0.17629083 0.010182148 -0.10677301
-0.0596051 -0.020842545 0.03367744 -0.029096948 -0.009185227 -0.00044167988 0.02993454 -0.05433947
-0.007398171 0.027782718 0.068353906 0.0005209734 -0.092820466 -0.03542346 -0.09963254 -0.05759791
0.0104597565 -0.18377906 -0.080699965 0.096957386 0.052749623 -0.047373477 0.08792132 -0.05174723
0.030778583 -0.004033689 0.048399303 0.100866504 -0.13024545 0.056411725 -0.0014000989 -0.04075721
-0.023740722 0.03776867 0.020541983 0.0007951079 -0.015100526 0.048206914 -0.06391501 0.052187372
0.01954942 -0.22573525 0.17787866 0.06437527 0.16016139 -0.09798638 -0.07797767 -0.05725121
0.009743288 -0.039453246 -0.050378434 0.011077939 -0.016686145 0.012714857 0.016819365 -0.058516137
-0.0025216388 0.06312332 0.04245244 -0.12492553 0.07197848 0.020399526 -0.0469414 -0.01070978
-0.006438404 -0.21793236 0.025598198 -0.083098814 -0.04933405 -0.026865834 -0.0073239654 0.025478268
0.03878683 -0.11156497 -0.17266493 0.029474251 0.0042956737 0.054217204 -0.15488733 -0.076230034
-0.11989171 -0.12266446 0.10679459 0.001396019 -0.09844865 -0.074583806 -0.16059758 -0.026265197
-0.16834797 0.08134506 0.0058466997 0.07418184 -0.07000384 -0.18519865 -0.015188183 0.05180476
-0.049685482 -0.06332141 -0.013784256 -0.15080357 -0.013347814 -0.00016492535 0.025169225 -0.17022134
0.118656985 0.048000436 0.09172747 0.10483187 -0.05557116 -0.23658241 0.095508166 -0.11399037
0.11054635 -0.021977304 -0.0052654166 -0.06297491 0.014980486 0.0061276583 0.12257389 0.004907002
-0.10689393 -0.10210331 -0.025397293 -0.0316294 -0.055348 -0.11349253 -0.007812885 0.011523349
-0.040480897 0.07750514 -0.00053530745 0.026498394 -0.16807815 0.0032468175 0.12879755 -0.10934749
0.04991012 -0.024503922 0.0788368 0.031630185 -0.15345037 -0.1099712 -0.0429859 0.0826446
0.03304426 -0.10573976 -0.10465746 0.055612072 -0.06893422 -0.029014291 0.0030468341 -0.029772347
0.0050816974 -0.095350385 -0.040110666 0.016670058 -0.003831156 0.043789793 -0.016347367 0.008684284
0.0005268888 0.0014727587 0.032328106 0.005318412 0.08537447 -0.021462198 0.03285376 -0.15966327
-0.038477715 -0.065741606 0.109021746 -0.016522527 0.09453629 0.03489412 -0.14894058 0.033380646
-0.14342558 0.06478202 -0.16715293 0.13137403 0.00996879 -0.02442877 0.04265065 0.09480544

net.6.bias f4 [64]
00000000: 7b83 3a3e a877 453e 8d07 a43d 99aa fa3d
00000010: ad4b 023d e2df 093d e27c dc3d 6faa eb3d
00000020: 27aa 4f3c 543b 9e3c 0a16 b33d 2511 df3d
00000030: 25e6 fbbd 94d4 033e dc84 ca3d 71a3 973d
00000040: 8e34 403e 07d5 943a 3d9c d63d 7cb4 eb3d
00000050: be04 b73d a035 113e 53fc c63d 3ec0 a23d
00000060: c27f 403d 85c3 a23d 2c57 273e b0f6 c83d
00000070: aada 143d 6de1 2b3e 2cea d43d 9072 31ba
00000080: 0762 f43d 1e5e fd3d a280 c43d 5271 823d
00000090: 3618 5f3d 9fea 223e 6fa6 1f3e c3e1 e93d
000000a0: 1d32 493d 1a0a 103e 863b f23d 7385 a03d
000000b0: f3f9 f13d 287d 3b3e 504a 0d3e 034d 0c3e
000000c0: 5243 de3d 28fe e23d 710c eb3d 63c1 f73d
000000d0: 5adf 3b3e 4a8e 283d 3ad7 d13d 88a1 963d
000000e0: 5fb5 733d ea41 a63d 6cb8 8d3d e55f fc3d
000000f0: 55d2 df3d ca02 8c3c 64e0 233e 391f be3d
0.18214218 0.19283926 0.08009253 0.1223957 0.03181045 0.033660777 0.10766007 0.11507117
0.012674845 0.0193154 0.08744438 0.10891942 -0.12299756 0.12874061 0.09888622 0.07404221
0.18770048 0.0011354991 0.10479019 0.11509034 0.089364514 0.14180613 0.09716096 0.079468235
0.04699684 0.07947449 0.16341847 0.09812677 0.036341347 0.16785212 0.10396227 -0.00067690853
0.1193276 0.12371467 0.09594847 0.063692704 0.05446645 0.15909813 0.15590833 0.11420014
0.049120057 0.14066353 0.118277594 0.078379534 0.11815252 0.18309462 0.13797879 0.13701253
0.10852684 0.11083633 0.114769824 0.120974325 0.1834692 0.041151322 0.10246129 0.073550284
0.05949914 0.08118041 0.06919941 0.12322978 0.109287895 0.017091174 0.16003567 0.09283299

net.9.weight f4 [4, 64]
00000000: 8099 613c 77e1 d13d ed7d 5bbd 1937 a23d
00000010: 1f14 b5bd aa69 833d 1a02 a4bd b7aa c0bd
00000020: 98cd 1cbe ebc2 01bd c459 eebd af22 efbd
00000030: 192f 8fbc 92e3 e3bc 6fa8 b23d f1fb df3d
00000040: ba18 b3bd e9fd 21be 6063 97bd b637 503d
00000050: aaf8 e73d 27e6 f3bd 412f a43d a274 d6bd
00000060: 0092 81bc 32b2 e2bd af6a 883d 966a fabd
00000070: 34e9 2e3c 5bb5 273b 55f4 253d 92d9 8e3d
00000080: e9b5 cabd 049a c63d e7fc a73d 6e91 f3bd
00000090: 1cb4 d4bc bdd7 c3bd fa54 db3d e855 d83d
000000a0: dd41 17be 3458 a2bd ba2f cf3d 4654 c8bc
000000b0: adf4 14be 06f0 af3d e0eb 8ebd 286a a1bd
000000c0: 5597 9ebd 4a25 ccbd 7c3c 693c 157b c03d
000000d0: 8886 b73d 862d 0d3e 35a3 7b3d 9acb 1fbc
000000e0: 1e98 2fbd f442 d9bd ee0f fcbc eb58 32be
000000f0: 53f3 9b3d aa10 fd3d 5c90 d73d d621 c0bd
00000100: c04f d2b8 4712 ed3d 5f0d 92bd 1dc1 973d
00000110: 0b66 8dbd 01fe a13d ff74 b3bd 4105 abbd
00000120: 85a6 e1bd a706 38bd fb25 d1bd a589 f1bd
00000130: 03e4 48bd ac4e 22bd a728 c43d 889f 023e
00000140: bd4e b5bd bfb8 00be 5793 9cbd 8fd8 733d
00000150: c6e0 0f3e 8e50 d4bd af54 a83d 0e95 b8bd
00000160: 4800 2dba 5976 cbbd 0d36 a63d f6da cdbd
00000170: cff7 b63c 0636 1abb 648c 443d 03f7 ad3d
00000180: bd51 c8bd 8da5 fa3d 0415 f13d 23c7 d0bd
00000190: 4aa7 22bd 5382 b8bd de88 053e 950b ff3d
000001a0: be52 dfbd bea3 9ebd b53a ed3d dcf4 0dbd
000001b0: 8241 d3bd 2fab b03d 239e 89bd 8766 a0bd
000001c0: e053 9ebd a44a b8bd 3e94 61bb 3227 e83d
000001d0: d7fd d33d 40cb 2b3e e1bb 8dbd 930a ebbb
000001e0: 99e5 31bd 2c61 c1bd b74d fdbc 524c 01be
000001f0: 2055 8d3d 9fea 083e 59ab fa3d 7f6a 9bbd
00000200: 7218 6e3d 6823 9bbc 8796 bf3d 49ff 0abe
00000210: 025e 13be c591 f9bd 7023 63bd 01e1 173e
00000220: 512a 9ebd 9b93 233e 97b8 b43d cad4 a9bd
00000230: 0826 b3bc eabd b5bd d339 b73d e05f acbd
00000240: d191 b3bd 28fa ce3c b764 b23d 56f7 1c3c
00000250: 502e aebc cd6a b13d cea8 edbd d53b efbd
00000260: 43e9 06be 54f2 12be 9fc2 98bd d844 6d3d
00000270: 9bcc 1c3e 8bc6 c0bd 39e3 9c3d 0489 19be
00000280: cbbb 193e 18b8 24bd f71e bbbc 3a51 9d3d
00000290: ef6b bc3d b6d4 edbc 9d2f 8f3b e1ec 98bd
000002a0: e493 19bd ffe0 a93d 8c82 21be 06fa 06be
000002b0: 8ace 4d3d 0eba 12bd bbb4 553d e1b4 dfbd
000002c0: 87ed 14be da7e 063d 0862 9abd d7b5 c23c
000002d0: 8c61 dbbb e265 f3bb 0370 1bbe 1644 3c3e
000002e0: 2333 0b3d 1c37 b53d 2d4d edbd 4be0 c03c
000002f0: be1d 22be aa5e 9abd 3db1 453d 521a a4bd
00000300: d832 27be 8b04 e1bd 731e dc3d 1e92 863d
00000310: 99b7 04bc 0e3b a5bc 3729 00be d546 483d
00000320: e455 bb3d 5ccb d13d 5596 af3d 5426 adbd
00000330: 7f2d d6bc 696d edbd d9b3 1ebc 1071 3f3d
00000340: a17c 14be 384e 793d 7998 f83d f56c 1e3e
00000350: e967 cdbd e73e cb3d 7b2c 93bd 5c64 7dbd
00000360: bf74 b33c a88f 18be 721f dabd 25a7 a33d
00000370: 073f d03d 1854 06be 0aec 173e 2100 c0ba
00000380: 8173 df3c e3cd 96bd 0547 a6bd ac07 bc3d
00000390: a33e 0b3e 6892 5bbe 93e7 87bd 750b adbd
000003a0: 5e21 a2bd f8cf 133e b86a 0a3c 6264 05be
000003b0: 2eb9 213d 3117 27be 8e62 aa3d 5724 2ebe
000003c0: e154 10be cafc 073e d9c0 7e3e e377 80bd
000003d0: 1f6b b0bd 1bb9 e33d 82c5 86bd 0009 0f3d
000003e0: cfbd 2c3e 4712 c53d 9c92 e9bd 86a5 dc3d
000003f0: dbf5 363d 183e bc3d e4df 63bd 39eb 8bbc
0.013769507 0.10248082 -0.05358689 0.07920665 -0.088417284 0.06416638 -0.08008213 -0.09407561
-0.15312803 -0.03168003 -0.11638215 -0.11676537 -0.017478513 -0.027818475 0.087235324 0.10936726
-0.087449506 -0.15819515 -0.07392001 0.05083438 0.11326726 -0.119091325 0.080168255 -0.10471465
-0.015816689 -0.11069144 0.06660973 -0.12227361 0.010675717 0.0025590274 0.040516216 0.06975092
-0.09897978 0.09697345 0.08202534 -0.11892973 -0.02596479 -0.09562633 0.10709567 0.1056326
-0.14771219 -0.0792698 0.10116525 -0.024454247 -0.14546461 0.08590703 -0.06978583 -0.07881576
-0.07743708 -0.0996805 0.014235612 0.09398476 0.08961207 0.13786897 0.061434943 -0.009753132
-0.04286968 -0.106084734 -0.030769315 -0.17416732 0.0761477 0.12356694 0.10525581 -0.09381454
-0.00010028435 0.11575752 -0.071314566 0.0740988 -0.06904229 0.079097755 -0.087625496 -0.083506115
-0.11018089 -0.04492822 -0.10212322 -0.11793832 -0.049045574 -0.03962581 0.09578066 0.12756169
-0.08852909 -0.12570475 -0.0764529 0.0595327 0.14050588 -0.10366927 0.08219277 -0.09012805
-0.0006599468 -0.099346824 0.08115778 -0.10051529 0.022334961 -0.0023530736 0.04798545 0.08494379
-0.09781215 0.122386076 0.117715865 -0.10194232 -0.03971032 -0.09009232 0.13040492 0.12453381
-0.10904454 -0.07746075 0.11583463 -0.034657344 -0.10315229 0.08626401 -0.06719615 -0.078320555
-0.07730842 -0.089986116 -0.0034420635 0.11335601 0.103511505 0.16776752 -0.06920601 -0.0071728914
-0.043431852 -0.09442362 -0.030920846 -0.1262677 0.06901002 0.13370751 0.12239713 -0.07588672
0.05812878 -0.018937781 0.09354883 -0.13573946 -0.1439133 -0.121860065 -0.055453718 0.14831926
-0.07722915 0.15974276 0.0882427 -0.082925394 -0.02186872 -0.08874114 0.08946576 -0.08416724
-0.08768047 0.025265768 0.08710616 0.009580454 -0.021262318 0.08662949 -0.116044626 -0.11681334
-0.1317492 -0.14350253 -0.07458996 0.057926983 0.15312426 -0.09412869 0.07660527 -0.14993674
0.15013044 -0.040214628 -0.022841914 0.07681508 0.09200274 -0.029032093 0.0043696896 -0.07467056
-0.037494555 0.08294868 -0.15772456 -0.13181314 0.0502458 -0.035821967 0.05217431 -0.10923172
-0.14543734 0.03283582 -0.07538229 0.023768349 -0.006694978 -0.007427917 -0.15179448 0.18385348
0.033984315 0.08848402 -0.11586986 0.023544451 -0.15831658 -0.07537587 0.04826473 -0.08012833
-0.16327989 -0.10987195 0.10747995 0.065708384 -0.008100414 -0.020169761 -0.12515722 0.048895676
0.09147242 0.10243866 0.085735954 -0.08454576 -0.026144741 -0.11593134 -0.009686434 0.046738684
-0.14500667 0.06086561 0.12138457 0.15471251 -0.10029585 0.09924107 -0.07186218 -0.06186329
0.021906255 -0.1489855 -0.10650529 0.07990865 0.101682715 -0.13118017 0.14836136 -0.0014648476
0.027276756 -0.073634885 -0.08119015 0.09181151 0.13598113 -0.21442568 -0.06635966 -0.08449451
-0.079165205 0.14434803 0.008448295 -0.13026574 0.03948324 -0.1631744 0.08319579 -0.1700605
-0.14094879 0.13280025 0.24878253 -0.062728666 -0.08614182 0.111192904 -0.065806404 0.034920692
0.16869281 0.09622627 -0.11404917 0.107737586 0.04466806 0.09191531 -0.05563344 -0.017079936

net.9.bias f4 [4]
00000000: df10 e53c e541 4dbd bb9c e13d 821f 4b3d
0.027962146 -0.05011167 0.11016222 0.049590595
